model/cross_validation/hp_nested_cv/checkpoint/c000_c003_64_32_0.0001_64_0.3.pt (torch, 118103 bytes, 5 tensors)

fc1.weight f4 [64, 420]
0	0x3b0ea1ea	0.0021763989
1	0xbc2ec92b	-0.010668079
2	0xbd3afe6a	-0.045652784
3	0xbcaa6293	-0.020798957
4	0xbcdd008e	-0.026977804
5	0xbc97b47a	-0.018518675
6	0x3cb147f7	0.02164076
7	0x3b8c64ae	0.004284463
8	0x3c81b3ea	0.01583286
9	0xbbca64f5	-0.006176586
10	0xbce54962	-0.027989093
11	0xbcbd034f	-0.023072867
12	0x3c820191	0.015869888
13	0xbc2abd2d	-0.01042108
14	0x3c224767	0.009904719
15	0xba8f09ae	-0.0010912919
16	0x3c36c797	0.011155984
17	0xbd624bcf	-0.055248078
18	0x3d401f08	0.046904594
19	0xbce32b55	-0.027730623
20	0xbc64f917	-0.013975403
21	0xbc40d298	-0.011768959
22	0xbb903f97	-0.0044021118
23	0x3bcfb537	0.006338741
24	0xbcc16bf7	-0.023611052
25	0xbc15f490	-0.0091525465
26	0xbd895e68	-0.0670746
27	0xbc1ec7d9	-0.009691202
28	0x3c8d36cd	0.017238045
29	0xbc824ab7	-0.015904767
30	0x3cbe81a6	0.02325518
31	0xbcebd584	-0.028788336
32	0xbcf330d1	-0.029686363
33	0xbd2cab53	-0.042155575
34	0xbc66ac0f	-0.014079108
35	0x3bb5e707	0.0055512222
36	0xbd112c69	-0.035442743
37	0x3c02fe5c	0.007995214
38	0xbdadcae4	-0.08485964
39	0x3d016dee	0.031598978
40	0xbc7090ab	-0.014682929
41	0x3bdbd97c	0.006709276
42	0x3ca259aa	0.019818146
43	0xbbcf38ef	-0.0063239257
44	0xbb3fe3db	-0.00292801
45	0xbba3ab09	-0.004994754
46	0x3d01b8d0	0.03167039
47	0xbc856faf	-0.016288606
48	0xbc0a0781	-0.008424641
49	0xbb2f8617	-0.0026782805
50	0x3c80da23	0.015729016
51	0xbcab0b55	-0.020879427
52	0x3c15cc9a	0.009143019
53	0xbc1cda8c	-0.00957359
54	0xbd8d5e35	-0.06902734
55	0x3ce8b5cc	0.028407
56	0x3c93f7c4	0.01806248
57	0xbc8dc540	-0.01730597
58	0xbbe0c372	-0.0068592364
59	0xbc935d57	-0.017988844
60	0xbc96c71a	-0.018405486
61	0xbd4e46d1	-0.050360505
62	0x3d460d82	0.048352726
63	0xbc9fb925	-0.019497463
64	0xbbbcb41d	-0.005758776
65	0x3cf4b36a	0.029870708
66	0x3c9aafa9	0.01888259
67	0x3a701b81	0.0009159372
68	0x3b5984a1	0.0033190625
69	0x3b8464ee	0.004040352
70	0xbd9ae3ce	-0.075629815
71	0xbd8a4dfe	-0.06753157
72	0xbd15f702	-0.036612518
73	0x3cd1d28b	0.02561309
74	0xbb9b7311	-0.0047439416
75	0x3c1a1a54	0.009405691
76	0x3ca58d91	0.020209106
77	0x3ca46c12	0.020071063
78	0x3d34bf6a	0.04412786
79	0x3c8343fa	0.016023625
80	0xba1ceb8c	-0.0005986027
81	0xbca6420a	-0.020295162
82	0xbc2f9ea8	-0.010718979
83	0x3c521ba6	0.012823975
84	0xbc58b1ec	-0.013226014
85	0xba0554ea	-0.00050862005
86	0x3bea7d81	0.0071560745
87	0xbbe44778	-0.0069665276
88	0xbc800053	-0.015625155
89	0xbd039e58	-0.03213343
90	0x3d2a2913	0.041543078
91	0xbacf8619	-0.0015832811
92	0x3bfc6318	0.0077022426
93	0xbcb71466	-0.022348594
94	0xbd8958fc	-0.067064255
95	0x3a2e52df	0.0006649922
96	0x3b1994a4	0.0023434544
97	0xbc7f336b	-0.015576224
98	0xbbf32611	-0.0074203094
99	0x3c9d884a	0.019230027
100	0xb89fc889	-7.6190634e-05
101	0xbceb9437	-0.028757198
102	0xbd8ca09e	-0.06866573
103	0x3c0d35f0	0.008618817
104	0xbbdffdb2	-0.0068356628
105	0xbc1c405c	-0.009536829
106	0xbcc13fc7	-0.023589982
107	0x3c999650	0.018748432
108	0xbc59c3b5	-0.013291289
109	0xbcd798e6	-0.026318025
110	0xbc7fccc7	-0.015612788
111	0xbd43a192	-0.047761507
112	0x3c5f8796	0.013643166
113	0xb9dad092	-0.00041735597
114	0x3bcefce5	0.0063167685
115	0x3be64bd4	0.0070280824
116	0xbb9874e6	-0.0046526073
117	0xbc12a4ea	-0.008950451
118	0x3d35d2c0	0.04439044
119	0xbd962174	-0.073305994
120	0x3d480287	0.048830535
121	0x3e0e065a	0.1386961
122	0x3d82cb5b	0.06386443
123	0x3c71a225	0.014748131
124	0xbdfa63e1	-0.12226082
125	0x3d6206a7	0.055182125
126	0x390d6bba	0.00013486939
127	0xbd91939a	-0.07108231
128	0xbd111214	-0.03541763
129	0xbbf766b9	-0.0075500873
130	0xbc27b8c1	-0.01023692
131	0x3cc5184c	0.024059437
132	0xbc49b6a2	-0.012311609
133	0x3d56eea1	0.052473668
134	0xbd396d3a	-0.045270182
135	0x3d194fc4	0.037429586
136	0xbc34d558	-0.011037193
137	0xbcc5e258	-0.02415578
138	0xbbcdd0da	-0.0062810006
139	0xbd3b3111	-0.04570109
140	0x3c2bebfd	0.010493276
141	0x3e6e9a6c	0.23301095
142	0x3ca400e0	0.020019948
143	0xbe8302d8	-0.25588107
144	0x3daf32b2	0.08554591
145	0x3daaad4e	0.083338365
146	0xbe0d94dc	-0.13826317
147	0x3d8e501e	0.06948875
148	0x3d9b9e96	0.07598607
149	0x3bcddfd3	0.0062827854
150	0x3d0a3b40	0.03374791
151	0x3d199a92	0.037500925
152	0xbe2a5160	-0.16632605
153	0x3cf7c2df	0.030244289
154	0xbdf2ef95	-0.11862103
155	0x3dbbedb5	0.091761984
156	0x3dfdfeac	0.124020904
157	0x3db962d8	0.09052056
158	0x3e5249e5	0.20536001
159	0xbd4a0e5d	-0.049330104
160	0xbd94f873	-0.072739504
161	0x3d181d00	0.03713703
162	0xbe20aca6	-0.1569086
163	0x3dbfa449	0.09357507
164	0x3be87c25	0.0070948773
165	0x3cea0c18	0.02857022
166	0x3c86592c	0.016399942
167	0xbd9bbad2	-0.076039925
168	0xbd1e3849	-0.038627896
169	0x3d436f5a	0.047713615
170	0x3c1309b1	0.008974479
171	0x3d839395	0.064246334
172	0xbe0d00fe	-0.1376991
173	0x3d408cc5	0.04700925
174	0xbdfd061d	-0.12354682
175	0x3d4354cf	0.0476883
176	0x3d234790	0.03986317
177	0x3bd29aa0	0.006427124
178	0x3d1ad977	0.037805047
179	0x397a6acd	0.00023881644
180	0x3d09a954	0.03360875
181	0x3e0e3bf0	0.13890052
182	0xbcfd147d	-0.030893559
183	0x3c6ad19d	0.014332202
184	0xbcd34a5f	-0.025792299
185	0x3c17dead	0.009269399
186	0xbd0e5e75	-0.03475805
187	0xbd2f5f6d	-0.042815614
188	0xbd5a154b	-0.053242963
189	0xbcb919c0	-0.022595286
190	0x3dc3bf80	0.0955801
191	0x3d055ce8	0.032559305
192	0x3c921397	0.017831607
193	0x3cec75ea	0.02886482
194	0xbd24ee41	-0.04026628
195	0x3cb4ebbf	0.022085069
196	0xbd0054b8	-0.031330794
197	0xbb8b1483	-0.0042443885
198	0x3c597c1a	0.013274217
199	0xbc3a7692	-0.011380808
200	0x3cefd72c	0.029277407
201	0x3dd329a9	0.103106804
202	0xbc14d157	-0.009083114
203	0x3d83ae3e	0.064297184
204	0xbc8552ad	-0.016274774
205	0xbcc498fc	-0.02399873
206	0xbdaec48c	-0.08533582
207	0xbc319307	-0.010838277
208	0xbcd46dd7	-0.025931282
209	0x3c71f9f5	0.014769067
210	0x3d9c0bf0	0.076194644
211	0xbb76a472	-0.0037634638
212	0x3c86f917	0.016476197
213	0x3cfe6c9e	0.031057652
214	0xbdf5c22d	-0.11999927
215	0x3c73e901	0.014887095
216	0x3cfaaea5	0.030600855
217	0xbd28c7bb	-0.041206103
218	0x3cc2bd65	0.023771951
219	0xbce961d0	-0.028489023
220	0xbc68e891	-0.014215604
221	0x3d330024	0.043701306
222	0x3da07224	0.078342706
223	0x3d24c5d2	0.04022772
224	0x3c08408c	0.00831617
225	0x3c229f63	0.009925696
226	0xbb89bda3	-0.0042035147
227	0xbdb50ed2	-0.088407174
228	0x3bf85c4b	0.0075793616
229	0xbd03689a	-0.032082178
230	0xbcc6b0d8	-0.024254248
231	0x3c1402a0	0.009033829
232	0xbccc6c4d	-0.024953986
233	0x3cab460d	0.020907426
234	0xbdb5e692	-0.088818684
235	0x3cbee8e2	0.023304407
236	0xbcf212eb	-0.029550036
237	0xbc327203	-0.01089144
238	0x3d492a41	0.049112562
239	0xbce5f336	-0.028070074
240	0x3c723208	0.014782436
241	0x3dbdc63e	0.09266327
242	0x3d0cc586	0.03436806
243	0x3d6464ac	0.05576007
244	0xbdb4da2a	-0.08830674
245	0x3e05bac8	0.13059533
246	0xbd828c23	-0.06374385
247	0x3b3dc67e	0.0028957422
248	0x3d34f0b2	0.044174857
249	0xbb37fe53	-0.0028075173
250	0xbd8736b2	-0.06602229
251	0xbcbef704	-0.023311146
252	0xbd3bb084	-0.045822635
253	0x3c36f519	0.011166834
254	0xbcde844b	-0.027162692
255	0x3d71832f	0.058962997

fc1.bias f4 [64]
0	0xbcbee3ce	-0.023301985
1	0xbd85554f	-0.06510412
2	0xbd6c5acb	-0.057703774
3	0xbd68400f	-0.056701716
4	0xbd1f2c96	-0.03886088
5	0xbd8eb32a	-0.069677666
6	0xbcc9a31d	-0.024613911
7	0xbd46b9c1	-0.048516992
8	0x3b218967	0.0024648549
9	0xbda07dac	-0.0783647
10	0xbcae5c2b	-0.021284183
11	0xbd19c4f7	-0.037541356
12	0xbcb7e827	-0.022449566
13	0xbd34f96a	-0.044183172
14	0xbc53aa9f	-0.012919097
15	0xbda3697a	-0.079791024
16	0xbcbd4725	-0.023105213
17	0xbd1a220e	-0.037630133
18	0x3c5a7746	0.013334101
19	0xbd8cd0b5	-0.06875745
20	0xbc9eb139	-0.019371616
21	0xbd842ccf	-0.06453859
22	0xbd87a6a1	-0.06623579
23	0x3bdea553	0.0067946105
24	0xbbc6c6f1	-0.006066196
25	0xbc8e3879	-0.017360913
26	0xbd7a63ba	-0.061130263
27	0xbd4a87bc	-0.049445853
28	0xbbdd4c1c	-0.0067534577
29	0x3cdfb048	0.027305737
30	0xbc00bec7	-0.007857985
31	0xbd7578b3	-0.05992956
32	0xbd07b3d2	-0.033130474
33	0xbda48ca2	-0.08034636
34	0xbd441051	-0.047867123
35	0xbcab635e	-0.020921405
36	0xbd01f24c	-0.031725213
37	0xbd53578e	-0.05159717
38	0xbc978076	-0.018493872
39	0xbd9696eb	-0.07353004
40	0xbd8e2358	-0.06940335
41	0xbc03936e	-0.008030755
42	0xbdad1a25	-0.08452252
43	0xbd88d2a5	-0.06680802
44	0xbcbb9a9e	-0.022900876
45	0xbc6551f2	-0.013996588
46	0xbd1e5cab	-0.038662594
47	0xbd63cfd0	-0.055618107
48	0xbd4b6547	-0.049657132
49	0xbd1b22b0	-0.037874877
50	0xbcc82c25	-0.024435112
51	0xbc866eb2	-0.016410206
52	0xbc677d21	-0.014128954
53	0xbd2b2cb2	-0.04179067
54	0xbd22069f	-0.039557096
55	0xbd46cc1d	-0.0485345
56	0xbd42a104	-0.047516838
57	0x3c315437	0.010823301
58	0xbd95a287	-0.0730639
59	0xbd7f7217	-0.062364664
60	0xba9f59cf	-0.0012157502
61	0xbce78832	-0.028263185
62	0xbb0fb530	-0.0021928065
63	0x3d358379	0.044314835

fc2.weight f4 [32, 64]
0	0x3e2e41c7	0.1701728
1	0x3e10f3da	0.14155522
2	0xbe769507	-0.24080287
3	0x3de9fed2	0.11425556
4	0xbe92a528	-0.2864163
5	0xbe434ee3	-0.19073062
6	0x3dcfad61	0.10140491
7	0x3d67e051	0.05661041
8	0x3e38881f	0.18020676
9	0xbe4719cd	-0.19443436
10	0xbe90d828	-0.28289914
11	0x3e2373e8	0.15962183
12	0xbe781383	-0.24226193
13	0xbe9f4687	-0.31108496
14	0x3e6fa3bf	0.23402308
15	0xbe814fae	-0.25256103
16	0x3de5cfb5	0.112212576
17	0x3e568d2f	0.20952295
18	0x3e22ff7d	0.15917774
19	0x3e5feea8	0.21868384
20	0xbea9fbbc	-0.3319987
21	0x3e3c95bd	0.18416496
22	0xbe92827c	-0.28615177
23	0xbe3a8d98	-0.18218076
24	0x3e376dc6	0.17912969
25	0xbe110a8d	-0.14164181
26	0xbe266de2	-0.16252854
27	0x3e9ee5b6	0.3103463
28	0x3de0d17f	0.10977458
29	0x3c00151f	0.007817536
30	0x3e410dc6	0.1885291
31	0x3e41cbe6	0.18925437
32	0x3dc6e0d9	0.09710855
33	0xbe614bec	-0.22001618
34	0x3e33e72d	0.17568655
35	0x3df85bc6	0.121268794
36	0xbe1e3b2e	-0.15452263
37	0x3dc3d9ff	0.09563064
38	0xbe30cf88	-0.17266667
39	0xbeaaf9e5	-0.3339378
40	0xbe330f75	-0.17486365
41	0x3db142d8	0.086553276
42	0xbe204fa0	-0.15655375
43	0xbe9b9dcb	-0.30393824
44	0x3e053481	0.1300831
45	0xbe34da83	-0.1766148
46	0x3df4917a	0.1194181
47	0xbebe25dc	-0.3713826
48	0x3e4140b6	0.18872342
49	0x3e1f8a14	0.15580016
50	0x3e0168ab	0.12637584
51	0x3db8758c	0.09006795
52	0x3d8aa69f	0.06770062
53	0xbe0ecf61	-0.13946296
54	0xbe8d4dc9	-0.27598408
55	0xbe80516b	-0.25062117
56	0x3e0c1421	0.13679554
57	0x3d94e21a	0.07269688
58	0xbe8fe518	-0.28104472
59	0xbe759cab	-0.23985545
60	0x3e0b7d76	0.13622078
61	0x3e465601	0.19368745
62	0xbb9458cb	-0.0045271865
63	0x3ce9b367	0.028527929
64	0xbde70fc8	-0.11282307
65	0xbe378f55	-0.1792577
66	0x3e02181e	0.12704512
67	0xbe303403	-0.17207341
68	0x3d53bc2b	0.051693123
69	0x3d73045b	0.059330326
70	0xbe738e1e	-0.23784682
71	0xbe1865ff	-0.14882658
72	0xbe4bf2e1	-0.1991687
73	0x3dada2a5	0.084782876
74	0x3e30285f	0.172029
75	0xbdd951f4	-0.106113344
76	0x3e135a63	0.14389949
77	0x3e852bb3	0.26009902
78	0xbe943d09	-0.28952816
79	0x3e645bbe	0.22300622
80	0xbea16955	-0.31525674
81	0xbe2416a3	-0.1602426
82	0xbe2c649c	-0.16835254
83	0xbe844bb2	-0.25839
84	0x3dcec887	0.10096841
85	0xbe4e8e92	-0.20171574
86	0x3e07d645	0.13265331
87	0x3e09470c	0.13406008
88	0xbea2253e	-0.3166904
89	0x3d85bf7e	0.06530665
90	0x3e0bb54e	0.13643381
91	0xbe2ded7b	-0.16985123
92	0xbea15566	-0.31510466
93	0xbe807257	-0.25087234
94	0xbe86fcf1	-0.26364854
95	0xbe048e0d	-0.12944813
96	0xbe93cdbc	-0.288679
97	0x3d7f78c8	0.062371045
98	0xbe1028a6	-0.14078006
99	0xbe932201	-0.2873688
100	0x3e2f85ef	0.17140935
101	0xbe4e994c	-0.20175666
102	0x3e2dcec0	0.169734
103	0x3e6940bc	0.227786
104	0x3e51c100	0.2048378
105	0xbe85a43d	-0.26101866
106	0x3e0933d0	0.13398671
107	0x3e8cd610	0.27507067
108	0xbe555c65	-0.20836027
109	0x3e482f4b	0.19549291
110	0xbe28c6ec	-0.16482133
111	0x3e374120	0.17895937
112	0xbe92ee6f	-0.28697535
113	0xbe0449bb	-0.12918751
114	0xbe2bdfec	-0.16784638
115	0xbeb00526	-0.34378928
116	0xbe0c1c64	-0.13682705
117	0x3e5f7101	0.21820451
118	0x3da953a7	0.082679085
119	0x3e20b901	0.15695573
120	0xbe03f3c9	-0.12885965
121	0xbdfefdce	-0.12450753
122	0x3e05039e	0.12989661
123	0x3dfd1f92	0.12359537
124	0xbe3b9280	-0.18317604
125	0xbe9f5654	-0.3112055
126	0xbe4737a4	-0.19454819
127	0xbe754c9b	-0.23955004
128	0x3e3f93fa	0.18708792
129	0x3e5767c3	0.21035676
130	0xbe6264e7	-0.22108804
131	0x3ddb3dfd	0.10705183
132	0xbe3b2d63	-0.18279032
133	0xbe09a5ff	-0.13442229
134	0x3d9ec32b	0.07752069
135	0x3e7dccbf	0.24785136
136	0x3e4f86e3	0.20266299
137	0xbe137201	-0.14398958
138	0xbdc95303	-0.09830286
139	0x3de271d0	0.11056864
140	0xbe186f97	-0.14886318
141	0xbe6c616b	-0.23084037
142	0x3e6af0b6	0.22943386
143	0xbe3e91ef	-0.18610357
144	0x3e61f634	0.22066575
145	0x3e7705c2	0.2412329
146	0x3e0f164b	0.13973348
147	0x3e54d550	0.20784497
148	0xbe411b51	-0.18858077
149	0x3e39063d	0.18068786
150	0xbdc64a54	-0.09682146
151	0xbdb0c10c	-0.08630571
152	0x3e33d109	0.1756021
153	0xbdc48c9d	-0.09597132
154	0xbde9a539	-0.11408467
155	0x3e4df851	0.20114256
156	0x3e8a4d50	0.2701211
157	0x3da2ff64	0.07958868
158	0x3dd921fd	0.10602186
159	0x3e76c4d1	0.24098517
160	0x3e264abc	0.16239446
161	0xbe60eaeb	-0.21964614
162	0x3dc25609	0.09489066
163	0x3e65e961	0.22452308
164	0xbe0d0824	-0.13772637
165	0x3dc0dbe4	0.09416941
166	0xbe409a4d	-0.18808861
167	0xbe93ae20	-0.28843784
168	0xbe2f045c	-0.17091507
169	0x3d9ab93b	0.07554861
170	0xbe5ecb60	-0.21757269
171	0xbe37cbdf	-0.17948864
172	0x3ddc6062	0.10760571
173	0xbe24a65c	-0.16079086
174	0x3e2b2272	0.16712359
175	0xbe501264	-0.20319515
176	0x3db9f4b6	0.09079878
177	0x3dc5239b	0.09625932
178	0x3e5495ad	0.20760222
179	0x3e343245	0.17597301
180	0x3d89b444	0.06723836
181	0xbe13db91	-0.14439227
182	0xbddd822d	-0.10815845
183	0xbd9bb5d7	-0.076030426
184	0x3da26f16	0.07931344
185	0x3e84c511	0.259316
186	0xbe022447	-0.12709151
187	0xbdebfa89	-0.11522395
188	0x3e7ecb02	0.24882129
189	0x3dbd2c17	0.09236925
190	0x3d4a0621	0.04932225
191	0x3a34d640	0.0006898381
192	0x3e2cfdaa	0.1689364
193	0x3e25dd24	0.1619764
194	0xbe3faa94	-0.18717414
195	0x3e2a55a5	0.16634233
196	0xbe9aceea	-0.30235988
197	0xbe86e954	-0.2634989
198	0x3dbe3601	0.09287644
199	0x3de90fed	0.11379991
200	0x3d71106e	0.05885356
201	0xbe931d21	-0.2873316
202	0xbe88352c	-0.26603067
203	0x3e030c5a	0.1279768
204	0xbe8b536e	-0.2721209
205	0xbe97c7c0	-0.29644585
206	0x3e2dbbe1	0.16966201
207	0xbe88bc1d	-0.2670602
208	0x3e245a46	0.16050062
209	0x3e0479ec	0.12937135
210	0x3d10f767	0.03539219
211	0x3e2ee231	0.17078473
212	0xbe80aeb7	-0.25133297
213	0x3e17341d	0.14765973
214	0xbe71be65	-0.23607786
215	0xbe9e333f	-0.30898473
216	0x3e20c369	0.15699543
217	0xbe2e02c5	-0.16993244
218	0xbe73e53d	-0.23817916
219	0x3e723712	0.2365382
220	0x3e1be449	0.15223803
221	0x3cf104f8	0.029421315
222	0x3ddab551	0.106791146
223	0x3dbe8ccc	0.093041986
224	0x3e39688a	0.18106285
225	0xbe74be55	-0.23900731
226	0x3d9a6d24	0.07540348
227	0x3cad4cd8	0.021154806
228	0xbe4892b0	-0.19587207
229	0x3df3d8eb	0.11906608
230	0xbe8ae59a	-0.27128297
231	0xbeac2632	-0.3362289
232	0xbe2b2076	-0.16711602
233	0x3de894d0	0.11356509
234	0xbe7121c7	-0.23548041
235	0xbe9f8c32	-0.31161648
236	0x3c95da21	0.018292489
237	0xbe82b0eb	-0.25525603
238	0x3dbff813	0.09373488
239	0xbec467f4	-0.3836056
240	0x3e2c0152	0.16797379
241	0x3db446d4	0.08802572
242	0x3e01c460	0.12672567
243	0x3dd55d04	0.10418132
244	0x3d109420	0.035297513
245	0xbe9aeba4	-0.30257905
246	0xbe873c57	-0.26413223
247	0xbe82be9e	-0.25536054
248	0x3d3295ea	0.0436
249	0x3dc9fd1a	0.098627284
250	0xbe8b4c26	-0.27206534
251	0xbe9f7ed6	-0.31151456
252	0x3db9c854	0.09071413
253	0x3de6212a	0.11236794
254	0x3d84ca7e	0.06483935
255	0x3b8d4cbd	0.0043121264

fc2.bias f4 [32]
0	0x3d8f33e9	0.06992323
1	0x3da7cb87	0.08193117
2	0x3d3e6686	0.046484493
3	0x3d919aa5	0.07109574
4	0x3d81c4de	0.063363776
5	0x3d9e4526	0.07728033
6	0x3dc7665e	0.09736322
7	0x3dbd42e2	0.092412725
8	0x3da0a76e	0.07844435
9	0x3d86aeb9	0.065762945
10	0x3d93f196	0.07223813
11	0x3d5f853b	0.054570418
12	0x3defb543	0.11704495
13	0x3d5cdfe2	0.05392445
14	0x3dd85ca2	0.10564543
15	0x3dcf72e5	0.10129336
16	0x3dbad2fd	0.09122274
17	0x3d405fdb	0.046966415
18	0x3d76d9f7	0.06026646
19	0x3dec06d8	0.11524743
20	0x3da1727d	0.07883165
21	0x3da9ea23	0.08296611
22	0x3d8501b1	0.06494463
23	0x3d83e987	0.06441026
24	0x3dd0829d	0.101811625
25	0x3d8e6538	0.069529
26	0x3dd7e9d9	0.1054265
27	0x3db301bc	0.08740565
28	0x3d909bf8	0.07060999
29	0x3d5bfc51	0.053707425
30	0x3d95705c	0.072968215
31	0x3da66dfc	0.081264466

fc3.weight f4 [1, 32]
0	0xbf04c10d	-0.5185707
1	0x3ee7ad45	0.45249382
2	0xbee7b50f	-0.45255324
3	0xbf20c1f9	-0.6279598
4	0xbedbf2d8	-0.42958713
5	0xbed97456	-0.4247157
6	0x3ef69502	0.4816056
7	0x3efd96c1	0.4952908
8	0x3eee8aff	0.4659042
9	0xbeef7f73	-0.46776924
10	0x3eef84f9	0.46781138
11	0xbf0a7f11	-0.5410014
12	0x3f041b8f	0.5160455
13	0xbefe23ce	-0.49636692
14	0x3f1bc7b8	0.6085162
15	0x3f00f37e	0.5037154
16	0x3f050642	0.51962674
17	0xbec13c5d	-0.37741366
18	0xbf0fbced	-0.5614765
19	0x3ef332f2	0.47499806
20	0xbee2ad81	-0.44272998
21	0x3f1a8e12	0.6037303
22	0xbede9bdb	-0.43478283
23	0xbee59393	-0.44839153
24	0x3f0d5269	0.5520387
25	0xbee94d66	-0.45566863
26	0x3ee74c81	0.45175555
27	0x3f067cca	0.52534163
28	0xbf11b402	-0.56915295
29	0xbec000ec	-0.37500703
30	0xbf10abbe	-0.5651206
31	0xbecb161f	-0.39665315
