model/cross_validation/hp_nested_cv/checkpoint/c000_c003_68_24_0.0001_32_0.1.pt (torch, 123223 bytes, 5 tensors)

fc1.weight f4 [68, 420]
0	0xbd91bca1	-0.07116056
1	0xbb615fef	-0.0034389456
2	0xbcb77a50	-0.02239719
3	0xbc9cfd9b	-0.019163897
4	0xbd1be40f	-0.03805929
5	0x3c907621	0.017634453
6	0x3d7d828e	0.061892085
7	0xbc029ff3	-0.007972705
8	0x3d351d59	0.04421744
9	0xbb080d6f	-0.002075996
10	0xbcd860a3	-0.026413267
11	0x3d16c16f	0.036805566
12	0xbb961750	-0.004580416
13	0x3d0ff4c7	0.035145547
14	0x3c72a0a9	0.014808812
15	0x3c2de1bb	0.0106129
16	0xbc84f674	-0.0162308
17	0x3cfdd63a	0.03098594
18	0xbd6c65e4	-0.057714358
19	0x3c4cead5	0.01250716
20	0x3b6d1755	0.0036177237
21	0x3b81af28	0.003957648
22	0xba90e0f9	-0.0011053375
23	0x3c308430	0.010773703
24	0x3aa56682	0.0012619051
25	0xbbbad06c	-0.0057011154
26	0xbdf87392	-0.12131418
27	0xbc5fae2e	-0.0136523675
28	0xbd63c5dc	-0.055608615
29	0x3cb43478	0.021997675
30	0x3c9e036a	0.019288737
31	0xbc3d8b80	-0.011568904
32	0x3ce9718a	0.028496522
33	0xbd02ea75	-0.031961877
34	0xbd1c5318	-0.038165182
35	0x3cba684f	0.022754816
36	0xbd5d4c81	-0.054028038
37	0x3d4d2c3d	0.050091017
38	0x3c997aa6	0.018735241
39	0x3b5e2871	0.0033898617
40	0xbd94834e	-0.07251607
41	0x3d296cd0	0.041363537
42	0xbd0c85e0	-0.03430736
43	0xbc78f41f	-0.015194922
44	0x3cb66b8c	0.02226808
45	0xbd2f4dff	-0.042798992
46	0xbba26274	-0.004955584
47	0x3d16603d	0.036712874
48	0x3c46d9b3	0.0121368645
49	0x3c977286	0.018487226
50	0x3cca4610	0.024691612
51	0xbd8f3aa7	-0.06993609
52	0xbd3f7586	-0.04674294
53	0xbce6fa57	-0.028195543
54	0x3c811f49	0.015761988
55	0xbc2cf299	-0.010555887
56	0xbd916843	-0.070999645
57	0xbc156ff6	-0.009120932
58	0xbd32187a	-0.043480374
59	0x3c21c966	0.009874677
60	0xbc2ff708	-0.010740049
61	0x3c7b150a	0.01532484
62	0xbcc81e3f	-0.024428485
63	0x3c6ce026	0.014457738
64	0x3cc1fff9	0.023681628
65	0xbd4a7fc7	-0.049438264
66	0xbc8d7945	-0.01726974
67	0xbd5210ec	-0.05128567
68	0xbd336650	-0.043798745
69	0xbc95e10b	-0.018295785
70	0xbc9f1e22	-0.019423548
71	0x3bdd3982	0.00675124
72	0xbd1c26c1	-0.038122896
73	0x3cfa161d	0.030528123
74	0xbd128075	-0.035767037
75	0x3b519c8b	0.0031984176
76	0xbc24d5ed	-0.0100607695
77	0xbc1ed560	-0.009694427
78	0xbcfa41dd	-0.030548984
79	0xbc5ef2a4	-0.013607655
80	0x3c7546e3	0.014970514
81	0xbcd8407d	-0.026397938
82	0x3c8ff960	0.017574966
83	0xbcd42ff7	-0.025901778
84	0x3c832195	0.016007224
85	0xbd53da7c	-0.051722035
86	0x3cddac52	0.027059708
87	0xbd368f53	-0.04457028
88	0xbc4707ed	-0.012147886
89	0xbca11b0f	-0.019666223
90	0xbc9ffd90	-0.019530088
91	0x3d0be36a	0.034152426
92	0xbd032ebe	-0.032027
93	0x3d080446	0.0332072
94	0xbb91e872	-0.0044527585
95	0xbb8ed7bf	-0.004359215
96	0x3bf7cf9d	0.007562591
97	0xbb5eea18	-0.0034014042
98	0xbd107b1c	-0.035273656
99	0x3c3856dc	0.011251178
100	0x3aa90a6f	0.0012896786
101	0x3d2ff399	0.042956922
102	0x3d8fd61c	0.0702326
103	0x3d5f9b1f	0.054591294
104	0xbc9d9765	-0.01923723
105	0xbd7dfa2e	-0.062006168
106	0xbc522b08	-0.012827642
107	0xbd880068	-0.066407025
108	0x3bb868e9	0.0056277406
109	0x3d6da7b9	0.05802128
110	0xbc9119a2	-0.017712418
111	0x38ca0e6e	9.634798e-05
112	0xbd642620	-0.05570042
113	0x3d2ce942	0.04221464
114	0xbc31b982	-0.010847451
115	0xbc5f5b5b	-0.013632621
116	0xbcf243b9	-0.029573308
117	0xbd5eb0ca	-0.054367818
118	0x3d11ea7a	0.035624005
119	0x3d642f1e	0.055708997
120	0x3ca64e75	0.020301083
121	0xbe8d14d0	-0.2755494
122	0x3d252184	0.040315166
123	0x3dfa18d0	0.12211764
124	0xbe0f8734	-0.1401642
125	0x3db8bd51	0.09020484
126	0x3c9763d6	0.018480223
127	0xbd99d42f	-0.07511174
128	0xbd09d652	-0.033651657
129	0xbde89e18	-0.11358279
130	0x3b627768	0.0034556035
131	0xbd4c9180	-0.049943447
132	0xbe9562f5	-0.2917706
133	0x3c5c276a	0.013437131
134	0x3c3ff5fc	0.011716362
135	0x3d264f3a	0.0406029
136	0xbd7030ee	-0.058640413
137	0xbd4850c3	-0.048905145
138	0xbd2abb40	-0.04168248
139	0xbd2a9f6f	-0.041655954
140	0x3c157375	0.009121765
141	0xbe2f4719	-0.17116965
142	0xbe77bbff	-0.24192809
143	0x3d8a338b	0.06748112
144	0xbe2679c8	-0.16257393
145	0xbe376f23	-0.17913489
146	0xbd1e84f1	-0.038701
147	0x3d25a557	0.040440883
148	0xbd92df6e	-0.07171522
149	0x3ce6ad54	0.028158821
150	0xbdd91776	-0.10600178
151	0xbdbef46d	-0.09323964
152	0xbe0513fe	-0.12995908
153	0x3bea8d7b	0.007157979
154	0x3e133256	0.1437467
155	0xbc196236	-0.009361794
156	0x3de45fd5	0.11151091
157	0x3dca9ed0	0.09893572
158	0xbdbc601a	-0.091980174
159	0xbd4d4cf1	-0.050122205
160	0xbc613372	-0.013745176
161	0xbe29ed68	-0.1659447
162	0xbe030578	-0.12795055
163	0xbda1db45	-0.079031505
164	0x3d430199	0.047608946
165	0xbe030436	-0.12794575
166	0xbc5ff561	-0.013669343
167	0x3dace98f	0.08442985
168	0xbd8461fd	-0.06464002
169	0x3b8a4d82	0.0042206654
170	0xbc96577d	-0.018352265
171	0x3d8e55f2	0.069499865
172	0xbe1b4b72	-0.15165499
173	0xbd551a1a	-0.052026846
174	0xbe125900	-0.14291763
175	0xbc5ebf18	-0.013595365
176	0x3cc5cea2	0.024146382
177	0xbc8fe60d	-0.017565751
178	0x3dbfb850	0.09361327
179	0x3d71bd1a	0.059018232
180	0x3aee6281	0.0018187315
181	0xbe42b8c8	-0.19015801
182	0x3d6f69a4	0.058450356
183	0xbcd20a1a	-0.025639582
184	0x3cdae8f3	0.026722407
185	0x3c60aa74	0.013712514
186	0xbd444546	-0.047917627
187	0xbd50f6f1	-0.05101675
188	0x3d5bb022	0.05363477
189	0xbc56d10c	-0.013111364
190	0x3c60b9a7	0.013716138
191	0x3d213d8a	0.03936533
192	0xbc0b77f4	-0.008512486
193	0x3d2378ac	0.039910004
194	0xbb17516b	-0.00230893
195	0xbc1bea39	-0.009516292
196	0xbd045a88	-0.0323129
197	0xbd26c0ab	-0.040711086
198	0x3c83e5e3	0.01610083
199	0xbdda1521	-0.10648561
200	0xbd81e7b5	-0.06343023
201	0xbdb0cb76	-0.08632557
202	0xbd6ae9d8	-0.057351917
203	0xbc807177	-0.015679104
204	0x3d0c4b17	0.0342513
205	0xbcc36d23	-0.023855751
206	0xbc8b5060	-0.0170061
207	0x3ce5e19e	0.028061684
208	0xbbd00d14	-0.0063492153
209	0x3cb52708	0.022113338
210	0xbd3ee0b0	-0.046600997
211	0x3c0f205c	0.008735742
212	0xbd337788	-0.043815166
213	0xbd1a40b9	-0.03765938
214	0x3bdddd52	0.006770768
215	0xbd779ffb	-0.060455304
216	0xbd24bce6	-0.04021921
217	0x3c90503c	0.017616384
218	0xbcb1d560	-0.02170819
219	0xbbaa43f0	-0.005196087
220	0x3c589afc	0.013220545
221	0xbd758cb6	-0.059948646
222	0xbdf4ac13	-0.11946883
223	0xbcb49e02	-0.022048
224	0x3d5c68c8	0.053810865
225	0xbd4cb2e4	-0.04997529
226	0xbcb9d9eb	-0.02268692
227	0x3db8f927	0.09031897
228	0xbd14b1db	-0.03630243
229	0xbc8a3dba	-0.016875137
230	0xbb480007	-0.0030517594
231	0xbd3e02ea	-0.046389498
232	0x3ca52b3d	0.02016222
233	0x3c6e4ba5	0.014544402
234	0xbc2d2312	-0.010567443
235	0xbdbd9462	-0.092568174
236	0x3c90d0c3	0.01767767
237	0x3ccbc634	0.024874784
238	0xbd5d82bb	-0.054079752
239	0xbd1b7909	-0.037957225
240	0xbd216102	-0.039399154
241	0xbe4e58bf	-0.20151041
242	0xbd71d5a1	-0.059041623
243	0xbcde08cc	-0.027103804
244	0x3c9986a6	0.018740963
245	0xbdcf2d0a	-0.101160124
246	0x3d46c106	0.048523925
247	0x3d92c59a	0.07166596
248	0xbd5c3f72	-0.053771444
249	0x3d9a1431	0.075233825
250	0xbb2c7d70	-0.0026319884
251	0xbc0018bc	-0.007818397
252	0xbdbfc459	-0.09363622
253	0x3cb46158	0.022019073
254	0xbdc976c0	-0.09837103
255	0xbce2f60e	-0.027705219

fc1.bias f4 [68]
0	0xbd3958ea	-0.04525081
1	0xbb06f1cc	-0.00205909
2	0xbd954ba8	-0.07289821
3	0xbd1a280a	-0.03763584
4	0xbd716f31	-0.05894393
5	0xbcf034e3	-0.029322093
6	0xbd2b9f79	-0.04190013
7	0xbd5ee759	-0.05441985
8	0xbd60dc27	-0.054897454
9	0xbd1e6ae7	-0.03867617
10	0xbd67cbba	-0.056590773
11	0xbcb5ee68	-0.022208408
12	0xbd87a5f4	-0.0662345
13	0x3c2f0e5a	0.010684574
14	0xbc9b32c3	-0.018945104
15	0x3c25f74c	0.010129761
16	0xbbcf64e7	-0.006329167
17	0xbcc22370	-0.023698539
18	0xbd550406	-0.05200579
19	0xbd3f4379	-0.046695206
20	0xbd407434	-0.04698582
21	0xbd0021e4	-0.03128232
22	0xbda21ed7	-0.079160385
23	0xbd3f649a	-0.0467268
24	0xbd881d5f	-0.06646227
25	0xbd81dd91	-0.063410886
26	0xbdbbf04d	-0.09176693
27	0xbd56065d	-0.052252162
28	0xbd453b15	-0.04815205
29	0xbd4cd2f2	-0.05000586
30	0xbdb6c5bb	-0.08924433
31	0xbd7fc2a5	-0.062441487
32	0xbc0a9170	-0.008457527
33	0x368303ac	3.9045317e-06
34	0xbd673649	-0.056448255
35	0x3b1aa6ed	0.002359803
36	0xbc6a24f7	-0.01429104
37	0x3c00fb5c	0.007872429
38	0xbd430539	-0.047612403
39	0xbdab0372	-0.083502665
40	0xbc7a80d9	-0.015289509
41	0xbcc2d23b	-0.023781886
42	0xbda123ef	-0.07868182
43	0x3b69a460	0.0035650954
44	0xbc55bb4e	-0.013045145
45	0xbd124f0c	-0.035719916
46	0xbca6b20a	-0.020348568
47	0xbd010009	-0.031494174
48	0x3b2d72c0	0.0026466101
49	0xbca7b7cf	-0.020473389
50	0xbbf88dc8	-0.007585261
51	0x3ba6df38	0.0050925277
52	0xbd051599	-0.0324913
53	0xbcc7e7b6	-0.02440248
54	0xbd6fec2d	-0.058574844
55	0xbd0e5a26	-0.03475394
56	0x3b6ded6f	0.0036304852
57	0xbc42066d	-0.011842352
58	0xbc99ec11	-0.018789323
59	0xbd1faaad	-0.03898113
60	0xbd9863c3	-0.07440903
61	0xbbf9c7cb	-0.007622694
62	0xbdacdc23	-0.08440425
63	0xbd7f1e04	-0.062284485
64	0xbdb3ce94	-0.08779636
65	0xbdb5103b	-0.08840986
66	0xbba0a614	-0.0049026106
67	0xbd628dee	-0.055311136

fc2.weight f4 [24, 68]
0	0x3e167e40	0.14696598
1	0xbd9e161d	-0.077190615
2	0xbdf5f3f6	-0.120094225
3	0x3d872237	0.06598323
4	0x3e3a7546	0.18208799
5	0x3e30b5fc	0.17256922
6	0x3e1e1573	0.1543787
7	0xbe866a7a	-0.2625311
8	0x3d823ac2	0.063588634
9	0xbe498845	-0.19680889
10	0xbe2acb66	-0.16679153
11	0xbe57d547	-0.21077453
12	0xbdaecdd7	-0.085353546
13	0xbe22e7e9	-0.15908779
14	0xbe03eacf	-0.12882541
15	0xbe855ca6	-0.26047248
16	0x3e336d69	0.17522205
17	0xbe19dd7d	-0.15025897
18	0x3dee49c2	0.11635162
19	0x3e2940a4	0.16528565
20	0xbe3b0efd	-0.18267436
21	0xbe91d5d5	-0.28483453
22	0x3dad5279	0.08462996
23	0x3e07ce64	0.13262326
24	0x3e394608	0.18093121
25	0xbe50243e	-0.20326325
26	0x3e37ee3f	0.17961977
27	0xbe21253e	-0.15736863
28	0x3e2068f2	0.15665033
29	0x3dec4153	0.11535897
30	0x3e1802b9	0.14844789
31	0xbe3cbd43	-0.18431573
32	0xbe0b8252	-0.13623932
33	0xbe46ac1a	-0.19401589
34	0x3d473af2	0.0486402
35	0xbe02032c	-0.12696522
36	0xbe53d226	-0.20685634
37	0xbe09cf10	-0.13457894
38	0x3e25c0e8	0.16186869
39	0x3e4d878e	0.20071241
40	0xbe1b6a7e	-0.15177342
41	0x3da8a86c	0.08235249
42	0x3e2623c6	0.16224584
43	0xbe1f1c20	-0.15538073
44	0xbe4b3d85	-0.19847687
45	0x3e47e054	0.19519168
46	0x3e2502a0	0.16114283
47	0x3e22c353	0.15894823
48	0xbe340f0f	-0.1758387
49	0xbddf6d49	-0.10909516
50	0xbe4aa180	-0.1978817
51	0xbe542d73	-0.20720463
52	0x3d18479a	0.03717766
53	0xbe4a0d80	-0.19731712
54	0xbe1860d4	-0.14880687
55	0x3e13ab2a	0.14420763
56	0xbdb09bd7	-0.08623474
57	0x3e19f7d9	0.15035953
58	0xbe49d871	-0.19711472
59	0xbe14dc55	-0.14537175
60	0x3ddfc140	0.109255314
61	0x3d9319ca	0.07182653
62	0x3e1742e9	0.14771618
63	0x3de5486a	0.111954525
64	0x3dffa2f8	0.12482256
65	0x3deead0b	0.11654099
66	0xbe944bc3	-0.28964052
67	0x3e23ff51	0.16015364
68	0xbe7bb756	-0.24581656
69	0x3dbb916f	0.09158599
70	0x3e3eaf58	0.18621576
71	0xbe786184	-0.2425595
72	0xbe05cf9d	-0.1306748
73	0xbe17adfd	-0.14812465
74	0xbe1835ca	-0.14864269
75	0x3e39b00f	0.18133567
76	0xbe3eb4d9	-0.18623675
77	0x3e15543c	0.14582914
78	0x3e91ccaf	0.28476474
79	0x3ddc34ac	0.10752234
80	0x3e64658d	0.22304364
81	0x3dd9416f	0.106081836
82	0x3df3ab89	0.11897952
83	0x3e404c63	0.18779139
84	0xbe1b6eb9	-0.15178956
85	0x3e0ff4e3	0.1405826
86	0xbe035bb0	-0.12827945
87	0xbe372bc2	-0.17887786
88	0x3e6307c3	0.2217093
89	0x3e080aa9	0.13285317
90	0xbe212ed9	-0.15740527
91	0xbe72668c	-0.23671931
92	0xbe336be9	-0.17521633
93	0x3e745c73	0.23863392
94	0xbe2f373e	-0.17110917
95	0x3e287698	0.1645149
96	0xbe5c59f1	-0.21518685
97	0xbe106a81	-0.14103128
98	0xbe3f9428	-0.18708861
99	0x3e283782	0.16427425
100	0x3e15d76d	0.1463296
101	0x3dfdb62c	0.12388262
102	0xbe301f90	-0.1719954
103	0x3e320b79	0.17387189
104	0x3e5fc5bd	0.21852775
105	0x3e505638	0.2034539
106	0xbe2bfa41	-0.16794683
107	0xbdcfc011	-0.10144056
108	0x3e36a626	0.17836818
109	0xbe661677	-0.22469507
110	0xbdacbcfa	-0.08434482
111	0x3df91ab2	0.12163295
112	0x3e03e935	0.1288193
113	0xbe56a7d4	-0.20962459
114	0xbe0b2329	-0.13587631
115	0xbe2bac82	-0.16765025
116	0x3da1dff8	0.07904047
117	0x3e606de6	0.21916923
118	0x3e41c393	0.18922262
119	0x3e2cb4e5	0.16865881
120	0xbe5fa1d6	-0.2183908
121	0x3e345641	0.17611028
122	0x3e1cae72	0.1530092
123	0xbe4b7058	-0.19867074
124	0x3e2e999a	0.17050782
125	0xbe346db6	-0.17619976
126	0x3e358422	0.17726186
127	0x3e665157	0.22491966
128	0xbd9396dc	-0.072065085
129	0xbdc70a1b	-0.09718724
130	0xbddd95d7	-0.10819595
131	0xbe406e4c	-0.18792075
132	0xbd2c9c15	-0.04214104
133	0xbdefc26d	-0.11707006
134	0x3e451f15	0.19250138
135	0xbe0568ad	-0.13028212
136	0x3dc81cf9	0.09771151
137	0xbe299771	-0.16561677
138	0xbdcc8cea	-0.09987815
139	0x3e3edfb0	0.18640018
140	0x3dec93dd	0.1155164
141	0x3e03cd89	0.12871374
142	0x3e23ee4a	0.16008869
143	0xbe6dd9cc	-0.23227614
144	0x3dc8fa27	0.09813338
145	0xbdfce233	-0.123478316
146	0xbe4b9083	-0.19879346
147	0xbe6a5e68	-0.22887576
148	0xbdda7de3	-0.10668542
149	0xbe3f7ee2	-0.18700746
150	0xbdad37cd	-0.08457909
151	0xbe43c810	-0.19119287
152	0x3e1d88f1	0.1538427
153	0xbe19b1d4	-0.15009242
154	0x3d99ded5	0.07513205
155	0x3defba01	0.11705399
156	0xbe9c96f3	-0.30583915
157	0xbe359e4b	-0.17736165
158	0x3e32d47b	0.17463867
159	0x3e1572a0	0.14594507
160	0x3e2d6877	0.16934381
161	0xbe3dbfa9	-0.18530144
162	0x3de0b08f	0.10971176
163	0xbe5865f5	-0.21132644
164	0x3e0f6a1c	0.14005321
165	0x3e028daf	0.1274936
166	0x3dfa1251	0.12210525
167	0xbe7581f1	-0.2397535
168	0xbe8e0ff0	-0.27746534
169	0xbe27ad7b	-0.16374771
170	0x3e11b970	0.14230895
171	0xbda63771	-0.08116043
172	0xbe3981f2	-0.18115976
173	0xbe68b5cd	-0.22725601
174	0x3e624350	0.2209599
175	0x3e52516f	0.20538877
176	0xbe40de1e	-0.18834731
177	0x3e23c879	0.15994443
178	0x3dcc53bf	0.09976911
179	0xbe679513	-0.22615461
180	0xbe6d4435	-0.2317055
181	0x3dd3b22f	0.1033672
182	0x3e104076	0.1408709
183	0x3e0f6e46	0.1400691
184	0xbe78cc97	-0.24296795
185	0xbdfcbde4	-0.12340906
186	0xbe43a115	-0.19104417
187	0xbe6b22c0	-0.22962475
188	0x3d00df7d	0.031463135
189	0xbe76eca9	-0.24113716
190	0xbe808e5b	-0.2510861
191	0x3e2e5585	0.1702481
192	0xbe78f361	-0.24311592
193	0x3e28216f	0.16419004
194	0xbe2d2939	-0.16910256
195	0xbe158a65	-0.14603575
196	0x3e488310	0.19581246
197	0x3e2efc42	0.17088416
198	0x3e581f2d	0.21105643
199	0x3dd9f63f	0.10642671
200	0x3e20779c	0.15670627
201	0x3e4b3189	0.19843115
202	0xbe5fa920	-0.2184186
203	0x3e4f7aa8	0.20261633
204	0x3d64f4aa	0.055897392
205	0xbe559bf6	-0.20860276
206	0xbe0df1ca	-0.13861766
207	0x3e2af27e	0.16694066
208	0x3e4842fe	0.19556805
209	0x3e290d60	0.16509008
210	0x3d3dfef0	0.046385705
211	0xbe9e0a44	-0.30867207
212	0x3e56d49f	0.20979546
213	0xbe85f2a2	-0.26161677
214	0xbe898b81	-0.26864246
215	0xbe39fd33	-0.18162994
216	0xbdfa1b2c	-0.12212214
217	0xbe2a4354	-0.16627246
218	0xbe4ff873	-0.2030962
219	0xbe743702	-0.23849109
220	0x3e7ad4fb	0.24495308
221	0xbe1e3d53	-0.15453081
222	0x3dd27e23	0.10277965
223	0x3dd8ed91	0.10592187
224	0xbe47eae9	-0.19523205
225	0xbe8df1c9	-0.2772353
226	0x3e2d9d92	0.1695464
227	0x3e49b436	0.19697651
228	0x3e44dc3b	0.19224636
229	0xbe3df3ed	-0.18550082
230	0x3e25021f	0.1611409
231	0xbe4e573e	-0.20150468
232	0x3e01ef57	0.12688957
233	0x3e3a3689	0.18184866
234	0x3e305815	0.172211
235	0xbe2c6a9f	-0.16837548
236	0xbe7b84fe	-0.24562451
237	0xbe968b23	-0.29403028
238	0x3e01a835	0.12661822
239	0xbe6958e8	-0.22787821
240	0xbe4d71ba	-0.20062914
241	0xbe521c57	-0.20518623
242	0x3dd8ceac	0.105862945
243	0x3e0dbe8f	0.13842224
244	0xbe875e5a	-0.26439172
245	0x3e7ffe63	0.24999385
246	0x3dde71e3	0.10861566
247	0xbe45bc0e	-0.19310018
248	0xbe86177c	-0.26189792
249	0x3dfc8c4f	0.12331449
250	0x3dd39cc5	0.10332636
251	0x3dafee62	0.0859039
252	0xbe5094d8	-0.2036928
253	0xbe06ac1c	-0.13151592
254	0xbe31b8a3	-0.1735559
255	0xbe880da3	-0.26572904

fc2.bias f4 [24]
0	0x3da9b527	0.08286505
1	0x3d94a11a	0.0725729
2	0x3da9bb52	0.08287682
3	0x3dcc0157	0.09961193
4	0x3dbf89a8	0.09352428
5	0x3dadcf55	0.08486811
6	0x3d851967	0.06498986
7	0x3d8c48f9	0.06849856
8	0x3dd3fb14	0.10350624
9	0x3dc3f3e9	0.095680065
10	0x3ddc8da5	0.10769204
11	0x3de061a8	0.109561265
12	0x3dbf298f	0.093340985
13	0x3dc870d4	0.09787145
14	0x3da00612	0.07813658
15	0x3dd783f7	0.10523217
16	0x3d88e71b	0.06684705
17	0x3d92fc43	0.07177021
18	0x3dd8c654	0.10584703
19	0x3dda0083	0.10644629
20	0x3dbc73e0	0.09201789
21	0x3dd79045	0.10525564
22	0x3dd9175b	0.10600158
23	0x3dd4923d	0.10379455

fc3.weight f4 [1, 24]
0	0x3eff39d6	0.49848813
1	0xbf16677f	-0.5875167
2	0x3ee03d75	0.43796888
3	0x3edab9b6	0.4271981
4	0x3ed9ddd1	0.42552045
5	0xbf14af47	-0.5807995
6	0x3ef2eb13	0.47444972
7	0xbf121923	-0.57069606
8	0x3f0af205	0.5427554
9	0x3ec39a60	0.38203716
10	0xbf0fc428	-0.56158686
11	0xbf0b4d05	-0.544144
12	0x3efd70e5	0.49500194
13	0x3f08c2ed	0.53422433
14	0xbf03a540	-0.51424026
15	0xbf14d2b5	-0.58134013
16	0xbee79cf0	-0.4523692
17	0xbf170513	-0.5899212
18	0x3f035db2	0.5131484
19	0x3ef55e36	0.4792344
20	0xbf197bc0	-0.5995445
21	0xbf1a15c5	-0.6018947
22	0xbf1c085c	-0.60950255
23	0x3f040d5f	0.515829
