model/cross_validation/hp_nested_cv/checkpoint/c000_c003_128_32_0.01_64_0.3.pt (torch, 234071 bytes, 5 tensors)

fc1.weight f4 [128, 420]
0	0x3fb61f44	1.4228292
1	0xbe2de2dc	-0.16981071
2	0xc0812784	-4.0360737
3	0xbe8d4428	-0.27591062
4	0x3ec74c5b	0.38925442
5	0xbfdef139	-1.7417365
6	0x4011a44b	2.2756526
7	0x3f9c2889	1.219987
8	0x3e4414cd	0.1914856
9	0xbf157ff9	-0.58398396
10	0x40545dc4	3.318223
11	0xbfff0e8e	-1.9926317
12	0xc02b196e	-2.673427
13	0xbe6fae58	-0.2340635
14	0xbfd1fafa	-1.6404717
15	0xc053c243	-3.3087318
16	0x3e809e09	0.2512057
17	0xbf630c0e	-0.8869027
18	0xbe862bb5	-0.2620522
19	0xc00bf125	-2.1865933
20	0xbf879fac	-1.0595603
21	0x3c315241	0.0108228335
22	0xbd86e4f8	-0.06586641
23	0x3f8a2e6c	1.0795417
24	0x3f734cb4	0.95038915
25	0x404802ac	3.125163
26	0x3d88323a	0.06650205
27	0xc08a0bce	-4.313941
28	0xc00f2346	-2.236528
29	0x3f3dfde5	0.7421554
30	0xc04070d3	-3.0068862
31	0xc0936e21	-4.6071935
32	0xbfdfae16	-1.7475002
33	0xbf4ccc67	-0.79999393
34	0x3f665bcc	0.8998382
35	0xbffddc69	-1.9832889
36	0x3da65978	0.081225336
37	0x3f8f2c4a	1.1185391
38	0xc08522f6	-4.1605177
39	0x3f8d912d	1.1059929
40	0xbfa73087	-1.3061684
41	0x3e8cf03d	0.27527037
42	0x3f126b0d	0.57194597
43	0x3ef07b6a	0.46969157
44	0xbca063bb	-0.019578805
45	0x3fbb9be0	1.4656944
46	0x3f847cba	1.0350564
47	0xbf3619a0	-0.7113285
48	0xc06ead10	-3.729313
49	0xbdd1705e	-0.102265105
50	0xc029e6b2	-2.6547055
51	0x3f43d112	0.7649089
52	0x3ec067e8	0.37579274
53	0xbff3f18b	-1.9058088
54	0x3ebb84a4	0.36624634
55	0xc0605215	-3.50501
56	0x3e318a48	0.17337906
57	0x3daa2d52	0.083094254
58	0x3f4a5b92	0.79045975
59	0x3f7bb785	0.98326904
60	0xc023d845	-2.560075
61	0xbfc35544	-1.5260396
62	0xbf94c8d0	-1.1623783
63	0x3e455d5f	0.192739
64	0xc065f2f2	-3.5929532
65	0xbfc74452	-1.5567725
66	0xbf65b545	-0.8972972
67	0x3ff7530d	1.932222
68	0x3f0042fe	0.5010222
69	0xbf244104	-0.64161706
70	0x3ee79e9f	0.45238206
71	0x3f5d07b4	0.8633988
72	0xbec8b764	-0.39202416
73	0xbe4222ca	-0.18958583
74	0xbee2938c	-0.44253194
75	0xbde37881	-0.11106969
76	0x3fb721b7	1.4307164
77	0xbee1632c	-0.44020975
78	0xc03d12cd	-2.9542725
79	0xc00f5ee7	-2.2401674
80	0xbfb88072	-1.4414198
81	0xbfb3e13f	-1.4053115
82	0xbe8f5a0e	-0.27998394
83	0x3f9830e8	1.1889925
84	0x3fa4de16	1.2880275
85	0xbfbb1a73	-1.4617447
86	0x3efc96f5	0.4933392
87	0xbf89809d	-1.0742375
88	0xc003f8ec	-2.062068
89	0xbfb5ab40	-1.4192886
90	0x3f37fbce	0.718686
91	0xbf3bfbe1	-0.7343121
92	0xbe10bfec	-0.14135712
93	0xc05739e5	-3.3629086
94	0xc028767c	-2.6322317
95	0x3fe1efa4	1.7651258
96	0x400d00a6	2.2031646
97	0xbfa890b4	-1.316916
98	0xbf3e7acf	-0.7440614
99	0x3f579124	0.8420584
100	0x3f90266c	1.1261725
101	0x3fa0d270	1.256422
102	0x3f0a86ec	0.54112124
103	0xc0233705	-2.5502331
104	0xbe0293d6	-0.12751707
105	0x3e95088d	0.29108086
106	0xbfb82188	-1.4385233
107	0xbf6427ef	-0.89123434
108	0x3fbc8fc9	1.473138
109	0x3ded69f8	0.115924776
110	0x3eaa580d	0.33270302
111	0xbfe0d2cf	-1.7564334
112	0xbf4354ac	-0.76301074
113	0xc053cb3d	-3.3092797
114	0xc04cae53	-3.19814
115	0xbfb9ef53	-1.4526161
116	0xbf03784e	-0.51355445
117	0xbe073f93	-0.13207845
118	0xbe8bd0ff	-0.2730789
119	0xbf14ab99	-0.5807434
120	0x3f9f5dca	1.2450497
121	0xc084837c	-4.1410503
122	0xbf4edca4	-0.8080542
123	0x4083a800	4.114258
124	0xc02d9614	-2.712285
125	0xbf530f2f	-0.82445043
126	0xbfca012d	-1.5781609
127	0xbefbe434	-0.49197543
128	0xc05891d0	-3.3838997
129	0xc05cc562	-3.4495473
130	0xbfaeccd3	-1.3656257
131	0x4016ba1d	2.3551095
132	0xc071f499	-3.780554
133	0xc0203dd3	-2.5037735
134	0x3f74a783	0.955681
135	0xbda8e5fe	-0.082469925
136	0xbf57dda3	-0.84322566
137	0xbff82105	-1.9385077
138	0xc083bb0c	-4.116583
139	0xbe998d33	-0.2999054
140	0xbde30ca6	-0.11086397
141	0xc05739b0	-3.362896
142	0xc085e03d	-4.183623
143	0x3edfb6ac	0.43694055
144	0x3e81a5ae	0.25321716
145	0xc04c860f	-3.1956823
146	0xbf469e3f	-0.77585214
147	0xbf93ba01	-1.1541139
148	0xbf81bff0	-1.01367
149	0xc031295e	-2.7681499
150	0xbfbddb92	-1.4832633
151	0xc0012baf	-2.0182912
152	0xc03b9329	-2.930857
153	0xbff18df3	-1.8871444
154	0xc083df74	-4.121027
155	0xbf29e8d0	-0.6637087
156	0x3f7addf9	0.97994953
157	0x406b21d1	3.673939
158	0xc0546c74	-3.3191195
159	0x3fac2191	1.3447744
160	0x3f2179f7	0.6307673
161	0xbfd9717b	-1.6987756
162	0xc076fefc	-3.859313
163	0xbe2eee3b	-0.17083065
164	0xbf2f0a74	-0.68375325
165	0x3fc765f5	1.557799
166	0xc0037730	-2.0541496
167	0x3fd0ec50	1.6322117
168	0xbc916696	-0.017749112
169	0xc0277b61	-2.6169055
170	0x3fc8d2e1	1.5689355
171	0xbe3891ae	-0.18024322
172	0xbfb93d66	-1.4471862
173	0xc08b08af	-4.34481
174	0x3f341723	0.70347804
175	0x3eab006d	0.33398762
176	0xbf92fc41	-1.1483232
177	0x3f815e6e	1.0106943
178	0xbfc8196f	-1.5632762
179	0xbee358d5	-0.4440371
180	0xbfa3af72	-1.2787917
181	0xc081d6fb	-4.0574927
182	0x3f7c571b	0.9857041
183	0xbeba5258	-0.36390948
184	0xbfe2496a	-1.7678654
185	0xbfb00371	-1.375105
186	0xbec7a5c3	-0.38993654
187	0x3dc185df	0.09449362
188	0xbde122f8	-0.10992998
189	0xc012b006	-2.2919936
190	0xc040ac69	-3.010523
191	0x3da6be50	0.08141768
192	0x3f260272	0.6484748
193	0xbef47dcd	-0.47752228
194	0x3f500cc5	0.81269485
195	0xc0655220	-3.5831375
196	0x4015d976	2.3413978
197	0xc0137bad	-2.3044236
198	0x3c8073a5	0.015680144
199	0xbfa8cbea	-1.318723
200	0x3fd7686a	1.682874
201	0xc0062535	-2.096021
202	0xbf307a76	-0.6893686
203	0xc088fc19	-4.2807736
204	0x3e1b1eeb	0.15148513
205	0xbf26c139	-0.65138584
206	0xbed74407	-0.42044088
207	0xbff06d1a	-1.8783295
208	0xbcdd2370	-0.026994437
209	0xc02b4b26	-2.6764617
210	0xc04959ae	-3.1460986
211	0xbc9df0f6	-0.019279938
212	0x40688eda	3.633719
213	0xc005c7b8	-2.0903149
214	0xbe7b3eda	-0.24535695
215	0xc058b361	-3.3859484
216	0xc04215b6	-3.0325751
217	0xbf6dfaa5	-0.9296058
218	0xbb9e295b	-0.0048267073
219	0xbe9d4f64	-0.30724633
220	0xbd85227f	-0.0650072
221	0xc0760e3d	-3.844619
222	0xbfe59cb7	-1.793845
223	0xc07550a4	-3.833047
224	0x40389f3d	2.8847191
225	0xbf20e9b4	-0.628566
226	0xbffcba14	-1.9744287
227	0xbebd3727	-0.3695614
228	0xc065de9a	-3.5917115
229	0x3fa761e5	1.307675
230	0x3fa52772	1.2902663
231	0xbef05f92	-0.46947914
232	0xbf048078	-0.5175853
233	0xbf790d17	-0.972856
234	0xc03d2963	-2.955651
235	0xbf73b997	-0.9520506
236	0xbf7f9203	-0.9983217
237	0xbf7d32bd	-0.98905545
238	0x40040d98	2.0633297
239	0xbdf48b19	-0.11940593
240	0x3fc7dc94	1.561419
241	0xbfa65ccb	-1.2997068
242	0xbfaa8398	-1.3321409
243	0xc0756617	-3.834356
244	0xbfa103f6	-1.2579334
245	0xbff60a30	-1.9221859
246	0xbfd2dc69	-1.6473514
247	0xbfc89bc9	-1.5672542
248	0xbfd3d9c3	-1.6550831
249	0xc0451fca	-3.0800653
250	0x3f8b2246	1.0869834
251	0x3f663842	0.8992959
252	0xbe8fd3b2	-0.28091198
253	0x3e7c9298	0.24665296
254	0xc0271e71	-2.611233
255	0x401561e4	2.3340998

fc1.bias f4 [128]
0	0xc02c39eb	-2.691035
1	0xc093f70d	-4.6239076
2	0xbfb991ea	-1.4497654
3	0xc030a446	-2.7600265
4	0xbf957b4c	-1.1678252
5	0xc070722e	-3.756969
6	0xbfea328b	-1.8296674
7	0xbf88caf2	-1.0686934
8	0xc07c6035	-3.943372
9	0xc0b5d1de	-5.6818686
10	0xbf30fc1d	-0.69134694
11	0xbfbcef08	-1.4760447
12	0xc04a2ec3	-3.159104
13	0xbfb52c25	-1.4154097
14	0xbfcdd404	-1.6080327
15	0xc0783d17	-3.8787286
16	0xc04c79cc	-3.194934
17	0xc01e40c7	-2.4727037
18	0xbfd29f87	-1.6454934
19	0xc0212421	-2.5178301
20	0xc04173bf	-3.0226896
21	0x3e888e06	0.26670855
22	0xbffea43a	-1.9893868
23	0xc00102f5	-2.0158055
24	0xbfb3b889	-1.4040691
25	0xc06f9d43	-3.7439735
26	0xc0620936	-3.5318122
27	0xbf09335b	-0.5359399
28	0xc081a107	-4.0509067
29	0xbfe385dd	-1.7775227
30	0xbf17a076	-0.5922922
31	0xbfe90f8d	-1.8207871
32	0xbf185eca	-0.59519637
33	0xc0abd541	-5.369782
34	0xc0a64fa4	-5.1972218
35	0xbf609697	-0.8772978
36	0xbf67f6eb	-0.9061114
37	0xbca26496	-0.019823354
38	0xc0f85974	-7.7609196
39	0xc005b3ff	-2.089111
40	0xc0c268a4	-6.0752735
41	0xbf72cafa	-0.9484097
42	0xbffa6def	-1.9564799
43	0xc0106955	-2.256429
44	0xc045927c	-3.0870657
45	0x3e04357e	0.1291103
46	0xc0f4cc1c	-7.6499157
47	0xbeca069e	-0.39458174
48	0xc0a8d2cc	-5.275732
49	0xc08d0200	-4.406494
50	0xc0759f95	-3.837865
51	0xc08a64a4	-4.324785
52	0xc04e8ca7	-3.2273347
53	0xbfe9899e	-1.8245122
54	0xc0c6861b	-6.2038703
55	0xc0249896	-2.571813
56	0xc005d7ec	-2.0913038
57	0xc0642dc4	-3.5652933
58	0xc0aabc30	-5.335472
59	0xbff2e424	-1.8975873
60	0xc0fa1d32	-7.816064
61	0xc0f8f966	-7.780444
62	0xbed34e6f	-0.41270778
63	0xbff4f05d	-1.9135853
64	0xc02ebda4	-2.7303247
65	0xc0a8b9b6	-5.27267
66	0xbd86ee46	-0.06588416
67	0xc106889a	-8.40835
68	0xbfb1377b	-1.3845056
69	0xbfd9de78	-1.7021017
70	0xc0c74eff	-6.228393
71	0xbfe4bec1	-1.7870713
72	0xc09c5ee1	-4.886582
73	0xc09ed5fc	-4.963621
74	0xbfd27b4e	-1.644388
75	0xc0f34754	-7.602457
76	0xc05ee6de	-3.482841
77	0xbe167031	-0.14691235
78	0x3eefa3a5	0.46804538
79	0xc04e288a	-3.2212243
80	0xc025fd2f	-2.593578
81	0xc0d30839	-6.5947537
82	0xc093eabe	-4.622405
83	0xbfb8d34f	-1.4439486
84	0xc050fa01	-3.265259
85	0xc0753b85	-3.8317578
86	0xc0867368	-4.2015877
87	0xc08eb62a	-4.459737
88	0xc093a927	-4.6143985
89	0xc05b5c6a	-3.4275155
90	0xc02203ba	-2.5314775
91	0xc0939446	-4.61185
92	0xc0205abf	-2.5055387
93	0xc08b4dcd	-4.353247
94	0xc085dc83	-4.183168
95	0xbf076ff5	-0.5290521
96	0xbf8e361a	-1.111026
97	0xc098801c	-4.7656384
98	0xbf2dac63	-0.67841166
99	0xc0dbaf0f	-6.8651195
100	0xc07264c7	-3.787401
101	0xc011b649	-2.2767508
102	0xbfae1d92	-1.3602774
103	0xc0bab844	-5.8349934
104	0xbfda87d8	-1.7072706
105	0xc01f206b	-2.4863536
106	0xc068c549	-3.6370413
107	0xbe1139cd	-0.14182205
108	0xc04a360a	-3.1595483
109	0xbf99098c	-1.1956038
110	0xc011be19	-2.2772276
111	0xc09da98f	-4.926948
112	0xc07e0194	-3.9688463
113	0xbf82bd32	-1.0213988
114	0xbf5151fe	-0.81765735
115	0xc053218f	-3.2989233
116	0xbe8e0b0c	-0.27742803
117	0xc0717f87	-3.7734087
118	0xc0c081b3	-6.0158324
119	0xbf8ed32b	-1.1158193
120	0xc032edbb	-2.79576
121	0xc0c7d7a9	-6.2450757
122	0xbfbbfcf3	-1.4686569
123	0xbf236acf	-0.6383485
124	0xc07c7829	-3.944834
125	0xc00287bb	-2.0395343
126	0xc067b2a4	-3.6202784
127	0xc0a9f694	-5.31135

fc2.weight f4 [32, 128]
0	0xbfef7b46	-1.8709495
1	0xbf4856a0	-0.7825718
2	0xbf0c11a8	-0.5471444
3	0xbece9a2b	-0.40351996
4	0x3eb5477a	0.35406095
5	0xbfe032bf	-1.7515486
6	0x3ec51585	0.3849298
7	0x3e0ec011	0.13940455
8	0x3f0dd2c8	0.5539975
9	0xbe6c0faf	-0.23052858
10	0xbe77e443	-0.24208169
11	0xbe528e00	-0.20561981
12	0x3ec69144	0.38782704
13	0x3ea19639	0.31559923
14	0x3f105774	0.5638344
15	0x3f1c3153	0.6101276
16	0x3f555eb0	0.83347607
17	0x3ed423a1	0.41433433
18	0x3f223fb6	0.63378465
19	0x3ed071da	0.40711862
20	0xbf1c0040	-0.6093788
21	0xbf24855f	-0.6426601
22	0xbf9d72c8	-1.2300653
23	0xbf141378	-0.57842207
24	0xbeae5f54	-0.34057105
25	0xbd875144	-0.06607297
26	0x3e5ad28d	0.21369381
27	0xbd95b4f5	-0.073099054
28	0x3d57082d	0.05249803
29	0xbf3a7fda	-0.72851336
30	0xbef450d6	-0.47717923
31	0x3f0efd74	0.5585549
32	0xbea284e1	-0.31742004
33	0x3e286048	0.16442978
34	0x3f13d738	0.5775027
35	0x3cd8fed8	0.026488706
36	0xbf82761e	-1.0192297
37	0xbf5086f6	-0.81455934
38	0x3dc0da10	0.09416592
39	0xbdcd6455	-0.100289024
40	0x3dbefd15	0.09325615
41	0xbfe95d65	-1.8231627
42	0x3e88d8b6	0.26727837
43	0x3e8ae92c	0.2713102
44	0xbebeac76	-0.37240952
45	0xbe89eca4	-0.26938355
46	0xbf00bbc3	-0.502865
47	0xbefa1778	-0.4884603
48	0x3f262565	0.6490081
49	0x3e03d2a3	0.1287332
50	0x3f4eded8	0.8080878
51	0x3e244fe5	0.16046102
52	0x3ebffec9	0.37499073
53	0xbda1ee35	-0.079067625
54	0xbde3a317	-0.11115091
55	0x3d97a235	0.074039854
56	0xbe6ede7e	-0.23327062
57	0xbe1e6deb	-0.15471618
58	0x3eaf1eff	0.34203336
59	0x3e9edaa3	0.31026182
60	0x3e71daf6	0.23618683
61	0xbd1293c4	-0.03578545
62	0xbf3ce15f	-0.7378139
63	0x3e1d44c7	0.15358268
64	0x3ec00036	0.3750016
65	0x3f13fa21	0.5780354
66	0xbfa9dfbb	-1.3271402
67	0xbedb7d5f	-0.42869088
68	0x3ee43c87	0.4457743
69	0xbf6a4b9d	-0.91521627
70	0x3f7dead9	0.99186474
71	0x3dd120e4	0.102113515
72	0xbf41f0ce	-0.75758064
73	0xbf4f30f0	-0.8093405
74	0xbe17b100	-0.14813614
75	0xbeceaef0	-0.40367842
76	0x3f1eff87	0.62108654
77	0xbea49231	-0.32142785
78	0xc02a272c	-2.6586409
79	0xbf9a4d34	-1.205481
80	0x3df6a63b	0.12043425
81	0xbe8550f8	-0.26038337
82	0x3eac6ed2	0.336783
83	0x3e420dd6	0.1895059
84	0xbf1e2592	-0.6177608
85	0xbec1c82f	-0.3784804
86	0x3ec6b8b0	0.3881278
87	0x3e9c05d7	0.30473205
88	0xbf3c19be	-0.7347678
89	0x3e951396	0.29116505
90	0x3ec350f4	0.381477
91	0x3e02038e	0.12696669
92	0x3e0f0d45	0.13969906
93	0x3f60c116	0.87794626
94	0x3ece5ffc	0.40307605
95	0xbe7cd043	-0.2468882
96	0x3eaa8fe9	0.3331292
97	0x3f5b0243	0.85550326
98	0xbe89dde8	-0.26927114
99	0x3e1e7c6a	0.15477148
100	0xbdb96927	-0.09053259
101	0xbfe4d471	-1.7877332
102	0x3e5a5973	0.21323185
103	0x3ea308be	0.31842607
104	0xbf565cf6	-0.837356
105	0xbf2f3192	-0.68435013
106	0x3eac3dc6	0.3364088
107	0xbf2210be	-0.63306797
108	0xbe99b272	-0.30018955
109	0x3dbe3d50	0.09289038
110	0x3ceaab7d	0.028646225
111	0xbfcc1a0b	-1.5945448
112	0x3ef568db	0.4793156
113	0xbf178067	-0.591803
114	0xbfa6fafa	-1.3045342
115	0xbf783937	-0.969623
116	0xbfaa183b	-1.3288645
117	0x3ea91f0a	0.33031493
118	0xbf033849	-0.5125776
119	0x3d19a88d	0.03751426
120	0x3e62a1b7	0.22132002
121	0xbf3f7356	-0.74785364
122	0xbe1bf2bf	-0.15229319
123	0xbfcbfd8e	-1.5936754
124	0x3f5e4242	0.8681985
125	0x3d851c29	0.06499512
126	0xbe541823	-0.20712332
127	0x3eb76870	0.35821867
128	0x3f6b3b1c	0.9188707
129	0xbedd05ec	-0.4316858
130	0x3ec2fcb4	0.38083422
131	0x3ed4616a	0.4148057
132	0x3e315e1c	0.17321056
133	0x3ee575ee	0.44816536
134	0xbf4717a0	-0.77770424
135	0xbf0d19fe	-0.55117786
136	0xbf8e4f25	-1.1117903
137	0x3ecd7882	0.40131003
138	0x3e4fd0ad	0.20294447
139	0xbf881139	-1.0630256
140	0xbf976b6e	-1.182966
141	0xbe5646fe	-0.20925519
142	0xbe00805b	-0.12548964
143	0xbf0ccfff	-0.55004877
144	0xbf87156f	-1.0553416
145	0xc00dcbb0	-2.215557
146	0xbf867a3e	-1.0506055
147	0xbf744075	-0.95410854
148	0xbe03a441	-0.12855627
149	0x3cc8297d	0.024433846
150	0xbf3c60ad	-0.73585016
151	0x3f40c097	0.7529387
152	0x3e9c770a	0.3055957
153	0xbefa064b	-0.48832926
154	0xbe2d78aa	-0.16940561
155	0x3e2dd66c	0.16976327
156	0x3df66708	0.120313704
157	0x3e91fdea	0.28514034
158	0xbda80a5d	-0.08205102
159	0xbfc03793	-1.501696
160	0xbef4597b	-0.47724518
161	0x3e8506bf	0.2598171
162	0xbf92579a	-1.1432984
163	0xbdf65b29	-0.12029106
164	0xbdce0f13	-0.10061469
165	0xbf3e650c	-0.74372935
166	0x3edbe134	0.42945254
167	0xbffa6908	-1.9563303
168	0x3e57ed7e	0.2108669
169	0xbec46680	-0.3835945
170	0xbfe72d86	-1.8060768
171	0xbf6dda36	-0.9291109
172	0x3f5a86ec	0.85362124
173	0xbf391f7c	-0.72313666
174	0xbf17c158	-0.59279394
175	0x3e0612db	0.1309313
176	0x3ebf57e3	0.3737174
177	0xbf8353a8	-1.0259905
178	0x3ee2422c	0.4419111
179	0xbd835e8b	-0.06414517
180	0xbfc20d11	-1.5160238
181	0xbfe8d8bc	-1.8191142
182	0x3ee4af19	0.4466484
183	0x3f58d459	0.84699017
184	0x3e2652a0	0.16242456
185	0xbf43c65a	-0.76474535
186	0xbf942a03	-1.1575321
187	0xbe328de3	-0.17436938
188	0xbf9bcdf5	-1.2172228
189	0x3e81636b	0.25271162
190	0xbfa5be4f	-1.2948703
191	0xbfea691b	-1.8313326
192	0xc002b19f	-2.0420911
193	0xbf854b33	-1.0413574
194	0x3dcef449	0.101051874
195	0x3ec735f1	0.38908342
196	0xbf976971	-1.1829053
197	0x3f10e632	0.5660125
198	0x3f29d8b0	0.66346264
199	0xbec6cce2	-0.38828188
200	0x3f205614	0.62631345
201	0x3ea8165c	0.3282956
202	0x3eaca0a9	0.33716324
203	0x3fc4c404	1.5372319
204	0xbf5debf8	-0.86688185
205	0xbea70925	-0.32624164
206	0xbf1f283f	-0.62170786
207	0x3f173ac9	0.59074074
208	0xbf07c903	-0.53041095
209	0xbf7dbcd2	-0.9911624
210	0xbec5a3c6	-0.38601512
211	0xbdbd4a47	-0.09242683
212	0xbfa65cbd	-1.2997051
213	0x3f67f1d2	0.90603364
214	0xbf4c7841	-0.7987099
215	0x3e631e7a	0.22179595
216	0xbe0141ec	-0.12622803
217	0xbf950c08	-1.1644297
218	0xbf8e72c5	-1.1128775
219	0xbfa5079f	-1.2892951
220	0xbf6f7f73	-0.9355385
221	0xbefc91b2	-0.49329907
222	0xbeb71f5a	-0.35766107
223	0xbf898b4a	-1.0745633
224	0xb95d9b8a	-0.00021134145
225	0x3e8af63d	0.2714099
226	0xbe444b14	-0.19169265
227	0xbd913655	-0.07090441
228	0x3e059880	0.13046455
229	0x3fc595e1	1.5436364
230	0xbf523fe8	-0.82128763
231	0xbf969ce3	-1.1766628
232	0x3def16b9	0.11674256
233	0x3f4bbc30	0.79584026
234	0xbff72c26	-1.9310348
235	0xbf1b2ddb	-0.60616845
236	0x3eca7148	0.39539552
237	0x3dde5723	0.10856464
238	0xbec2d8d6	-0.38056058
239	0x3f0fcc72	0.56171334
240	0xbead4ffd	-0.3385009
241	0xbecfeb1f	-0.4060907
242	0xbfc1d47d	-1.5142971
243	0x3f5aec06	0.85516393
244	0xbe7aceab	-0.244929
245	0xbee19e93	-0.44066295
246	0x3f869a41	1.0515825
247	0xbde851a6	-0.11343698
248	0xbf52b308	-0.8230443
249	0xbe9018ab	-0.2814382
250	0xbfd741e9	-1.6816989
251	0x3e5ee3dd	0.2176661
252	0xbf759dc4	-0.95943856
253	0xbfbf1de6	-1.4930999
254	0xbfe04edd	-1.7524067
255	0xbf1156f2	-0.56773293

fc2.bias f4 [32]
0	0x3ec66de0	0.38755703
1	0xc13cca79	-11.799432
2	0x3f03f19e	0.51540554
3	0xc12d0d8d	-10.815808
4	0x3ec7ea41	0.3904591
5	0xc135716e	-11.340193
6	0x3f64034c	0.8906753
7	0x3ed1fd90	0.41013765
8	0x3ea6dc73	0.32590064
9	0xc1458927	-12.345984
10	0xc1538696	-13.220358
11	0x3e5ad5f6	0.21370682
12	0xc12ab365	-10.6687975
13	0xc0bf6484	-5.98102
14	0x3f29bf3f	0.66307443
15	0x3ee6e87c	0.45099247
16	0x3f6d10e3	0.9260389
17	0x3f43a0dd	0.7641733
18	0x3f310cb5	0.69160014
19	0xc15cb771	-13.7947855
20	0x3f2d174e	0.67613685
21	0x3f1e2040	0.6176796
22	0x3ee447f9	0.4458616
23	0xc1536369	-13.21177
24	0xc13b5bc3	-11.709903
25	0xc151d1f2	-13.113756
26	0xc170c996	-15.049215
27	0x3f225003	0.6340334
28	0xc1611eb0	-14.069992
29	0x3e8bba3e	0.2729053
30	0x3e9d4e3c	0.3072375
31	0xc116dd1d	-9.428983

fc3.weight f4 [1, 32]
0	0xbcdec8cb	-0.027195355
1	0x3d7ccf70	0.061721265
2	0xbd37b385	-0.044848938
3	0x3dd6611e	0.104677424
4	0xbd540b7f	-0.051768776
5	0xbdf1b819	-0.11802692
6	0xbd486908	-0.04892829
7	0x3d985ea7	0.074399285
8	0x3d58f2a0	0.05296576
9	0xbd2c2f97	-0.042037573
10	0xbd9b576d	-0.075850345
11	0x3d7846df	0.060614463
12	0xbd9a25dc	-0.07526752
13	0x3d84766f	0.06467902
14	0x3c9a5780	0.018840551
15	0x3d732dcf	0.05936986
16	0xbd893bcb	-0.06700858
17	0xbd0fac23	-0.03507627
18	0xbd40807e	-0.04699754
19	0xbe0f8c0a	-0.14018264
20	0xbd544fce	-0.05183392
21	0x3d54a7e3	0.05191792
22	0xbc067650	-0.008206919
23	0xbcad081c	-0.02112203
24	0x3cb2080a	0.021732349
25	0xbd87671f	-0.06611466
26	0x3d0e83c9	0.03479365
27	0x3cf7dfbc	0.030258052
28	0xbd68a99e	-0.056802385
29	0xbd58134a	-0.05275277
30	0xbd0cd5e2	-0.034383662
31	0xbc499041	-0.012302459
