model/cross_validation/hp_nested_cv/checkpoint/c000_c001_68_24_0.01_32_0.2.pt (torch, 123223 bytes, 5 tensors)

fc1.weight f4 [68, 420]
1.6524063 0.85049504 -0.35857126 -0.3711232 0.38050717 -0.39641547 1.5594741 3.034746
1.5452309 -3.6580756 -1.4606658 0.49996278 -0.66958857 -0.10659316 -0.5377373 -0.07060268
0.25959685 -2.055866 -4.8542438 -1.5598491 0.821615 -2.7551844 0.09281148 -0.59500563
2.1422272 1.0368545 -0.51561606 -0.93300617 0.7388737 0.42365697 0.27133685 0.3756988
-1.7053462 -0.22472434 0.15060133 0.094569 -3.264383 -0.37319782 0.40252173 -0.56609964
0.0015871089 -1.0801964 0.068290666 -1.114209 0.88113326 1.240451 -0.49991077 1.2576717
-0.93278384 0.045617245 -1.6811488 0.012617573 -0.6770688 -1.0476699 0.08591426 1.1942099
-0.4154483 -1.5151756 0.054547653 -0.82322794 0.31274608 -1.8268589 -1.0383753 -0.93027955
1.1487067 0.69407576 -1.877553 -1.2904286 0.20163654 -1.1680909 -0.05014352 -0.09594326
1.0147517 2.1381154 0.1197519 -1.2797232 -1.6958435 -0.4667431 -2.3051524 -0.18847734
-1.2792487 -3.4840755 -0.790597 0.17272674 -0.6330598 0.59170336 -0.98431545 0.924569
-0.31004813 -0.7563331 1.0131669 -2.2833147 0.73663455 0.7047601 1.539436 -0.46014833
-0.29989535 -1.242792 2.2886734 -0.49707934 0.2930184 -1.3620468 -2.0316951 0.17565763
0.91229707 0.3202747 0.1953282 -1.5826443 0.5675746 0.10072923 -1.1516852 -1.947165
1.5204587 1.2626879 -1.8514272 1.7590055 -0.73034453 -1.27829 -1.0137175 -1.8039334
-3.3378499 9.307936 -3.3338256 0.7304581 -0.28954002 -3.196002 1.1194365 2.0221658
-0.5189838 2.760455 1.5303088 -0.27733213 8.73293 -0.5145043 -2.9253378 0.50744075
-4.3776965 0.55673957 -0.6817122 -0.20348805 -1.5568122 11.311748 4.2262225 -0.90128475
-0.044223353 1.9296001 3.2084396 -1.5602361 8.34202 -2.7050931 -0.11739789 4.4409413
-8.20989 0.94672096 2.5432785 -1.2970475 -1.9751221 -2.0805156 6.7681723 -1.4085764
-2.1123743 4.4929805 -3.944287 0.13950004 -3.2819037 1.644276 1.0503622 -2.9461787
4.2948947 -2.1386175 -0.6363189 0.5089388 -0.8774806 -0.32892862 6.538078 -1.9815009
-2.9233625 0.07392219 -0.3895297 -3.1336315 -0.17593096 7.6737375 -3.2133596 -0.4725504
1.542068 0.07085852 -0.5505962 -5.0015974 3.102215 -0.9342335 3.1965284 -0.5003221
-3.3602755 0.34338692 6.286715 1.1161066 -1.4038582 -0.0659662 0.08139862 0.96179205
1.0608907 10.414174 -4.232952 -1.1307898 -2.3592484 -1.3967466 -0.8632567 -0.8892992
-0.055306043 0.8335647 0.8888078 -1.7630259 -4.40634 0.14126442 3.2860188 0.13284394
0.84395117 0.72394997 -0.23377933 -0.60882294 -1.5302937 8.662379 -0.1624881 -3.4763021
-3.1072357 -4.5525074 1.7648374 -3.8410833 2.5046458 0.032660168 0.31766635 2.995515
-4.141463 0.28161305 6.552478 1.8389506 -2.4127464 -2.425164 -2.1208591 2.055204
0.09317529 6.7699366 -0.32196623 -1.1181728 -0.17908266 5.5573053 -1.3992559 -3.09574
-0.3026198 -1.1658583 1.9560862 0.52567023 -1.515585 -0.33797032 3.1618898 1.4342754
00000000: 0d82 d33f 0bba 593f a796 b7be dc03 bebe
00000010: d6d1 c23e f8f6 cabe d99c c73f 4739 4240
00000020: 20ca c53f e91d 6ac0 19f7 babf 1ffb ff3e
00000030: 286a 2bbf 844d dabd 27a9 09bf 2398 90bd
00000040: e1e9 843e 4f93 03c0 f755 9bc0 23a9 c7bf
00000050: 5c55 523f f154 30c0 f213 be3d 4a52 18bf
00000060: 401a 0940 a6b7 843f 6aff 03bf 7ed9 6ebf
00000070: d426 3d3f 91e9 d83e aaec 8a3e 985b c03e
00000080: c948 dabf 231e 66be 3c37 1a3e 64ad c13d
00000090: a7eb 50c0 c913 bfbe 5417 ce3e e8eb 10bf
000000a0: 8a06 d03a e043 8abf fadb 8b3d 679e 8ebf
000000b0: f391 613f 19c7 9e3f 4ef4 ffbe 63fb a03f
000000c0: ecca 6ebf 26d9 3a3d e22f d7bf f0b9 4e3c
000000d0: 6254 2dbf 0c1a 86bf d1f3 af3d dfdb 983f
000000e0: a4b5 d4be 46f1 c1bf 5c6d 5f3d 11bf 52bf
000000f0: 4120 a03e 83d6 e9bf 7be9 84bf cd26 6ebf
00000100: d208 933f f3ae 313f a853 f0bf c42c a5bf
00000110: cf79 4e3e 0184 95bf 4b63 4dbd e67d c4bd
00000120: 62e3 813f e2d6 0840 7c40 f53d f8cd a3bf
00000130: 6611 d9bf f4f8 eebe 9e87 13c0 3400 41be
00000140: 6cbe a3bf 18fb 5ec0 9164 4abf 47df 303e
00000150: 3510 22bf df79 173f 19fc 7bbf 8eb0 6c3f
00000160: a1be 9ebe 0c9f 41bf 74af 813f d421 12c0
00000170: 1594 3c3f 286b 343f 3d0c c53f 9098 ebbe
00000180: e28b 99be cf13 9fbf a079 1240 2f81 febe
00000190: 8206 963e 8d57 aebf 4b07 02c0 98df 333e
000001a0: 4d8c 693f 0cfb a33e 1e04 483e 1794 cabf
000001b0: 924c 113f 204b ce3d 6c6a 93bf b43c f9bf
000001c0: 649e c23f c29f a13f 91fb ecbf 1827 e13f
000001d0: dcf7 3abf 029f a3bf 7fc1 81bf 4ae7 e6bf
000001e0: 559f 55c0 4eed 1441 665d 55c0 4dff 3a3f
000001f0: 973e 94be 4c8b 4cc0 b249 8f3f 2a6b 0140
00000200: 1fdc 04bf 4bab 3040 29e1 c33f 7afe 8dbe
00000210: 15ba 0b41 8eb6 03bf bc38 3bc0 a3e7 013f
00000220: 1716 8cc0 7c86 0e3f b184 2ebf 2c5f 50be
00000230: 9f45 c7bf ebfc 3441 373d 8740 99ba 66bf
00000240: 8c23 35bd 23fd f63f 1357 4d40 d1b5 c7bf
00000250: ea78 0541 3f20 2dc0 4e6e f0bd 311c 8e40
00000260: b65b 03c1 4e5c 723f 13c5 2240 a705 a6bf
00000270: cdd0 fcbf 2b27 05c0 de94 d840 3b4c b4bf
00000280: 2431 07c0 7fc6 8f40 336f 7cc0 19d9 0e3e
00000290: b60a 52c0 a377 d23f 4572 863f 318e 3cc0
000002a0: c76f 8940 1cdf 08c0 cce5 22bf d049 023f
000002b0: 92a2 60bf 5569 a8be ef37 d140 d2a1 fdbf
000002c0: 5f18 3bc0 8464 973d 7070 c7be 6b8d 48c0
000002d0: 3f27 34be 428f f540 afa7 4dc0 20f2 f1be
000002e0: 7c62 c53f 461e 913d dff3 0cbf 160d a0c0
000002f0: b18a 4640 ed29 6fbf ec93 4c40 1c15 00bf
00000300: c10e 57c0 69d0 af3e c52c c940 95dc 8e3f
00000310: a0b1 b3bf 4919 87bd 52b4 a63d 0138 763f
00000320: 44cb 873f 75a0 2641 5874 87c0 b8bd 90bf
00000330: edfd 16c0 98c8 b2bf 64fe 5cbf 1da9 63bf
00000340: 9788 62bd 7f64 553f e888 633f d5aa e1bf
00000350: bd00 8dc0 9fa7 103e 224e 5240 3e08 083e
00000360: 2f0d 583f c954 393f d963 6fbe d2db 1bbf
00000370: aae0 c3bf 1b99 0a41 4863 26be bc7b 5ec0
00000380: f3dc 46c0 24ae 91c0 31e6 e13f 4fd4 75c0
00000390: 1e4c 2040 abc6 053d 2aa5 a23e 85b6 3f40
000003a0: dd86 84c0 962f 903e e6ad d140 bc62 eb3f
000003b0: 706a 1ac0 e335 1bc0 28bc 07c0 7688 0340
000003c0: b0d2 be3d 52a3 d840 c2d8 a4be 4920 8fbf
000003d0: 7261 37be 72d5 b140 d11a b3bf 9b20 46c0
000003e0: fcf0 9abe d83a 95bf 0861 fa3f 5392 063f
000003f0: b0fe c1bf 720a adbe 675c 4a40 5696 b73f

fc1.bias f4 [68]
-2.3036256 -1.9796504 -9.617262 -2.4057841 -8.146495 -3.5725348 -2.5895553 -9.90991
-1.5031581 -13.393528 -8.695916 -12.663231 -1.9730264 -7.8611526 -10.575009 -3.5787895
-2.7864351 -3.5318902 -9.820219 -3.1102057 0.13240018 -1.8485627 -0.45125204 -7.5869145
-8.331987 -1.4285145 0.047198143 -11.64297 -1.8368359 -6.393303 -0.8790672 -1.1224318
-8.687902 -11.495579 -3.0938215 -1.4866691 -13.813732 -4.18115 -6.8175783 -1.5511699
-2.4410212 -8.278378 -9.867777 -8.151805 -0.65037805 -1.0682211 -1.0613874 -0.8100684
-2.4832213 -3.174935 -3.1387296 -9.151156 -13.495255 -6.2321863 -4.0023174 -14.420001
-10.835086 -0.5812675 -5.086242 -8.81536 -8.493502 -9.563389 -13.444151 -12.412439
-2.249339 -10.063132 -14.187027 -8.93858
00000000: 9a6e 13c0 2f65 fdbf 4ee0 19c1 5ef8 19c0
00000010: 0b58 02c1 69a4 64c0 46bb 25c0 fe8e 1ec1
00000020: 7c67 c0bf e44b 56c1 7922 0bc1 989c 4ac1
00000030: 218c fcbf 908e fbc0 3d33 29c1 e30a 65c0
00000040: f454 32c0 7d0a 62c0 9e1f 1dc1 9c0d 47c0
00000050: ea93 073e b49d ecbf 820a e7be 01c8 f2c0
00000060: d24f 05c1 90d9 b6bf d752 413d 9b49 3ac1
00000070: 701d ebbf f095 ccc0 8c0a 61bf d8ab 8fbf
00000080: a601 0bc1 e4ed 37c1 2c01 46c0 2c4b bebf
00000090: 0c05 5dc1 fbcb 85c0 9a29 dac0 bc8c c6bf
000000a0: b139 1cc0 3c74 04c1 6ae2 1dc1 cb6d 02c1
000000b0: 2d7f 26bf 78bb 88bf 8bdb 87bf a560 4fbf
000000c0: 19ed 1ec0 2332 4bc0 f2e0 48c0 236b 12c1
000000d0: 91ec 57c1 126e c7c0 fc12 80c0 53b8 66c1
000000e0: 835c 2dc1 f2cd 14bf 7fc2 a2c0 b70b 0dc1
000000f0: 62e5 07c1 a403 19c1 3e1b 57c1 5a99 46c1
00000100: 2cf5 0fc0 9702 21c1 10fe 62c1 6c04 0fc1

fc2.weight f4 [24, 68]
0.1996991 -0.4237561 0.48168686 -0.5128526 0.42131424 -1.1259238 -0.052553874 0.41341695
-2.0024562 0.015642311 0.14512955 0.63832283 0.058940917 0.3985087 -0.088203296 -0.029508188
0.22769514 0.14088091 0.26579395 -0.76520234 -0.17134213 0.21983808 -0.74790573 -0.033272184
0.24643673 -0.59336394 -0.42053533 0.07900284 0.2064413 -0.8938619 0.33359155 -0.20159295
0.28570622 0.26222062 -0.54665154 -0.5582551 0.33917448 -0.7603485 -0.36430976 -0.847404
0.1881166 -1.0649077 -0.13740772 -1.1199452 -0.47610614 -0.8070824 -1.280911 0.24524006
-0.24874987 0.296955 -3.2890153 -0.31218436 -0.88356173 0.46753404 0.36459392 0.043140087
-0.77402735 -1.1954895 -0.13838534 -0.35645026 0.43869644 0.35616386 -0.15055817 0.26919726
-0.91656303 -0.9242681 -0.07159531 0.17571095 -0.39372766 -0.42984065 0.565766 -1.2116119
-0.084732555 -0.8000211 -1.3151232 -0.14395642 -0.37601396 0.07658871 0.35602292 0.043976847
-0.24550736 0.46249923 0.384357 0.5369608 0.8296551 0.03441763 0.40621623 -0.5334864
-0.36867985 0.22067487 -1.3288952 -1.4819539 0.45804435 -2.7987738 -0.22341405 -0.34751835
0.28109166 -0.36557648 0.19387186 -0.33252466 0.3860553 0.33368602 -1.3796202 -0.4879631
0.2720845 -1.1898743 -0.7312408 -0.11517862 -0.36733732 -0.3339759 0.18903404 -0.37663993
-1.3913082 -1.1158943 -0.8394207 0.32631937 -0.6542103 0.18943693 -2.431727 -1.0269989
-0.32337663 0.20198184 0.29023582 -0.2251782 -0.24006753 -0.5003514 0.10297801 0.1336346
0.3423697 0.21533838 0.92674947 0.37099984 -1.0096773 -0.29309627 -0.59281313 -0.16902207
0.23189972 -0.36378768 -0.23799692 -0.82917124 0.052110333 -0.6773289 -0.99655014 -0.10655038
-0.63613987 -0.37866876 0.10414625 0.21310918 0.6305882 0.39690158 0.1905983 0.35834423
1.4364755 0.24692309 0.041170824 -0.51225215 -0.6702079 0.14863303 -1.4199846 -0.6489578
0.19549495 -0.5056875 -0.11358571 0.32863054 -0.074691944 -0.8271097 0.45673364 -0.23102047
0.07367278 -0.017180791 -0.23771358 -1.2512249 0.40484503 -0.4552615 -0.7689864 -1.3543408
-0.32772836 -0.52768666 -0.40081254 -0.34822908 -0.49098927 -0.7483029 -1.1026856 0.08237527
-0.6667647 0.29372835 -1.9206129 -0.48831198 -0.40139005 0.43747982 0.32192925 0.54942936
-0.38309526 -2.0458229 0.29707125 -0.012557989 -0.42972827 0.26127133 0.7489864 -0.043242317
-0.92996395 -0.50582206 -0.6410397 0.36023238 0.45153555 -1.0755955 0.31849983 -0.74481815
0.08655962 -0.14040457 -2.2208023 0.46936065 -0.25454882 0.23761386 0.26728514 0.25734767
-0.116567336 0.15976551 0.33903536 0.25955272 0.6331909 -0.06641971 0.33690274 -1.1917993
-0.4035452 0.22891767 -1.1709987 -0.77042776 -0.22559565 -0.7365529 -3.5900013 -0.18631458
0.23758192 -0.8445611 0.23925263 -0.7982001 0.36375943 0.2752832 -0.59830225 -0.24230404
-0.10873201 -0.4794288 -0.38768688 -2.0102637 -0.1963109 -0.73104876 0.9186437 -0.37315142
-1.4560987 -2.430333 -0.31065765 0.3255327 -0.3235005 0.19698387 -1.7564874 -1.4998807
00000000: ec7d 4c3e 8ff6 d8be a99f f63e 4f4a 03bf
00000010: 80b6 d73e 451e 90bf bb42 57bd 63ab d33e
00000020: 3e28 00c0 4e24 803c d79c 143e 2069 233f
00000030: 086c 713d 5509 cc3e eea3 b4bd 28bb f1bc
00000040: ea28 693e 1643 103e 2516 883e 4de4 43bf
00000050: 5074 2fbe 3c1d 613e c076 3fbf 6a48 08bd
00000060: e959 7c3e b3e6 17bf 6850 d7be 3ecc a13d
00000070: 5965 533e 22d4 64bf 83cc aa3e 626e 4ebe
00000080: 1648 923e c841 863e 5bf1 0bbf cee9 0ebf
00000090: 47a8 ad3e 33a6 42bf cf86 babe 78ef 58bf
000000a0: a3a1 403e e54e 88bf 9cb4 0cbe 5d5a 8fbf
000000b0: 2fc4 f3be f49c 4ebf e4f4 a3bf 3620 7b3e
000000c0: 49b8 7ebe 7c0a 983e 3a7f 52c0 a1d6 9fbe
000000d0: 1a31 62bf 9f60 ef3e 0eac ba3e a9b3 303d
000000e0: a826 46bf cd05 99bf e3b4 0dbe a680 b6be
000000f0: d29c e03e 1c5b b63e ec2b 1abe 39d4 893e
00000100: e0a3 6abf d69c 6cbf 90a0 92bd 92ed 333e
00000110: ac96 c9be 1314 dcbe 0ad6 103f 1916 9bbf
00000120: 4388 adbd 2fce 4cbf f555 a8bf 5069 13be
00000130: e784 c0be 8bda 9c3d a348 b63e 1121 343d
00000140: 4866 7bbe b3cc ec3e 71ca c43e 4376 093f
00000150: 4764 543f 80f9 0c3d 93fb cf3e 9192 08bf
00000160: 9bc3 bcbe 98f8 613e 3d19 aabf aab0 bdbf
00000170: ca84 ea3e 1c1f 33c0 a7c6 64be eded b1be
00000180: 3feb 8f3e d72c bbbe 5886 463e ac40 aabe
00000190: 0aa9 c53e e5d8 aa3e 6597 b0bf 4dd6 f9be
000001a0: a94e 8b3e cd4d 98bf 9932 3bbf c5e2 ebbd
000001b0: a313 bcbe e4fe aabe 2492 413e f3d6 c0be
000001c0: 6316 b2bf a0d5 8ebf 46e4 56bf 5513 a73e
000001d0: 547a 27bf c1fb 413e 6aa1 1bc0 b374 83bf
000001e0: 9f91 a5be 54d4 4e3e ca99 943e 1d95 66be
000001f0: 43d4 75be 0817 00bf 23e6 d23d 82d7 083e
00000200: 154b af3e aa81 5c3e 743f 6d3f b1f3 bd3e
00000210: 1b3d 81bf b710 96be 9ac2 17bf 1f14 2dbe
00000220: 1f77 6d3e 6142 babe 77b5 73be 9144 54bf
00000230: a571 553d 6d65 2dbf e91d 7fbf 1637 dabd
00000240: 10da 22bf dfe0 c1be a14a d53d 4b39 5a3e
00000250: 3a6e 213f af36 cb3e 332c 433e e578 b73e
00000260: 6ede b73f 68d9 7c3e bda2 283d f522 03bf
00000270: bf92 2bbf 4233 183e 0ec2 b5bf 1922 26bf
00000280: d42f 483e bc74 01bf a09f e8bd 4342 a83e
00000290: 17f8 98bd 76bd 53bf fed8 e93e a190 6cbe
000002a0: c1e1 963d bbbe 8cbc 306b 73be 2328 a0bf
000002b0: d947 cf3e 0918 e9be 4bdc 44bf 0a5b adbf
000002c0: 03cc a7be 7916 07bf 4d37 cdbe 154b b2be
000002d0: f262 fbbe c790 3fbf cd24 8dbf 5eb4 a83d
000002e0: 17b1 2abf 9063 963e a5d6 f5bf 0704 fabe
000002f0: ff82 cdbe 5bfd df3e e9d3 a43e 67a7 0c3f
00000300: 1025 c4be c3ee 02c0 b919 983e 06c0 4dbc
00000310: 5805 dcbe 5bc5 853e 93bd 3f3f db1e 31bd
00000320: 1e12 6ebf 8e7d 01bf 2e1b 24bf 6170 b83e
00000330: ab2f e73e 1dad 89bf 6912 a33e 67ac 3ebf
00000340: 2c46 b13d 37c6 0fbe a021 0ec0 0a50 f03e
00000350: 3954 82be 0c51 733e 99d9 883e 13c3 833e
00000360: dbba eebd 9299 233e 0b96 ad3e 18e4 843e
00000370: cc18 223f 0f07 88bd 847e ac3e e18c 98bf
00000380: 7a9d cebe 6569 6a3e 49e3 95bf c13a 45bf
00000390: 8c02 67be bb8e 3cbf 95c2 65c0 40c9 3ebe
000003a0: ad48 733e 2835 58bf a4fe 743e d756 4cbf
000003b0: ad3e ba3e ebf1 8c3e 562a 19bf 8d1e 78be
000003c0: e3ae debd b177 f5be e57e c6be 29a8 00c0
000003d0: b905 49be 0326 3bbf 3c2c 6b3f b40d bfbe
000003e0: 7161 babf 938a 1bc0 850e 9fbe 39ac a63e
000003f0: dca1 a5be 24b6 493e 94d4 e0bf 17fc bfbf

fc2.bias f4 [24]
0.6400424 0.20709276 0.051033057 0.6335799 0.42825845 0.35665667 0.09088539 -13.520648
-17.55099 0.15131383 -3.6425333 0.43977326 -15.3155985 0.55273604 0.5429864 0.5076339
-9.001409 -20.047825 -13.986347 0.5190947 -16.733135 -18.660759 0.5492977 0.40654263
00000000: d2d9 233f 2010 543e 0a08 513d 4b32 223f
00000010: b144 db3e b49b b63e 1f22 ba3d 9354 58c1
00000020: 6d68 8cc1 03f2 1a3e 441f 69c0 f629 e13e
00000030: b10c 75c1 1c80 0d3f 2801 0b3f 4cf4 013f
00000040: c505 10c1 f261 a0c1 14c8 5fc1 64e3 043f
00000050: 76dd 85c1 3c49 95c1 c69e 0c3f 5b26 d03e

fc3.weight f4 [1, 24]
-0.05260036 -0.06816078 -0.02413648 -0.1264113 -0.0045281476 -0.007891596 0.09604976 0.058649153
-0.090086244 0.07505215 -0.2152522 0.003402453 -0.053159207 -0.029088015 0.05212663 -0.06125464
-0.07267372 0.03257092 -0.06311323 -0.07984857 -0.083139084 0.048323937 0.032188654 -0.04170682
00000000: 7a73 57bd e197 8bbd deb9 c5bc f771 01be
00000010: db60 94bb c14b 01bc bdb5 c43d 183a 703d
00000020: 237f b8bd f1b4 993d 136b 5cbe b0fb 5e3b
00000030: 78bd 59bd fd49 eebc bc82 553d 25e6 7abd
00000040: f6d5 94bd 1669 053d 8241 81bd a687 a3bd
00000050: d344 aabd 52ef 453d 40d8 033d c5d4 2abd
