model/cross_validation/hp_nested_cv/checkpoint/c000_c001_52_24_0.01_32_0.2.pt (torch, 94743 bytes, 5 tensors)

fc1.weight f4 [52, 420]
000000 a7 b5 ad bf 4d ca 4b bf d5 7b 58 c0 f9 47 ec bf
       -1.3571061 -0.7960556 -3.382558 -1.8459464
000010 a7 ae b6 bf d8 c1 87 3d 71 96 0c 3f 26 41 52 3e
       -1.427205 0.0662877 0.54917055 0.20532665
000020 be a2 b1 bf 52 68 2e be f2 13 04 bf 06 cb 4a c0
       -1.387779 -0.17031983 -0.51592934 -3.1686416
000030 9d 5d b1 bf f7 52 fb be 4d be 84 3f 98 07 d2 bf
       -1.3856694 -0.49086735 1.0370575 -1.6408567
000040 ea ac 52 3e fc 11 1a 40 c0 61 0a 40 40 ed af 3f
       0.20573774 2.4073477 2.1622162 1.3744278
000050 08 c1 ea be c3 4d af 3f e5 86 ea be f5 5d a4 bf
       -0.45850396 1.3695606 -0.4580604 -1.2841173
000060 fe 75 87 bf a9 af ec be 11 f4 ce bf dc fe c3 3e
       -1.0582883 -0.46227768 -1.6168233 0.3828038
000070 2d 74 4a 3f 0d 37 8a bf 42 64 ce bf 6b 67 88 3f
       0.7908352 -1.079805 -1.6124346 1.0656561
000080 7b 68 de bf 90 5e 56 3f 94 31 22 3f 6e da ca bf
       -1.7375635 0.8373804 0.633569 -1.584791
000090 83 9f 31 3d de b0 28 bf 03 ca f8 bf 69 d5 86 3e
       0.043365013 -0.6589488 -1.9436649 0.26334694
0000a0 53 ca 41 bf 1d 6c c8 bf c9 fb 92 3e e9 ef 20 bf
       -0.7569935 -1.5657994 0.28707722 -0.62866074
0000b0 fe a4 38 3f 4a 86 85 bf f9 19 ef 3d a2 39 68 bf
       0.7212676 -1.0431607 0.11674876 -0.9071294
0000c0 e6 9f 67 bf be ab f0 3e 7f 4f 83 3f b1 b4 8d bf
       -0.9047836 0.4700603 1.0258635 -1.1070768
0000d0 a8 53 a1 bf 9e d0 9b 3e 0f c4 b8 be 7c e1 56 c0
       -1.2603655 0.304326 -0.3608708 -3.3575125
0000e0 0c 78 95 3f fb 94 f5 3e f6 04 8e be fc bd b7 3f
       1.167726 0.47965226 -0.2773816 1.4354854
0000f0 98 56 67 3d 8a 65 a0 bf 02 a5 f2 be 44 2a d8 3f
       0.056479067 -1.2530987 -0.47391516 1.6887898
000100 d9 9a 00 bf 79 f7 a5 be 91 e9 2e 40 f6 a4 d6 bf
       -0.5023628 -0.3241537 2.7330058 -1.6769092
000110 73 31 2f c0 5f 1d fc be 7c 22 09 bf c6 28 0d 3f
       -2.7373931 -0.49241158 -0.53568244 0.5514034
000120 e6 e8 8b c0 39 3f a7 bf d4 1a ae 3f e8 96 09 c0
       -4.37218 -1.3066169 1.3601937 -2.1498356
000130 14 25 c4 3f 9b 1d 03 3d 70 d4 8c 3f 5a c6 ab 3f
       1.5323815 0.032010656 1.1002331 1.3419907
000140 6e 17 87 3e 97 42 a4 3f 15 bc 98 3e fa e4 c0 3e
       0.26385063 1.2832822 0.29830995 0.37674695
000150 7a e4 4d 3f 0e a7 66 c0 ef 15 bc 3d 05 4e 72 c0
       0.8042675 -3.6039462 0.09183871 -3.786012
000160 71 c6 27 c0 b0 1f c1 bc 55 ae f8 3f cc aa 24 c0
       -2.621487 -0.02357468 1.9428202 -2.5729246
000170 f4 c1 c3 c0 c0 3c 83 3f c2 4c 8c 3e 72 5f b7 3f
       -6.117426 1.0252914 0.27402312 1.4326003
000180 be 8b 0b be 49 6d bc bf 38 96 93 bf 63 09 9a 3f
       -0.13627526 -1.4720851 -1.1530218 1.2034115
000190 c2 5a 03 40 6b b3 f9 3e 76 b8 b8 3f ac a4 5e bf
       2.0524144 0.48769698 1.4431293 -0.8697002
0001a0 1a 69 93 3f 91 88 9d 3d 51 3d 34 bf 48 79 6f bf
       1.151645 0.076920636 -0.7040606 -0.93544436
0001b0 2f 3a b1 bf 54 b4 0b 3f ae 87 60 bf 06 59 89 3f
       -1.3845881 0.54572034 -0.8770703 1.0730293
0001c0 10 37 13 c1 c9 2f ca bf f7 0b 51 c0 59 b3 b8 3f
       -9.200943 -1.5795833 -3.2663553 1.4429733
0001d0 b5 ca 50 c0 a9 af 9f bf cb 07 a7 bf 47 17 a0 bd
       -3.2623723 -1.2475482 -1.3049253 -0.0781694
0001e0 30 13 1b 40 e1 4e 28 c1 7c 4c e8 bf 19 09 31 40
       2.423046 -10.519258 -1.8148341 2.7661803
0001f0 49 7b 21 bf 62 3d 02 3f 64 8a e3 3f 8e 13 79 c0
       -0.63078743 0.5087491 1.7776608 -3.8918185
000200 85 1d 58 3f 68 76 61 c0 ae f6 81 c0 9b 9f 92 bf
       0.84420043 -3.522852 -4.0613623 -1.1454958
000210 58 99 41 c1 4f b3 12 c0 55 1d 1b 40 98 ce 19 40
       -12.099937 -2.2921941 2.4236653 2.4032345
000220 56 3e 8a 3f a7 07 62 c0 53 7a ea c0 8e 34 22 c0
       1.0800273 -3.531717 -7.327432 -2.5344577
000230 00 6e a5 3f 22 ee 09 c1 e6 1b 12 c1 5d d0 e9 bf
       1.2924194 -8.620638 -9.131811 -1.8266712
000240 9f 8e bd c0 3f c8 03 c1 ce 1f d0 bf fa 06 e2 be
       -5.92366 -8.236388 -1.6259706 -0.44145948
000250 09 ee a9 c0 4d 03 d5 3e 6d f7 29 bf a6 58 0c c1
       -5.310307 0.4160408 -0.66393167 -8.771643
000260 47 be bd 3f ab d9 cf bf 53 f2 a3 40 aa 91 a5 bf
       1.4823693 -1.6238302 5.1233306 -1.2935078
000270 a7 43 26 40 03 04 18 40 0a 6a eb c0 a9 62 28 c0
       2.5978792 2.3752449 -7.356694 -2.6310217
000280 71 54 38 40 f3 57 ea c0 17 44 46 c0 5d d9 27 c1
       2.880154 -7.323236 -3.0979059 -10.490567
000290 a9 5e 66 40 70 62 cc c0 c5 83 89 bf 55 59 1c 40
       3.5995276 -6.3870163 -1.0743338 2.4429524
0002a0 c4 3c 10 c0 46 35 94 3f 67 38 e0 3f 20 ca 2d 40
       -2.2537088 1.1578758 1.7517213 2.7154617
0002b0 12 ad 81 c0 6d 94 91 c0 7b fd d7 c0 8d 16 c2 3e
       -4.0523767 -4.5493684 -6.7496924 0.3790783
0002c0 88 21 e6 be 8d 47 e0 be eb 20 a6 3f cc c3 a6 40
       -0.44947457 -0.4380459 1.2978796 5.211401
0002d0 24 98 94 3e 29 4d 0f c1 95 d4 5e 40 4b b4 f9 3f
       0.29022324 -8.956338 3.481725 1.9508146
0002e0 c4 3f 2a c0 f9 53 2b 40 a0 20 b2 3f 39 72 8e c0
       -2.660142 2.6770003 1.3916206 -4.451443
0002f0 dd 91 b2 3e ca 07 b2 c0 75 60 ec c0 9a a2 48 bf
       0.3487691 -5.563451 -7.3867745 -0.7837311
000300 f0 de 61 40 a2 d0 77 3f 61 0f 90 c0 a6 25 8a 3f
       3.529232 0.96802723 -4.5018773 1.0792739
000310 b1 16 91 bf b8 0d c1 c0 6e 99 3a c0 78 f9 0a c0
       -1.133505 -6.0329247 -2.9156146 -2.1714764
000320 1a 37 1d c0 11 27 f7 c0 ef 8c 25 c0 3c f2 0a c0
       -2.4564881 -7.723519 -2.586727 -2.1710348
000330 09 a4 ca 3d 3e fc 99 bf 85 b9 63 40 7c b9 80 3f
       0.098945685 -1.2030103 3.5581982 1.0056605
000340 57 a7 d4 3f f2 86 71 3f 91 e9 50 3d 99 84 c7 bf
       1.6613568 0.94346535 0.051003996 -1.558734
000350 6c 5a 9b bf ae 4f 7c 3f 31 14 b7 bf f8 20 56 be
       -1.213697 0.9855908 -1.4303037 -0.20911014
000360 95 f8 49 c0 72 cc b7 3e 84 3f 4f 3f 39 7a 57 3f
       -3.1557972 0.35898167 0.8095629 0.8417087
000370 a9 a1 9d 3f 2f 37 84 c0 53 64 93 c0 7e ee 70 c0
       1.231496 -4.1317363 -4.6059966 -3.7645564
000380 db 4e c8 3f 9a 8c 71 c0 43 03 0c 3e 8f a1 62 40
       1.5649065 -3.7742066 0.13673119 3.5411108
000390 aa 34 52 c0 65 1c be bf d3 6c a9 3f a3 41 02 c0
       -3.2844644 -1.4852415 1.3236336 -2.0352561
0003a0 98 6c 48 3f d3 de ad bf ca 6a 93 be 4d af 8f bf
       0.782907 -1.3583626 -0.2879241 -1.1225373
0003b0 b7 79 0f bf a7 02 a9 3f d4 a2 04 c0 ea ea 3d c0
       -0.560451 1.3203934 -2.0724382 -2.967463
0003c0 f9 b8 a7 bf 4c 70 aa c0 cc 6b a4 c0 79 ff 95 c0
       -1.3103324 -5.326208 -5.138159 -4.6874356
0003d0 ea 8d cd 3f 8a bd 12 c1 ad 40 30 40 b0 32 a9 40
       1.6058934 -9.171274 2.7539475 5.2874374
0003e0 4f 9d d1 bf a8 9b 4a 40 02 d1 b9 bf 6d 72 22 c0
       -1.6376132 3.1657505 -1.4516909 -2.538234
0003f0 0e 03 65 c0 97 5d ba bf 5f 40 8e bf 79 b5 10 3f
       -3.5783114 -1.4559811 -1.1113394 0.56526905

fc1.bias f4 [52]
000000 99 f2 14 c0 f3 ab 51 c0 3c 2a 0a c1 8f de 12 c1
       -2.327307 -3.27612 -8.635311 -9.179336
000010 9b 87 86 bf df 1e 6e 3f c4 82 43 c1 0e 3a 16 c1
       -1.0510134 0.93015856 -12.219425 -9.3891735
000020 81 6c 12 c1 26 1e 56 c1 dc 19 6a c1 ad a1 53 c1
       -9.15149 -13.38236 -14.631313 -13.226972
000030 69 92 47 c1 2d 9d 61 c1 64 aa 17 c1 55 36 d6 c0
       -12.473245 -14.100873 -9.479099 -6.6941323
000040 e9 03 81 c0 42 58 2c c0 36 9b 92 be e8 ad fa c0
       -4.0317273 -2.6928868 -0.28634042 -7.833729
000050 71 52 59 bf cf 3c 96 c0 64 16 04 bf 86 8f b2 c0
       -0.8489142 -4.694923 -0.51596665 -5.58002
000060 f2 9b 3d c0 f6 ba 36 be 8c 97 a3 c0 be 74 e8 c0
       -2.9626431 -0.17844757 -5.1122494 -7.2642508
000070 29 54 08 c1 a4 d8 fe c0 ad d2 18 c1 cd 50 30 c1
       -8.520547 -7.9639454 -9.5514345 -11.019727
000080 cb 68 82 bf 6e 7c e7 bf eb c6 2c c0 db 3f 0f c0
       -1.018823 -1.8084848 -2.699641 -2.2382724
000090 a2 04 a5 c0 cc 4c d8 c0 ae 2c 4a c0 db 98 77 bf
       -5.1568155 -6.7593746 -3.158977 -0.96717614
0000a0 0b 82 09 c1 f3 ad 86 c1 8b 4b 7e c1 ea 75 7e c0
       -8.594249 -16.834936 -15.893443 -3.975947
0000b0 ff f0 83 c0 7b 59 af bf 0d d2 c9 c0 ba ea ad 3e
       -4.1231685 -1.3699182 -6.306891 0.33968145
0000c0 6d cb 9d c0 3f 3b 66 c1 e3 d8 45 c1 f4 b2 f2 c0
       -4.9310822 -14.389464 -12.365451 -7.584345

fc2.weight f4 [24, 52]
000000 29 6a 3b bf 01 a6 93 bd 1a dd 38 bf c5 2f 6e be
       -0.7320886 -0.07209397 -0.72212374 -0.2326041
000010 cd c2 10 3d 00 b8 a4 be 01 04 cb be 5e 82 8d bf
       0.035342027 -0.3217163 -0.39651492 -1.105541
000020 02 03 74 3d 7e 1d d0 be 06 08 a5 bf bd af 3a 3e
       0.05957318 -0.406475 -1.2893074 0.18231101
000030 46 13 31 3e e0 db 46 be 71 dd 2d be f5 84 bb 3c
       0.17292508 -0.19419813 -0.16979004 0.022890547
000040 5a b9 20 be 87 d3 53 bf 82 e6 76 3e 3b f0 65 bf
       -0.15695706 -0.8274464 0.24111369 -0.8981969
000050 59 e5 74 bd 79 fd 35 bf b1 11 d5 bf 24 6d 35 be
       -0.059789035 -0.71089894 -1.6646024 -0.17717415
000060 62 d4 11 bf 0a ca 4f bf 63 1e 5c bf df 54 34 be
       -0.56964695 -0.8116766 -0.85983866 -0.17610501
000070 5c 9c ed be a6 c2 2a be 69 f2 26 3e 27 9a ac be
       -0.46408355 -0.16675815 0.1630341 -0.3371136
000080 0e 87 d8 bf 8e 5e 23 bf d9 77 96 bf 35 97 db bc
       -1.6916215 -0.63816154 -1.1755325 -0.0268055
000090 80 dc b0 3d b8 6f 14 be 50 dc 52 bf fe 2b a4 bf
       0.08635807 -0.14495742 -0.8236742 -1.2825925
0000a0 28 ae ef 3e 20 17 15 bf 9f 19 40 3e 51 29 03 c0
       0.46812558 -0.5823841 0.18759774 -2.0493968
0000b0 90 9a 6f be 71 51 68 bf be dc 9e be 99 38 7e be
       -0.23398805 -0.9074927 -0.31027788 -0.24826278
0000c0 37 06 92 bf 58 12 b2 3d 96 c1 a8 bd c4 87 a7 bf
       -1.1408147 0.08694905 -0.082400486 -1.3088307
0000d0 65 47 e6 be f2 60 6d 3e f7 e5 3d bf ec d0 e6 bc
       -0.44976345 0.23181513 -0.74179024 -0.028175794
0000e0 9d 27 01 c0 d1 2b 8d be 03 5e e4 be 7a 00 d7 bd
       -2.0180428 -0.27572492 -0.44602975 -0.10498138
0000f0 a0 81 54 3e e4 3d 37 bf d2 70 48 3e 57 67 ce 3e
       0.20752573 -0.7157881 0.19574288 0.40313217
000100 60 64 d5 3d 92 d1 eb bd bd 39 01 3e 98 22 c7 3e
       0.10419536 -0.11514582 0.12619682 0.3889358
000110 1b cd 93 3e 14 e4 e0 3e 65 39 14 be 25 88 99 3e
       0.2886742 0.4392401 -0.1447502 0.29986683
000120 72 8c 95 3e 76 a8 0a bf 73 04 41 bf ea 78 85 3e
       0.29208714 -0.541633 -0.75397414 0.26068813
000130 8a b4 9c 3d 39 14 b1 bf 71 2e 52 3e 33 62 25 3e
       0.076516226 -1.3834296 0.20525528 0.16150741
000140 0d bb ac bf 1d 1c 64 be 6f ef 8c 3e bf b8 2a bf
       -1.3494583 -0.2227635 0.27526423 -0.6668815
000150 26 8d 8d bf 41 b3 19 bf 32 c4 6a 3e 95 49 6a be
       -1.10587 -0.60039145 0.22926405 -0.22879632
000160 81 ff 67 be ae fe 14 bf 24 cb ea be 9d a7 76 bf
       -0.22656061 -0.5820111 -0.4585811 -0.9634951
000170 79 97 d8 be 60 d6 e6 3d 64 62 3f bf 11 11 58 bd
       -0.42303064 0.112713575 -0.7475951 -0.05275065
000180 8b 06 b5 3d c6 1f a8 3e 31 06 d2 bf 31 86 3f bf
       0.088391386 0.3283674 -1.640814 -0.74814135
000190 5c c7 ae 3e 70 ae 7a 3e b7 8c 73 3e ee dd 0d c0
       0.34136474 0.24480605 0.23784147 -2.2166705
0001a0 c0 f5 5d bf 9c 47 c6 bf a8 43 e8 bd fa 2f 4b bf
       -0.8670311 -1.5490603 -0.113410294 -0.7937008
0001b0 e6 0d b7 bd 51 f7 cd be dc 5d 9c 3e ee 5a 7d 3e
       -0.08938198 -0.4022775 0.3054036 0.24741718
0001c0 1d d9 55 c0 2d ca db 3e 52 51 c7 bf d1 09 b7 3e
       -3.3413765 0.42927685 -1.5571692 0.35749677
0001d0 68 1f cd bf c1 10 66 3d 77 a6 67 bf 07 37 8b bf
       -1.602521 0.05616832 -0.9048838 -1.0876168
0001e0 40 65 9d bf 39 77 e2 bf 0f af 54 3d b5 e2 09 bd
       -1.2296524 -1.7692634 0.05192476 -0.03366347
0001f0 0f 92 31 be e0 56 c0 bf d9 9b d9 be 75 91 d6 be
       -0.17340873 -1.5026512 -0.42501715 -0.4190785
000200 9b d3 6c bf e7 91 79 3e 9f eb b5 bf cd ae bb bf
       -0.92510384 0.24372064 -1.4212531 -1.466272
000210 4d 20 0a 3e 60 a8 09 bf 7a fe 3b bf 53 65 d0 3d
       0.13488884 -0.53772545 -0.73435175 0.10175576
000220 88 75 95 be 66 45 0f 3e ee 3f bd bf 34 bf 67 3f
       -0.29191232 0.13991317 -1.4785135 0.9052613
000230 5e be 77 bf 08 ce 6a bc 25 5c 42 bf 03 27 2f bf
       -0.9677485 -0.014331348 -0.7592185 -0.684189
000240 4f 44 be 3d 0e e5 39 bf a5 75 9f 3e 39 53 01 c0
       0.092903726 -0.72615135 0.31144443 -2.0207045
000250 45 a1 81 be 21 33 87 bf f4 66 8a bf aa 37 01 c0
       -0.2531835 -1.0562478 -1.0812669 -2.0190225
000260 a9 d0 5a ba 35 c6 86 bf 49 26 de 3e 45 fd 88 3d
       -0.0008347133 -1.0529238 0.43388584 0.06688932
000270 d1 71 16 bf 0b 25 96 bd c8 15 55 bf fc 44 5e be
       -0.5876742 -0.07331284 -0.8323636 -0.21706003
000280 01 19 be bf ec de 55 bf 2a e1 4e bf 0e c2 9e 3d
       -1.485138 -0.83543277 -0.80812323 0.07751857
000290 4d 29 cd 3e 0c 57 61 bf 3b 0d 90 bd fe 54 aa 3d
       0.40070572 -0.8802345 -0.070337735 0.08316992
0002a0 94 b5 ad 3e 3e 0e 78 bf 1f 5b 10 3f b7 a9 0c 3e
       0.33927596 -0.9689673 0.5638904 0.13736616
0002b0 d5 20 41 3e 29 3f 53 3e de fa b6 bc b4 33 a1 3e
       0.1886018 0.20629562 -0.02233642 0.3148476
0002c0 d8 72 9c bd 54 51 95 3e 83 89 4c bf 88 c4 b2 bd
       -0.07639092 0.2916361 -0.79897326 -0.087288916
0002d0 72 64 e7 3d e9 bc 99 be 8a 8d d8 3e 18 d0 a5 3e
       0.11298455 -0.3002694 0.42295486 0.32385325
0002e0 86 53 4f bf 3f cc 99 3d 3f a0 9b 3e 76 31 05 bf
       -0.8098682 0.0750966 0.30395696 -0.52028596
0002f0 b0 db 97 bf 67 06 a5 bf 09 8e 4f 3c a1 c9 26 be
       -1.1863918 -1.2892579 0.012668141 -0.16287853
000300 fe fa bb bc 24 5e 15 bf e0 ba 1c bf 81 f0 ec be
       -0.02294683 -0.5834677 -0.6122265 -0.4627724
000310 8e d1 e9 bd 53 c1 81 bf 1b 7c 3b bf 77 9b e0 3d
       -0.114169225 -1.0137123 -0.73236245 0.109671526
000320 d6 da 15 3e 13 f9 a0 3e cb 82 49 bf 0b c6 10 bf
       0.1463426 0.3144003 -0.787152 -0.5655219
000330 7b c3 c8 3d 8a 1e 63 3e 8c 4c 00 3e 5c ac 98 be
       0.0980291 0.22179618 0.125292 -0.29819
000340 d3 7d d3 bb 77 29 ab bf 7d 80 a1 3e 1f a2 aa bf
       -0.0064542084 -1.3372029 0.3154334 -1.3330725
000350 7c f6 1f 3e 06 ac 9f 3d 30 7f 31 3d 85 c3 78 bf
       0.1562137 0.07796483 0.043334186 -0.9717334
000360 52 c1 46 bf f7 3e b5 3e 94 e5 0c bf ce d0 4a bf
       -0.77638733 0.353996 -0.5503781 -0.7922486
000370 07 40 85 be 8f 1e 98 bd 92 0d 96 be e3 bf 0d c0
       -0.2602541 -0.074277036 -0.29307228 -2.2148368
000380 2f 21 30 c0 6a d1 ad bf eb d3 f7 bc a2 25 9a bf
       -2.7520254 -1.3579533 -0.030252418 -1.2042735
000390 04 4f be bf 90 84 cf bf f6 36 02 be e4 e3 54 bf
       -1.4867864 -1.621233 -0.12716278 -0.83160233
0003a0 42 66 60 bf 9c cd 5a be 44 ec ac bf 19 e2 a5 bf
       -0.87656033 -0.21367496 -1.3509603 -1.2959625
0003b0 65 db 08 3f c1 e5 27 bf 35 b9 19 bf cd c9 31 3f
       0.5345977 -0.6558495 -0.6004823 0.6944855
0003c0 bc ba a2 3d be d3 0b 3e 87 47 35 bf c8 c7 82 3e
       0.07945773 0.13654992 -0.7081227 0.25543046
0003d0 5e cd 45 be a9 41 d9 3e f9 a8 08 3e 9b 7d e2 3e
       -0.19316623 0.42432907 0.13345708 0.44236454
0003e0 f7 c5 ae bd ee 26 15 3f 7e 14 85 3e 6a fb 2a bf
       -0.085338525 0.58262527 0.25992197 -0.6678988
0003f0 e9 c3 11 bf 60 37 ad bf 5c ef ba 3e 0f fd 71 3e
       -0.5693956 -1.3532524 0.36510742 0.2363169

fc2.bias f4 [24]
000000 54 1c 05 c1 c2 12 ff 3e 9d ac 53 c1 bf b1 21 3f
       -8.319416 0.49819 -13.229642 0.63161844
000010 f6 70 91 3e 6b 39 a5 3e fa 3b 5e c1 17 a0 6b 3e
       0.28406495 0.3227037 -13.889643 0.23010288
000020 3b 16 4e c1 a6 5a 05 3f 34 a3 d5 3e 39 4b a9 bc
       -12.880427 0.52091444 0.41726077 -0.020665752
000030 ce 21 d3 3d 5c 85 f6 3e 79 bf fc 3e 92 60 82 3e
       0.10309182 0.4814862 0.49364832 0.25464302
000040 86 ee 1f 3f 7c 47 d7 3e 92 bd a4 c1 16 62 70 3e
       0.6247333 0.42046726 -20.592564 0.23474917
000050 34 9d f1 bc 76 d5 e4 3e 1f c5 98 c1 a3 b1 95 c1
       -0.029493906 0.44694108 -19.09625 -18.711737

fc3.weight f4 [1, 24]
000000 82 50 4f 3d a4 fa 45 bd 5e 56 c0 3d 71 c8 6d bd
       0.050613888 -0.048334733 0.09391473 -0.058052484
000010 c9 1d 47 3d 65 bc 12 3d bc 10 ea bd 0c 55 06 bd
       0.04861239 0.0358242 -0.11428973 -0.03279595
000020 b4 33 81 bd 5e 17 9d 3d 3c b5 63 3b 26 e6 a3 bd
       -0.0630869 0.076704726 0.0034745475 -0.08002882
000030 19 be 6f 3d 64 25 e0 bb 11 07 b6 3d 48 90 71 3d
       0.0585309 -0.006840395 0.088880666 0.058975488
000040 21 0f 84 bd 2c d0 c6 3d 54 b5 39 3d b2 4d 93 bd
       -0.06448198 0.097076744 0.045338944 -0.071925536
000050 58 fa a0 bd 8a 50 84 bd fc 46 f4 3d 6f 6f 5e bd
       -0.07860249 -0.06460674 0.11927602 -0.05430549
