model/cross_validation/hp_nested_cv/checkpoint/c000_c003_32_32_0.001_64_0.1.pt (torch, 60119 bytes, 5 tensors)

fc1.weight f4 [32, 420]
0	0xbe52fbaa	-0.20603815
1	0xbe8726ae	-0.26396698
2	0xbe0020a8	-0.12512457
3	0xbdd03b91	-0.101676114
4	0xbe0317e6	-0.12802085
5	0xbe695068	-0.22784579
6	0xbd07551f	-0.033040162
7	0x3d91ec52	0.07125153
8	0xbca4cee3	-0.020118183
9	0xba1d70ca	-0.00060058816
10	0x3dfd6e64	0.12374571
11	0xbd89c2e6	-0.06726627
12	0x3cfd0348	0.030885354
13	0xbdd0d270	-0.10196388
14	0x3e272490	0.16322541
15	0x3d9dced3	0.07705464
16	0x3d23120a	0.039812125
17	0xbdbfa3ed	-0.09357438
18	0xbcca31dc	-0.024681978
19	0xbad9b40f	-0.0016609448
20	0xbdccbb44	-0.099966556
21	0x3e90b5cd	0.28263703
22	0x3e1a625e	0.15076587
23	0x3cb5539d	0.022134596
24	0x3e840dda	0.25791818
25	0xbdd6ec64	-0.10494307
26	0x3d515330	0.051104724
27	0xbe9d2020	-0.30688572
28	0xbe40f481	-0.18843271
29	0xbe713e5c	-0.23558944
30	0x3e4e0290	0.20118165
31	0xbe7331bf	-0.23749445
32	0xbe403c57	-0.18773018
33	0x3d97fe16	0.0742151
34	0xbdbf0117	-0.0932638
35	0x3cb3f8e5	0.021969268
36	0xbdfc671d	-0.12324355
37	0xbd45ab10	-0.04825884
38	0x3b985959	0.004649323
39	0xbc7dea83	-0.0154978065
40	0xbc973f9e	-0.018462952
41	0x3e93c128	0.28858304
42	0xbe2d42fd	-0.16920085
43	0x3d285987	0.041101005
44	0x3e3dce5b	0.1853575
45	0xbf077057	-0.5290579
46	0xbd01405c	-0.03155552
47	0x3e9df904	0.30854046
48	0xbe107384	-0.14106566
49	0xbd7c7a6a	-0.06164018
50	0x381d378f	3.748346e-05
51	0x3dc98b56	0.09841029
52	0xbd69fa2d	-0.05712335
53	0xbe4ab1bf	-0.19794367
54	0xb9ebc301	-0.00044967982
55	0xbe018090	-0.12646699
56	0xbd006b33	-0.031352233
57	0xbda3082f	-0.07960545
58	0xbbded5d8	-0.0068003945
59	0xbe52402f	-0.20532297
60	0x3e06331d	0.13105436
61	0x3e51af2e	0.20476982
62	0xbe82e964	-0.25568688
63	0x3dab2d70	0.08358276
64	0xbe74b0e4	-0.23895603
65	0xbb076002	-0.002065659
66	0x3e106c50	0.14103818
67	0xbe8f2293	-0.27956066
68	0x3d34254f	0.043980893
69	0x3bd87baa	0.006606539
70	0x3d13956b	0.036031168
71	0xbd6d2b5a	-0.05790267
72	0xbe954511	-0.29154256
73	0x3e8431e4	0.25819314
74	0xbd23de86	-0.040007137
75	0xbcbf9177	-0.023384793
76	0xbd09f7a4	-0.033683434
77	0xbe0bd3aa	-0.13654962
78	0xbee2ec55	-0.44320932
79	0xbdc8e5ff	-0.09809493
80	0x3e0e48b7	0.13894926
81	0x3e52cc5e	0.20585772
82	0x3e8a8fd2	0.2706285
83	0xbda69858	-0.08134526
84	0xbddd2f64	-0.10800055
85	0xbe783eff	-0.24242781
86	0x3e84597f	0.2584953
87	0xbeb0a930	-0.3450408
88	0xbdf0f1c6	-0.117648646
89	0xbe021b2f	-0.12705682
90	0x3e221da1	0.15831615
91	0xbd04afd8	-0.03239426
92	0xbec9a4ab	-0.39383444
93	0x3d3dbf6e	0.04632514
94	0x3db4a0d2	0.088197365
95	0x3da10178	0.07861608
96	0xbe252bfa	-0.16130057
97	0xbe2638f4	-0.16232663
98	0xbe308c4a	-0.17241016
99	0xbd4d7732	-0.0501625
100	0x3e56d1dd	0.20978494
101	0x3eca761e	0.3954324
102	0x3e8db43c	0.2767657
103	0x3e00d543	0.12581353
104	0xbe55bba4	-0.2087236
105	0xbe2d7f61	-0.16943122
106	0xbe09cd44	-0.13457209
107	0xbead29fd	-0.33821097
108	0xbdae4948	-0.08510071
109	0x3dc4fbac	0.09618315
110	0x3d2c6458	0.042087883
111	0x3d48489d	0.048897374
112	0xbeee417c	-0.46534336
113	0xbde4fbba	-0.111808255
114	0x3e128a91	0.14310671
115	0x3d5dec2c	0.05418031
116	0xbe1d6a26	-0.15372524
117	0xbe7d86ee	-0.24758503
118	0x3e8191cf	0.25306556
119	0xbe33bf85	-0.17553528
120	0x3d5826b3	0.05277128
121	0xbfefa42c	-1.8721976
122	0xbe28db6c	-0.16489953
123	0x3e3390aa	0.17535654
124	0xbd934306	-0.07190518
125	0xbe8cde62	-0.27513415
126	0x3f0d50e2	0.5520154
127	0xbe772ae0	-0.2413745
128	0x3ea27656	0.31730908
129	0xbeab8e90	-0.33507204
130	0xbf0603a1	-0.5234929
131	0xbe98297b	-0.29719147
132	0xbfc3e456	-1.5304058
133	0x3e36e011	0.17858912
134	0x3e1dd845	0.15414532
135	0xbea335e2	-0.31877047
136	0xbc0e551d	-0.008687285
137	0x3df4acac	0.11946997
138	0xbf209748	-0.62730837
139	0x3ebbb36b	0.36660323
140	0x3e1d8081	0.15381052
141	0xbf6b365d	-0.91879827
142	0xbf68b3a2	-0.908991
143	0x3f33c863	0.7022764
144	0xbf4e1485	-0.8050006
145	0xbfa61b55	-1.2977091
146	0x3eab3717	0.33440468
147	0xbe94f24f	-0.29091117
148	0xbf8b78e7	-1.0896271
149	0xbee49deb	-0.44651732
150	0xbf0d889c	-0.55286574
151	0xbfc6f8cb	-1.5544676
152	0xbe1023ea	-0.140762
153	0x3ebf607d	0.37378302
154	0xbd037e38	-0.032102793
155	0xbd7c84be	-0.06165003
156	0x3e27d776	0.16390786
157	0x3cdf877f	0.02728629
158	0xbf187c05	-0.5956424
159	0x3f41ce61	0.75705534
160	0x3dd9854d	0.10621128
161	0xbf6993bc	-0.9124105
162	0x3b3b16a6	0.0028547435
163	0xbf45671e	-0.7711047
164	0xbb8c22f5	-0.004276628
165	0xbecca4f6	-0.39969605
166	0x3ea87d25	0.32907978
167	0x3ec09238	0.37611556
168	0xbe580fea	-0.2109982
169	0xbe272de1	-0.16326095
170	0x3e809f9e	0.25121778
171	0x3e499923	0.19687323
172	0xbef1c687	-0.47221777
173	0xbe959fb3	-0.29223403
174	0xbdde653d	-0.108591534
175	0x3dc07a83	0.09398367
176	0x3db24f77	0.08706563
177	0x3e5858d8	0.21127641
178	0x3e422b7b	0.18961899
179	0x3d1722aa	0.036898293
180	0xbe7b7157	-0.24554954
181	0xbfb33e80	-1.4003448
182	0x3e4254b8	0.1897763
183	0xbdb5dc11	-0.08879865
184	0xbdd8757c	-0.10569283
185	0x3d62e63e	0.055395357
186	0x3d9398f9	0.072069116
187	0xbd0b1f8a	-0.033965625
188	0x3e81169e	0.25212568
189	0xbcbf285c	-0.023334675
190	0xbf0c579d	-0.5482119
191	0xbc971218	-0.018441245
192	0x3e980508	0.2969134
193	0x3c9d70a0	0.019218743
194	0xbe27d982	-0.16391566
195	0xbd02ffec	-0.031982347
196	0xbe2b690c	-0.16739291
197	0x3ba8607b	0.0051384545
198	0xbe540cdb	-0.20708029
199	0xbf0faa81	-0.56119543
200	0xbe641cf1	-0.22276665
201	0xbf649882	-0.8929521
202	0xbe25d0b1	-0.1619289
203	0xbe86a507	-0.2629778
204	0x3e79e70b	0.24404542
205	0xbd766ce1	-0.06016243
206	0x3d73254c	0.05936174
207	0x3ed1dd86	0.4098932
208	0xbe2d3983	-0.1691647
209	0xbd809e8e	-0.06280242
210	0x3dfd82d2	0.123784676
211	0xbe2ea189	-0.17053808
212	0xbe8fa413	-0.28054866
213	0x3ce2625a	0.027634788
214	0x3d2c35f9	0.04204366
215	0xbecf7be8	-0.4052422
216	0xbe812e64	-0.25230706
217	0x3e48e344	0.19617945
218	0x3e7917ef	0.24325536
219	0xbc6e2d78	-0.014537208
220	0xbd354905	-0.04425909
221	0xbfac19c5	-1.3445364
222	0xbeab9191	-0.33509496
223	0xbe38c654	-0.18044406
224	0x3ed71736	0.42009896
225	0xbf0d35ac	-0.5516002
226	0xbe81cd62	-0.25352007
227	0x3ef5a9be	0.47981066
228	0xba66f257	-0.0008809915
229	0xbdb36d4d	-0.08761082
230	0xbe6982bd	-0.22803779
231	0xbdbe2db0	-0.09286058
232	0x3cdaf9c7	0.026730431
233	0x3e052f3e	0.13006303
234	0xbde75baa	-0.112967804
235	0xbeaf5365	-0.34243312
236	0x3e353a5e	0.17698047
237	0x3e39557b	0.18099014
238	0xbe827d78	-0.2548635
239	0xbe47dfa6	-0.19518909
240	0xbace246e	-0.001572741
241	0xbfb70c7b	-1.4300684
242	0xbe9ca64f	-0.30595633
243	0x3e66df9c	0.22546238
244	0xbdce6949	-0.10078675
245	0xbf5a96c9	-0.8538633
246	0x3e4f503d	0.20245452
247	0x3e666ad3	0.22501688
248	0xbee6079e	-0.44927686
249	0x3e33f5bb	0.17574207
250	0xbe61d3da	-0.22053471
251	0x3d97fce3	0.07421281
252	0xbe09e1e9	-0.13465084
253	0x3e6f4f9a	0.2337021
254	0xbee27127	-0.44226953
255	0xbe4d155b	-0.20027678

fc1.bias f4 [32]
0	0xbdbc806f	-0.09204184
1	0xbe509dc7	-0.20372687
2	0xbdcba43c	-0.099434346
3	0xbdcaf1c7	-0.099093966
4	0xbe70c5de	-0.2351298
5	0xbe43bc29	-0.19114746
6	0xbe240f6c	-0.16021508
7	0xbe1779f8	-0.14792621
8	0xbdbe9c4b	-0.09307154
9	0xbe88d30a	-0.2672351
10	0xbe1abe38	-0.15111625
11	0xbea2c478	-0.3179052
12	0xbe3a05a2	-0.18166211
13	0xbe7e0bf4	-0.24809247
14	0xbddf3a6b	-0.10899814
15	0xbe5ef404	-0.21772772
16	0xbe284b0c	-0.16434878
17	0xbd9445ee	-0.072399005
18	0xbe1ab7f7	-0.1510924
19	0xbe196151	-0.1497853
20	0xbe98233b	-0.2971438
21	0xbe3e800b	-0.18603532
22	0xbe335a21	-0.1751485
23	0xbe779aba	-0.24180117
24	0xbe4f11d2	-0.20221642
25	0xbe1d795f	-0.1537833
26	0xbe0bacc5	-0.13640125
27	0xbf18bb01	-0.59660345
28	0xbe6fa642	-0.23403266
29	0xbe17e5e7	-0.14833795
30	0xbe291378	-0.16511333
31	0xbe346880	-0.17617989

fc2.weight f4 [32, 32]
0	0xbe916bd8	-0.2840259
1	0x3e81ca60	0.25349712
2	0x3e5ae255	0.21375401
3	0xbe62749f	-0.221148
4	0x3e221ec6	0.15832052
5	0x3e6b6255	0.2298673
6	0xbf0f40c4	-0.559582
7	0x3e2007ec	0.15628022
8	0x3e586fcb	0.21136396
9	0xbe94c764	-0.29058373
10	0xbe92e39d	-0.2868928
11	0xbea67fde	-0.3251943
12	0xbe4a5495	-0.19758828
13	0x3e4221ab	0.18958156
14	0xbeb8fe38	-0.36131454
15	0xbea548cc	-0.32282102
16	0xbe9ac679	-0.30229548
17	0xbe9271df	-0.28602502
18	0x3dee3f96	0.11633222
19	0xbe4a8815	-0.19778474
20	0x3e88e841	0.26739696
21	0x3e3d4092	0.18481663
22	0xbf06cc2c	-0.5265529
23	0x3eb7bef6	0.3588788
24	0x3e7ee84c	0.24893302
25	0x3e83702a	0.25671512
26	0xbe9987b5	-0.2998635
27	0x3ed038d2	0.4066835
28	0xbe3fd854	-0.18734866
29	0xbe59d69e	-0.21273276
30	0xbeee73d2	-0.4657274
31	0x3e4dbe29	0.20092072
32	0xbea6bb6e	-0.32564873
33	0x3e3c1ce1	0.18370391
34	0x3e439f2d	0.1910369
35	0xbecff924	-0.40619767
36	0x3d8f1f3e	0.06988381
37	0x3e5ed607	0.21761332
38	0xbea106a3	-0.31450376
39	0x3dff904a	0.12478693
40	0x3db9347f	0.09043216
41	0xbef3c1c2	-0.47608763
42	0xbed49858	-0.4152248
43	0xbeaee352	-0.34157807
44	0xbeb9d988	-0.36298776
45	0x3e9e04da	0.30863076
46	0xbeb15056	-0.34631604
47	0xbeb11e1e	-0.3459329
48	0xbebbacb3	-0.36655197
49	0xbefa4bac	-0.48885858
50	0x3e5202b6	0.20508847
51	0xbea703aa	-0.32619983
52	0x3e8508e7	0.25983354
53	0x3e5d38ad	0.21603651
54	0xbe9d3574	-0.30704844
55	0x3e97115e	0.29505438
56	0x3e619c2b	0.2203223
57	0x3e53d5cc	0.20687026
58	0xbf0acb48	-0.5421643
59	0x3e9e2788	0.30889535
60	0xbd4c7268	-0.049913794
61	0xbea8abc0	-0.32943535
62	0xbe199664	-0.14998776
63	0x3e1f3fc6	0.15551671
64	0x3d6b689a	0.057472803
65	0xbf8f66d1	-1.1203252
66	0xbf16b3f9	-0.58868366
67	0xbb1b9d56	-0.0023744903
68	0xbedc8453	-0.43069705
69	0xbf56e0a2	-0.8393651
70	0x3dede46c	0.11615834
71	0xbf3be5e4	-0.7339766
72	0xbf1c311f	-0.6101245
73	0x3e0c3574	0.13692266
74	0x3d809aad	0.06279502
75	0x3e501408	0.20320141
76	0x3e3954ce	0.18098757
77	0xbf562ede	-0.83665264
78	0x3d46416c	0.048402235
79	0x3e17d664	0.14827877
80	0x3d9f0cf3	0.07766142
81	0x3ce76ec9	0.028251069
82	0xbf3807b0	-0.7188673
83	0x3d99cacb	0.07509383
84	0xbef4d12c	-0.47815835
85	0xbf33a2b3	-0.70170134
86	0x3dc76046	0.097351596
87	0xbf7e0806	-0.9923099
88	0xbf1125af	-0.56698126
89	0xbf185444	-0.5950358
90	0x3dfc9f14	0.12335029
91	0xbf3a921a	-0.72879183
92	0x3e2534b5	0.16133387
93	0x3e0a6146	0.1351367
94	0x3dc14837	0.09437602
95	0xbee0813e	-0.43848604
96	0xbef7d963	-0.4840804
97	0x3e8e8a1c	0.27839744
98	0x3db1ec6e	0.086876735
99	0xbf16e919	-0.5894943
100	0x3e0b8439	0.13624658
101	0x3ebb620f	0.3659825
102	0xbee0f71f	-0.43938538
103	0x3dc99938	0.09843677
104	0x3d675837	0.056480613
105	0xbeedeb90	-0.46468782
106	0xbe92e858	-0.2869289
107	0xbdc33b77	-0.095328264
108	0xbe77dd28	-0.24205458
109	0x3e881862	0.26581103
110	0xbe8e2d25	-0.27768818
111	0xbed70faa	-0.42004138
112	0xbebd8b27	-0.37020227
113	0xbeeb83cd	-0.45998994
114	0x3dbfa1b8	0.09357017
115	0xbed5b812	-0.41741997
116	0x3e703566	0.2345787
117	0x3e13e3cf	0.14442371
118	0xbecd7945	-0.40131584
119	0x3eacdef8	0.33763862
120	0x3e0d8eb0	0.13823962
121	0x3e55878c	0.20852488
122	0xbec17f87	-0.37792608
123	0x3f1012b6	0.5627855
124	0xbe84085e	-0.25787634
125	0xbeb59f30	-0.35473013
126	0xbec91473	-0.39273414
127	0x3e2d31c5	0.16913517
128	0xbef5b01d	-0.47985926
129	0x3e14ef6f	0.14544462
130	0x3d8f4a19	0.06996555
131	0xbf502ef6	-0.81321657
132	0x3d907dc3	0.07055237
133	0x3e23e993	0.1600707
134	0xbe489828	-0.19589293
135	0x3db1e1a2	0.08685614
136	0x3e159deb	0.14611022
137	0xbedc199e	-0.42988294
138	0xbf39ce68	-0.72580576
139	0xbea381de	-0.31935018
140	0xbecb5271	-0.39711335
141	0x3e580077	0.21093927
142	0xbf25c80d	-0.6475838
143	0xbf0382d3	-0.51371497
144	0xbe83f490	-0.25772524
145	0xbf5f4511	-0.8721476
146	0x3e08ab1c	0.13346523
147	0xbed3d0a5	-0.4137012
148	0x3e247e93	0.16063909
149	0x3d85acb5	0.06527082
150	0xbe9afa62	-0.30269152
151	0x3dbc6a72	0.0919999
152	0x3e0d1dda	0.13780919
153	0x3d42e083	0.047577392
154	0xbf476c74	-0.7789986
155	0x3e820bdd	0.25399676
156	0xbefd3256	-0.49452466
157	0xbeeb3d1e	-0.45945066
158	0xbef76299	-0.48317412
159	0x3d93a6a0	0.072095156
160	0xbeb84dfa	-0.3599699
161	0x3e89cb24	0.26912796
162	0x3e144b16	0.14481768
163	0xbe1cae70	-0.15300918
164	0x3e689bc0	0.22715664
165	0x3ec2dfc4	0.38061345
166	0xbede64d3	-0.43436298
167	0x3e345423	0.1761022
168	0x3e02fb47	0.12791167
169	0xbeb107b3	-0.34576187
170	0xbe2f5bf8	-0.17124927
171	0xbf103e84	-0.5634539
172	0xbe093476	-0.13398919
173	0x3e8129f8	0.25227332
174	0xbe2ca1de	-0.16858622
175	0xbf0f227c	-0.55911994
176	0xbe72dcaf	-0.23716997
177	0xbea8f851	-0.3300195
178	0x3dd46b71	0.10372055
179	0xbef4224f	-0.47682425
180	0x3e5581ad	0.20850249
181	0x3e695e2b	0.22789828
182	0xbe7ad1b0	-0.24494052
183	0x3eb12318	0.34597087
184	0x3db6478e	0.08900367
185	0x3e188070	0.14892745
186	0xbee6470d	-0.44976082
187	0x3edd45ba	0.4321726
188	0xbede258b	-0.43388018
189	0xbe28f9c6	-0.16501531
190	0xbe785532	-0.2425125
191	0x3ea9218a	0.330334
192	0x3d6d69a7	0.057962086
193	0xbf162025	-0.586428
194	0xbee4e50d	-0.44706002
195	0x3e028027	0.12744199
196	0xbf222fe8	-0.6335435
197	0xbee7b516	-0.45255345
198	0x3e15b177	0.14618479
199	0xbf3c0e53	-0.7345936
200	0xbf3e632e	-0.74370086
201	0x3e29e0be	0.16589639
202	0x3d17643f	0.036960836
203	0x3e439200	0.19098663
204	0x3d9c1663	0.076214574
205	0xbf6d3a75	-0.92667323
206	0x3e3da4fb	0.18519966
207	0x3e3d5232	0.18488386
208	0x3e06f5ea	0.13179746
209	0xbc01d2ef	-0.007923826
210	0xbee62beb	-0.44955382
211	0x3e00cd3a	0.12578288
212	0xbf1c35d1	-0.6101962
213	0xbf17fcb6	-0.5936998
214	0x3d1e0676	0.03858038
215	0xbf2b341e	-0.668764
216	0xbec09231	-0.37611535
217	0xbf2dbf1c	-0.67869735
218	0x3e5e98ae	0.2173793
219	0xbf11d0af	-0.5695905
220	0x3deebf0f	0.11657535
221	0x3d0793b3	0.03309984
222	0x3d805c2f	0.062675826
223	0xbf23011d	-0.63673574
224	0xbf1c2235	-0.60989696
225	0x3e04f453	0.12983827
226	0x3d1d41ef	0.038392957
227	0xbed0c8ef	-0.407783
228	0x3debe1ea	0.11517699
229	0x3dbac864	0.09120253
230	0xbf0c5b5f	-0.5482692
231	0x3cfff83b	0.031246295
232	0x3d8a1156	0.06741588
233	0xbf1a1990	-0.60195255
234	0xbedafd43	-0.42771348
235	0xbecf3d41	-0.4047642
236	0xbf2f3e24	-0.68454194
237	0x3d01fbb8	0.0317342
238	0xbf534135	-0.82521373
239	0xbf1f0a46	-0.6212505
240	0xbef3bc41	-0.47604564
241	0xbeed8365	-0.4638931
242	0x3dd38390	0.10327828
243	0xbf145762	-0.57945836
244	0x3dc0cf8e	0.09414588
245	0x3cbd13cc	0.023080729
246	0xbf1ea9ea	-0.6197802
247	0x3e2488d1	0.16067816
248	0x3d5d44be	0.054020636
249	0x3d8b9ee1	0.06817413
250	0xbeeae82a	-0.45880252
251	0x3dd052e1	0.10172058
252	0xbead357e	-0.33829874
253	0xbec1ba85	-0.37837616
254	0xbefca3fc	-0.4934386
255	0x3e229013	0.15875272

fc2.bias f4 [32]
0	0x3eac2781	0.3362389
1	0x3e8b07f6	0.2715451
2	0x3e7297a9	0.23690666
3	0x3eb15636	0.34636086
4	0x3e7dfaf9	0.2480277
5	0x3e99d727	0.3004696
6	0x3e7f8e53	0.24956636
7	0x3e629398	0.22126615
8	0x3e9335fa	0.28752118
9	0x3e53c797	0.20681606
10	0x3ea06581	0.3132744
11	0x3eaaee22	0.33384806
12	0x3e89d53a	0.2692049
13	0x3ea1c5c6	0.31596202
14	0x3e848c7b	0.25888428
15	0x3e92959b	0.28629765
16	0x3e9dd081	0.30823138
17	0x3e77a530	0.24184108
18	0x3e881b30	0.26583242
19	0x3e7d027e	0.24707982
20	0x3e8b2ebd	0.27184096
21	0x3e7ff71d	0.2499661
22	0x3e8480a2	0.2587939
23	0x3e891a32	0.26777798
24	0x3e9f9ce0	0.31174374
25	0x3e8d0af6	0.27547425
26	0x3e8cc46a	0.27493602
27	0x3e9da2e6	0.30788344
28	0x3e96d9a7	0.2946293
29	0x3e84cc4d	0.2593712
30	0x3e88d3b3	0.26724014
31	0x3e899557	0.2687175

fc3.weight f4 [1, 32]
0	0xbe2b64ac	-0.16737622
1	0xbe265c49	-0.16246141
2	0x3dfc8c45	0.12331442
3	0xbe3c5935	-0.18393405
4	0xbe634d57	-0.22197472
5	0xbe3ecd7b	-0.18633072
6	0x3e044238	0.12915885
7	0xbe802c43	-0.2503377
8	0xbe488606	-0.19582376
9	0xbea39c8a	-0.31955367
10	0x3e067cf4	0.13133603
11	0xbe203d23	-0.15648322
12	0xbe179ee3	-0.14806704
13	0xbe692012	-0.2276614
14	0x3de0ce9f	0.1097691
15	0xbe232f6e	-0.15936062
16	0x3e02c267	0.12769471
17	0x3de1041d	0.10987113
18	0xbe1d64bc	-0.15370458
19	0x3e06ccb5	0.13164027
20	0x3e0806f3	0.13283901
21	0x3dc82afb	0.09773823
22	0x3e009e61	0.12560417
23	0xbe186702	-0.14883044
24	0x3df6d931	0.12053145
25	0x3da2da8a	0.07951839
26	0x3ddcf2e2	0.10788514
27	0xbe286d1b	-0.1644787
28	0xbe4ac488	-0.19801533
29	0x3e0fc92a	0.14041582
30	0x3de63f63	0.11242559
31	0x3ddcf495	0.10788838
