model/cross_validation/hp_nested_cv/checkpoint/c000_c001_32_16_0.0001_32_0.1.pt (torch, 57943 bytes, 5 tensors)

fc1.weight f4 [32, 420]
00000000: 9429 9d3d 983e 24bd 05dd ce3d 4d68 413b
00000010: 207a 02bd 55c9 d23c 5c3e 873d 5cd7 243d
00000020: ae17 c23b be7e 98bc 0280 a1bd 1428 aebd
00000030: 5a53 52bd 67e4 79bc d65c 053c ddb5 5abd
00000040: b0f0 09bd 9107 b4bb 7567 90bd 59fb 9ebd
00000050: 2bce a0bc 72d5 fcbc 16c8 5f3c b3b3 d83b
00000060: f85c 12bd 7a23 8cbc 5e0e 0d3d 5a84 6d3c
00000070: 067e bc3c 5b3b b43c 5723 b3bc 46ff 23bc
00000080: e089 8bbc a8c9 bfba 6de4 79bc d8b3 963c
00000090: 6b70 8dbc 1c5c 133c 1823 0abe 801b 133d
000000a0: eb18 1dbb e84b 48bd 2193 243c 5fb8 36bd
000000b0: 48bc 083c 9bce 4fbd 74ad 663c 701f 6e3d
000000c0: 4dcd 2a3c 074c 2ebb 5cce 3b3b d339 08bc
000000d0: 51d6 60ba 24b0 813a b8d6 53bb faed 533b
000000e0: c392 503c f349 333c 1736 283d 78a5 cebc
000000f0: 91fa 36bd 4e68 25bc 8cc0 d4bc 8015 67bc
00000100: 4435 053c 50b2 383c 552b d1bc 58a6 3a3c
00000110: df59 70bc ec6a 30ba 0dff b43c bdc7 37bd
00000120: 934d a53d 7106 62bd 776f b6bc af9d 23bd
00000130: c7b7 fd3a a614 d1bc ee36 0e3d 25b1 743d
00000140: 9646 4bbc ad05 92bd 0c8a 1cbd fbbe febc
00000150: 00c4 d53b 2e47 353c 23d3 063d 83ea 163d
00000160: 3db7 fbbc bb3c 173d 3bdd 54bd 5018 78bc
00000170: 810d 593d 6ce8 01bd 4774 6abc 563a abbd
00000180: 8fca ea3c be0b 82bc 8a7a a23d effb 4abd
00000190: 78a3 6cbd 3830 61bd 53fb 85bd a749 35bc
000001a0: 6720 ca3c 4d5b d53c 6d2b dc3c 0dab d63c
000001b0: 06df 733c e776 c4bc 56ef d4bb ea6a 63bd
000001c0: 505f 0a3e 6cff 56bc ac4e 10bd 9776 98bd
000001d0: 9450 373c f0bc 103d b370 1bbd e7ff 14bc
000001e0: 1b29 4bbd 5fd5 e63e 79dd 34bc d6c4 20bd
000001f0: fcf9 e83c 1561 96bd 2323 83bd cff9 87bc
00000200: 30cd 0abe a039 8a3d 36c9 993d 0581 323d
00000210: 0399 683e 2082 5c3d 6a74 dfbd a88d acbc
00000220: e6ab 2ebd 3b9e 8bb8 dc03 4a3e 9d97 043c
00000230: 7faf 5bbd 4708 a83e 4a4b 9a3d 9b8f f2bd
00000240: 6b7a 3c3d 7e61 433d 4a1e 0abe b7a8 8f3d
00000250: b72b 2e3e f2f9 6f3d c2c4 b43d 37c0 363e
00000260: 157a 08be 8959 34bd 760a aebe db9e 103d
00000270: 3b94 6a3d 3452 a33d 8492 2a3e 2b5d 0dbe
00000280: ca4e 3abd 8541 4e3e 573d 6bbe 9a82 453d
00000290: 8229 c03d df2f 1d3b 666f 11be 2691 aabc
000002a0: 517b abbc 85fc b43d 7877 513d f2a4 3bbb
000002b0: 489d 53be 1719 ec3c 8853 07be 08fc 1fbd
000002c0: 835c c3bc ad6f 40bb 7bfc 9f3d a16e 723d
000002d0: fb52 213c 1553 c23e c8f6 d3bd 7dbc 12be
000002e0: 45d8 fd3d 12e0 b8bd 9df8 00be f34a 193d
000002f0: 3a1d c1bd 96e7 893d bb94 cf3d 9f27 93bb
00000300: 73a4 27be d2d4 fd3c 51ed e9bd a6a7 b73c
00000310: c5be 5c3c 0bf3 b93d 2076 0e3e ba9d fa3d
00000320: 1fba 773d d75d 7f3e 53bb c7bd 6104 c1bd
00000330: 27e7 c43c 3509 94bd 7a47 d3bd 6d0b 283d
00000340: e972 9fbe 0cec ad3d 0c8c 0d3e 5af0 a0bc
00000350: 0b59 f9bc ab8e 19bd 3fe4 6dbe 253b 123d
00000360: 8aa6 e53c 27b9 703d 52ac 193d 0fdf cc3d
00000370: e361 783d 1e2c 2b3e 0c73 d6bc 28f1 aabc
00000380: 67df a23c 3b0e 87bc a94e 8fbd ad0b 6abd
00000390: 9606 13be 4689 973c 1e2b e03d 4f93 343d
000003a0: 0a1c 04be 7fc4 8c3c b0ce e3bd 4704 bdbc
000003b0: ce3c 88bc ad24 0dbd 9b1a 2c3e 3960 e83d
000003c0: cad3 4e3d 00fa 0d3e 51ad 43bb f17a c7bc
000003d0: 08c0 0b3d 8cb3 ba3d f3ef 56be dd1c d4bc
000003e0: 9c6c 55bd aace 5bbc aeb1 873d b329 8dbc
000003f0: 7999 5abd 24c2 2abd c40a 8abd 56be b33b
0.07673946 -0.040098757 0.1010075 0.002951163 -0.03185475 0.025730768 0.06603691 0.040244445
0.005923233 -0.018615123 -0.07885744 -0.08503738 -0.05134902 -0.015252209 0.00813981 -0.053396095
-0.033676803 -0.005494066 -0.07050983 -0.077627845 -0.019629559 -0.030863497 0.013658544 0.0066132187
-0.035733193 -0.01710676 0.03443753 0.014496887 0.023009311 0.02200096 -0.021867437 -0.010009592
-0.017033517 -0.0014632242 -0.015252215 0.018396303 -0.01726552 0.008994129 -0.1348995 0.035914898
-0.002397115 -0.048900515 0.010044844 -0.044609424 0.008345671 -0.050734144 0.01407944 0.05813545
0.010424924 -0.0026595609 0.0028656935 -0.008314568 -0.00085768575 0.0009894413 -0.0032324027 0.003233789
0.012730303 0.010942924 0.04106721 -0.025225386 -0.044672552 -0.010095669 -0.02597072 -0.014104247
0.008130375 0.011272982 -0.025533358 0.0113921985 -0.014669864 -0.00067298 0.022094274 -0.04486822
0.08071437 -0.055181924 -0.022269947 -0.0399453 0.0019357138 -0.025522541 0.034720354 0.05973925
-0.012406966 -0.07129989 -0.03821759 -0.031096926 0.006523609 0.011064334 0.0329162 0.03684474
-0.030727023 0.03692315 -0.051968794 -0.015142515 0.052991394 -0.031715795 -0.014309949 -0.08360736
0.02866104 -0.01587474 0.07933529 -0.04955667 -0.057773083 -0.054977626 -0.06542077 -0.011064923
0.024673654 0.026044512 0.026876176 0.02620461 0.014884716 -0.023982478 -0.0064982576 -0.055521883
0.13512921 -0.013122421 -0.035231277 -0.07444494 0.011188645 0.035336435 -0.037949275 -0.009094215
-0.049599748 0.45084664 -0.011039131 -0.039250217 0.028439514 -0.07342736 -0.06403186 -0.01659861
-0.13554835 0.06749272 0.07509081 0.043580074 0.2271462 0.053835034 -0.10910876 -0.02106364
-0.042644404 -6.657509e-05 0.19728035 0.008092788 -0.053634163 0.32818815 0.075338915 -0.11843797
0.046015184 0.047700398 -0.13488117 0.07014602 0.17008863 0.058587976 0.08826591 0.17846762
-0.1332782 -0.0440307 -0.33992356 0.035307746 0.05727027 0.079746634 0.16657454 -0.13805072
-0.045485295 0.20142181 -0.22972618 0.048220254 0.09382917 0.0023984832 -0.14202651 -0.020821165
-0.020932825 0.08837227 0.051139325 -0.002863225 -0.20665467 0.028820558 -0.13215458 -0.039058715
-0.023847824 -0.002936344 0.07811829 0.059187535 0.009846444 0.37954012 -0.10349804 -0.14329715
0.12394766 -0.09027113 -0.12594838 0.037424993 -0.09429403 0.06733625 0.1013579 -0.004490807
-0.16371326 0.03098527 -0.11422218 0.022418808 0.013473217 0.0907956 0.13912249 0.12237115
0.060480233 0.24938141 -0.09752526 -0.09424663 0.024036003 -0.072283186 -0.103163674 0.04102652
-0.31142357 0.08492288 0.13822955 -0.019645859 -0.030437967 -0.037489574 -0.232316 0.035700936
0.028033514 0.058770325 0.037517853 0.100034826 0.060640227 0.16716048 -0.026177905 -0.020866945
0.019881917 -0.016486278 -0.06997425 -0.05714004 -0.14357981 0.018498074 0.10945724 0.044085797
-0.12901321 0.01718354 -0.11123407 -0.023073329 -0.016630556 -0.034458805 0.16807024 0.11346478
0.050494947 0.13864899 -0.0029857943 -0.024350615 0.034118682 0.09116277 -0.20989971 -0.02589267
-0.05210553 -0.013415972 0.066256866 -0.017231798 -0.05336902 -0.041689053 -0.06740335 0.0054853363

fc1.bias f4 [32]
00000000: efb0 603d 64b7 d8bd 9a54 a4bd cace 1bbd
00000010: 76e8 05bd 1956 cbbd d6fd f83c 6ac3 49bb
00000020: 78f2 0ebd 1d47 d63a 8aae 15bd a63a 90bb
00000030: 2745 a0bd 80a6 9fbd 0729 d6bd 5b74 13be
00000040: abeb f3bd 66c7 92bd 0ecd 77bc 99d6 a83b
00000050: 9469 01be 1c0e 73bd 03ac bcbc 05bb b23c
00000060: 47c8 47bd 05d5 9fbd 954e ad3c 5b9a b93b
00000070: 9725 96bc c5d9 fabd 2c9d 00bc 3bfb c5bd
0.054856237 -0.10581854 -0.08023949 -0.038039006 -0.032692395 -0.09928531 0.030394476 -0.0030786642
-0.034899205 0.0016348098 -0.036543407 -0.0044015227 -0.0782569 -0.07795429 -0.10457044 -0.14399855
-0.119101845 -0.071669385 -0.015124572 0.005152535 -0.12637931 -0.059339628 -0.02303124 0.021817693
-0.048774984 -0.07804302 0.021155635 0.0056641526 -0.018328471 -0.122485675 -0.007849973 -0.09667059

fc2.weight f4 [16, 32]
00000000: 639c 2d3e bafa ccbe 0336 b9be 5d69 463e
00000010: 002c 803e 8e9d 03bf 6e65 6a3e bcba 5b3e
00000020: ab1b 743e 5bed 663e d45c 9a3e 62a2 1c3e
00000030: ed35 cdbe 5337 c3be ebd9 c6be 1ce7 03bf
00000040: 0a0a c5be 437b d63e f8c0 223e dee3 883e
00000050: d1c7 07bf 4521 d6be 612b a23e b43b 063e
00000060: c511 343e fd31 b0be d226 573e 3c26 583e
00000070: 5bbe 753e faf5 c93e 50c7 753e 2f62 9b3e
00000080: c4af 313e c5be 09bf b062 fabe b097 793e
00000090: 15af 5e3e 0957 18bf f7c2 163e 7f83 893e
000000a0: 5ca3 7f3e 1383 663e 2294 843e 35bc 143e
000000b0: c052 e7be 8ee7 06bf fba3 02bf b929 04bf
000000c0: a8a8 edbe c501 f83e d7a6 253e 9227 773e
000000d0: 7c83 19bf b120 13bf 9522 993e 2109 393e
000000e0: 7c02 423e cf39 c3be cd40 443e 0c38 453e
000000f0: 4e2e 6a3e 5129 f03e c4e5 7d3e de8d bc3e
00000100: 38e8 0abf a445 763e 0186 0e3e 49d7 36bf
00000110: f57c e6be ff5d 303e 2572 f1be 2d34 febe
00000120: 127e 1abf 8563 eabe ed6d e1be 2bd3 08bf
00000130: 0427 433e e3dd 673e dbd8 593e 7871 943e
00000140: 1e42 353e bd8b 44bf fd02 2ebf 91ee 09bf
00000150: bc67 8e3e 5d4a 073e 968d 16bf 1b9f f9be
00000160: e920 0ebf 4c90 153e d433 febe 0117 0dbf
00000170: 2646 09bf e108 cbbe c608 ebbe 7675 09bf
00000180: 0194 12bf d3b2 453e 6ef6 033e 1fc7 24bf
00000190: 7aa7 ffbe 8038 133e b964 23bf 6a9d f4be
000001a0: d480 2abf 539f e6be 2b16 c4be a4a0 09bf
000001b0: 27f9 2f3e b019 553e 6b53 3d3e 8a23 963e
000001c0: 0e2f 093e d0d0 33bf c1a7 13bf 5229 22bf
000001d0: a440 5b3e 5beb e03d e125 1fbf 3714 f2be
000001e0: c4df 06bf e46e b23d 7993 06bf 6761 0dbf
000001f0: 1e35 10bf 626e f8be 18af f9be a8f8 0cbf
00000200: 866c 523e 62ec cebe c875 c1be 588e 9e3e
00000210: 6651 9e3e 891a dcbe 3f3f 9b3e dbf0 bb3e
00000220: ec4f b43e dd62 9e3e 2096 a03e e7ec 493e
00000230: 5151 b9be 613b c2be 1f9e c0be 1852 fcbe
00000240: 79cf 83be 59f8 0f3f beeb 833e ea4e 873e
00000250: a1a3 dbbe 7ff6 b3be e93d bc3e a5b8 293e
00000260: 8970 823e a37b a7be c290 8a3e acf1 803e
00000270: 75e4 723e cdcb e93e de69 b53e 6919 b73e
00000280: 86ab 523e 3db6 0cbf da68 d9be d1e0 683e
00000290: 11f9 533e 6546 12bf c2fc 333e 77db 383e
000002a0: 44b2 7c3e e547 4e3e c01d 943e bf8b 143e
000002b0: d6ce ffbe 053b d6be 7404 05bf 2075 06bf
000002c0: 6966 ebbe 9c04 d93e f7fa 413e ca68 523e
000002d0: 2794 13bf fe94 fdbe b11f 903e 0f69 223e
000002e0: 92b3 313e 9cbc debe f6d4 793e 1f48 313e
000002f0: 57db 4c3e 1c71 d63e 9189 753e cf12 803e
00000300: f6b2 25bf e2e1 393e b085 e13d eb2f 1fbf
00000310: 8618 05bf 784f 263e d7a5 02bf 2a73 15bf
00000320: 61a2 04bf 3fe7 07bf 8440 f9be 8d25 0dbf
00000330: 46fc 243e 8c02 393e 8454 113e 19e7 603e
00000340: 395a 123e cbd6 3ebf 3fc7 1ebf de88 12bf
00000350: 74d3 423e 6f3f f33d 36e7 1abf 734a 00bf
00000360: 30f6 10bf b560 a23d be06 04bf d4ad 1dbf
00000370: 6c07 11bf 0dbf ffbe 31e4 febe 906b 0cbf
00000380: 4087 0b3e d093 1fbf 29bf 10bf c4fe 733e
00000390: 98f1 8b3e 8470 3abf 2aed 543e 1d0e 4e3e
000003a0: 0d3a 6b3e 475a 8e3e 62e0 a03e 81a2 423e
000003b0: dc13 28bf 9947 e9be 2ca6 17bf 6733 2fbf
000003c0: 6c9b 09bf 80e4 e33e b364 4e3e fda3 803e
000003d0: acb3 1dbf d1e0 18bf 95ad ae3e 3616 323e
000003e0: 72c2 203e 83b1 06bf 8511 433e 2195 8a3e
000003f0: 280f 8b3e 1ffc 013f d829 a93e e211 a43e
0.16954188 -0.4003504 -0.3617402 0.1937613 0.2503357 -0.51412284 0.22890255 0.21457952
0.2383868 0.22551481 0.30148947 0.15296319 -0.40080205 -0.38128147 -0.38838133 -0.5152452
-0.38484222 0.41890916 0.15893924 0.2673635 -0.5303927 -0.41822258 0.3167372 0.13108712
0.17584904 -0.34413138 0.21010903 0.21108335 0.23998396 0.39445478 0.24001813 0.30348346
0.17352206 -0.53806716 -0.48903418 0.2437427 0.21746476 -0.59507805 0.1472281 0.26858136
0.2496466 0.22510938 0.25894266 0.1452492 -0.4518032 -0.52697074 -0.51031464 -0.51626164
-0.46417737 0.4843885 0.16176926 0.24136189 -0.59966254 -0.5747176 0.29909196 0.18069889
0.1894626 -0.38130042 0.19165345 0.19259661 0.22869226 0.46906522 0.2479468 0.36826986
-0.5426059 0.24050003 0.13918306 -0.7142225 -0.4501721 0.17223357 -0.47157398 -0.49649182
-0.6034862 -0.45779052 -0.4402918 -0.53447217 0.19057852 0.22643237 0.2127413 0.2899282
0.17701003 -0.76775724 -0.6797331 -0.5387965 0.27813518 0.13211961 -0.58809793 -0.487542
-0.55518967 0.14605826 -0.49648917 -0.55113226 -0.53622663 -0.39655212 -0.4590513 -0.53694856
-0.57257086 0.19306497 0.12886974 -0.64366335 -0.49932462 0.14377022 -0.63825566 -0.47776347
-0.66602826 -0.4504343 -0.38298163 -0.53760743 0.17184888 0.2081058 0.18488853 0.2932399
0.13396856 -0.702405 -0.5767785 -0.633443 0.21411377 0.109823905 -0.62167174 -0.47281048
-0.5268519 0.08712557 -0.52568775 -0.5522675 -0.5633105 -0.48521715 -0.48766398 -0.5506692
0.20549211 -0.4041472 -0.37785172 0.30967975 0.30921477 -0.42988995 0.3032169 0.36707196
0.35217226 0.30934802 0.31364536 0.19719277 -0.36194852 -0.37935928 -0.37620637 -0.49281383
-0.25744227 0.56238323 0.25765795 0.26427394 -0.42898276 -0.35149 0.36765984 0.16574343
0.25476483 -0.32711515 0.27063566 0.2518438 0.23719962 0.456633 0.35432333 0.35761574
0.20573243 -0.54965574 -0.42462808 0.2274201 0.2070048 -0.57138664 0.17576888 0.18052469
0.24677378 0.20144613 0.28928947 0.14506434 -0.4996249 -0.41841903 -0.5195992 -0.5252247
-0.4597657 0.4238633 0.18943392 0.20547786 -0.5764794 -0.49527735 0.2814918 0.15860389
0.17353657 -0.43503273 0.24397644 0.17312668 0.20005547 0.4188317 0.23978259 0.2501435
-0.647262 0.18152574 0.11011827 -0.6218249 -0.51990545 0.16241252 -0.510343 -0.5837885
-0.5181027 -0.5308723 -0.48682034 -0.5513542 0.1611186 0.18067378 0.14192396 0.21963157
0.1429223 -0.745465 -0.62022775 -0.5724009 0.19025975 0.118773334 -0.6050905 -0.501136
-0.5662565 0.07928602 -0.5157279 -0.61593366 -0.5665195 -0.49950448 -0.4978347 -0.5485163
0.13625813 -0.6233492 -0.5654169 0.23827654 0.2733276 -0.72827935 0.20793596 0.20122571
0.22971363 0.2780325 0.3142119 0.19007303 -0.65655303 -0.45562437 -0.59237933 -0.6843781
-0.5375278 0.4451027 0.20155601 0.25125113 -0.6160228 -0.5971804 0.34116808 0.17391285
0.15699175 -0.5261461 0.19049652 0.270669 0.2716 0.5077533 0.33039737 0.32044894

fc2.bias f4 [16]
00000000: c492 5f3d c445 8b3d 5878 e63d 8b71 d03d
00000010: 1da4 743d a628 753d 8eb3 ce3d 7147 913d
00000020: 9064 653d 5ba3 e43d ee46 e63d d9cd fe3d
00000030: a30a 8e3d 2d79 863d 77f0 823d 810d e93d
0.054583326 0.06800416 0.112534225 0.101779066 0.059726823 0.05985322 0.10092841 0.070937045
0.056004107 0.1116397 0.112439975 0.12441606 0.069356225 0.06566081 0.06393521 0.11379529

fc3.weight f4 [1, 16]
00000000: 1db3 30bf bfe9 28bf c250 5b3f 9e99 833f
00000010: 155e 0abf 2784 30bf 10dc 843f 39cb 17bf
00000020: 594f 1dbf 50b4 643f 70c7 5f3f 2a1d 333f
00000030: 26ee 08bf 8928 34bf 1cf5 3abf fee6 483f
-0.69023305 -0.6598167 0.856701 1.0281255 -0.5404981 -0.6895165 1.0379658 -0.5929447
-0.614492 0.89337635 0.8741369 0.69966376 -0.53488386 -0.7037435 -0.7303026 0.78477466
