model/cross_validation/hp_nested_cv/checkpoint/c000_c003_64_32_0.001_32_0.3.pt (torch, 118103 bytes, 5 tensors)

fc1.weight f4 [64, 420]
00000000: 15f9 d2bc 8a14 ac3c df18 4c3d 662a cdbc
00000010: 5356 b4bd a6b7 0bbe 6f5b 05be 1f2f 1a3e
00000020: 50c2 76bc 423a bebd b27b 4dbd e3b2 96be
00000030: 6b7a df3d 2b94 493e 34d1 cc3d af8f 66be
00000040: 4e63 193e e09a efbd 7630 b4be 7f85 d23e
00000050: cad2 44be 9446 d03e b2b0 dfbc 1c4c b13d
00000060: f486 3d3d 8632 09be 2f0c 90bd bbf1 e73d
00000070: e692 74be 5331 253d ffdb 4cbd 8470 c6bd
00000080: 4aed 533e d5a0 9cbe 6315 ddbd ac42 163e
00000090: d3ba 713e 8c94 34be 274f dc3b ac6f d4bd
000000a0: 547c 50bc a1de b0bd e082 053c 22dd 8dbe
000000b0: 3ab0 fdbd 460c cc3e 9038 afbd 3f50 29be
000000c0: b48f 163d 0303 78bc bdfc ab3d 1f48 0d3e
000000d0: 1a71 223e 0648 553d 3658 23bd 3b66 fcbd
000000e0: b622 b4be 77ff ae3d be1f 863e 8417 f5bc
000000f0: e0aa 9cbe e616 acbd 083f e83c f8cf dbbe
00000100: 5313 5e3e a20e a93e e6e0 5a3e fa05 2d3e
00000110: f8ce 9b3d 710e 37bd 1bc0 793e 0581 1c3e
00000120: 4f49 2cbe 06f3 303c f58d 91be e227 8cbd
00000130: 7df9 07bd ef04 bcbc 242e 973d d989 43be
00000140: e0c0 b2bd bf5f 5abe 17a5 f2bd f7ce c4be
00000150: 78f1 f43d 5a98 91bd 913d 0cbe 7563 2d3e
00000160: dab3 a6bb 99d1 5c3d ef15 a13c 65b3 d7bd
00000170: 1e9e 7a3e 6d1d 143e 0828 bebe c391 c2bd
00000180: b19b 59be c28a c93d baeb e53e 378d 2e3e
00000190: cdfa ac3d 4c48 163e 922d 50be d75c 1ebe
000001a0: f919 d8bd e448 303d 5e4f 18bd a04d da3e
000001b0: 78e1 e9bd b0ff 8c3d 2390 92bd 61ab 953d
000001c0: 1d02 d53d f0f7 98ba 2987 6ebe 9265 a1bd
000001d0: 3d5c c4bd d6b8 9a3d 8046 13be 6c82 d6be
000001e0: 3858 b7be feac d73f 574f 3cbf 2b7d 7c3e
000001f0: ef32 f73d 2390 4bbe d440 b2be 7132 d03e
00000200: 90f0 73be acb6 033f 918f fabc aa6b 17be
00000210: 5ff9 debd da51 333e a4d9 08bf 88a3 92be
00000220: 1813 4e3e 693b b4bd 8bc0 6a3f 66c0 553e
00000230: 88c8 77be d4ca 983f cfee b53e 39c9 2abf
00000240: 9025 783f 826b 46be 88e6 27bf 1e68 863e
00000250: 8573 ae3e 4fbb 92be a7bb 8f3e 8423 133f
00000260: 8098 e3bf 1485 a2be c095 19bf 24a4 a03d
00000270: afcb 5b3e 8b4b 603e 94bc d03f 459e b53e
00000280: 1876 ad3e 1e05 523f d918 c2bf a759 13bf
00000290: 3ac4 053f 7357 a6be 93ba 1cbe 0823 a2bd
000002a0: 6afb aa3d bf9c 1f3e 12d6 2a3e 423f ae3d
000002b0: 562e 13bf e2e3 b93c fa1e 8dbd a630 6f3d
000002c0: bbd8 95be acc5 a6bc 2a8b c03e e126 e33e
000002d0: 15c4 773e abad e03f 8379 6dbf 5346 a1be
000002e0: 0906 273d 1447 b0be 0b50 ba3d 7e73 11bd
000002f0: 1d49 a63d 5fe8 053f 9166 ca3e 20b5 6e3d
00000300: b4c4 5cbf 40b1 ea3d 78af 0bbf 3ae2 7e3e
00000310: 509c 873e de1f 343e 713e 223e 13fa 1b3e
00000320: 95e9 453e 3dbc 8c3f 4d83 d73d 7a4b a7be
00000330: 06b0 ad3e 92c9 b1be 8227 f7be ffc2 a5bd
00000340: 1b1b f4bd a9af 3c3e b12c 0a3e f441 a43d
00000350: 78b8 5abe 4e72 5fbe bb21 41bf 08b8 993e
00000360: a09c 21be ce4e 0c3d 752f 613e 8a65 d43e
00000370: c74d 9d3d 8fa1 463f 9f1e 0c3f 097f d23e
00000380: 4d80 e7be 9867 043f 2aba 9fbe 1953 9fbe
00000390: 05ed 5ebe a5e8 babe d17a c8bb 0ca0 953e
000003a0: 07c7 80bf c8ef 84be d424 f5bd 1cfc 0e3e
000003b0: 21a4 843d 9f2b c2be 78a3 b03e 720d 083f
000003c0: a4e4 3a3e d944 843f 121d 60bd b29f 60bd
000003d0: e877 52be a1f4 dd3e 7fd7 25bf 9dd4 1e3e
000003e0: 9272 20be be29 00be ae91 b83e 31ce 83be
000003f0: ccd4 a9bd 1999 8abe 5ecf 6bbe a260 c13e
-0.025753537 0.021005888 0.049828406 -0.025044631 -0.088055275 -0.13644275 -0.1302316 0.15057038
-0.015060976 -0.092884555 -0.050166793 -0.29433355 0.10912021 0.19685428 0.1000084 -0.22515748
0.14979288 -0.11699462 -0.35193223 0.41117474 -0.19221035 0.40678847 -0.027305935 0.08657095
0.04627128 -0.1339818 -0.07033574 0.11325403 -0.23884162 0.040330242 -0.050014492 -0.096894294
0.20695987 -0.30591455 -0.10795095 0.14673871 0.23606424 -0.17634791 0.006723303 -0.10372862
-0.012724955 -0.08636213 0.008148879 -0.27707773 -0.12387128 0.39853114 -0.0855571 -0.16534518
0.03675814 -0.015137437 0.083978154 0.13797043 0.15863457 0.05207064 -0.039879046 -0.123241864
-0.35182732 0.0854482 0.26196092 -0.02991844 -0.30599117 -0.08402805 0.028350368 -0.42932105
0.21687059 0.33018976 0.21374854 0.16896811 0.076078355 -0.044691507 0.24389689 0.15283592
-0.1682484 0.010800129 -0.28428617 -0.068435445 -0.033196915 -0.022951571 0.073818475 -0.19095553
-0.08728194 -0.21325587 -0.11847895 -0.38439152 0.11960119 -0.07109137 -0.1369536 0.16932471
-0.005087358 0.053910825 0.019663779 -0.10532264 0.2447438 0.1446435 -0.37139916 -0.09500458
-0.21250798 0.09840919 0.44906408 0.17046057 0.08446274 0.14676017 -0.20329884 -0.15465103
-0.10551829 0.043038264 -0.037185065 0.42637348 -0.11419958 0.06884706 -0.07156398 0.073080786
0.10400794 -0.0011670571 -0.23293747 -0.07880701 -0.095879056 0.07554786 -0.14382362 -0.4189638
-0.35809493 1.6849668 -0.73558563 0.24657123 0.12070262 -0.19879203 -0.34815085 0.40663484
-0.23822236 0.5145061 -0.030586036 -0.14787164 -0.108874075 0.17511693 -0.53457093 -0.2864039
0.20124471 -0.08800394 0.9170005 0.20874175 -0.2419759 1.1936898 0.3553376 -0.6671329
0.96932316 -0.19376948 -0.6558614 0.2625131 0.3407251 -0.2865853 0.28072855 0.5747607
-1.7780914 -0.31742156 -0.59994125 0.07843807 0.21464418 0.21903817 1.630755 0.35472313
0.3387916 0.8203906 -1.5163833 -0.57558674 0.5225254 -0.32488593 -0.15305547 -0.07916838
0.08348735 0.15587138 0.16683224 0.08508159 -0.5749258 0.02269167 -0.06890674 0.058396004
-0.29266915 -0.02035793 0.37606174 0.443656 0.24195893 1.7552999 -0.9276354 -0.31498966
0.04077724 -0.34429228 0.09097298 -0.035510533 0.08119414 0.52307695 0.39531377 0.058278203
-0.86237645 0.11459589 -0.5456462 0.24890986 0.26486444 0.17590281 0.15844132 0.15232114
0.19327386 1.0994946 0.105230905 -0.32674772 0.33923358 -0.34724098 -0.4827233 -0.08093833
-0.119192325 0.18426384 0.13493611 0.08020392 -0.21359432 -0.21820948 -0.75442094 0.30023217
-0.15782404 0.03425484 0.2199076 0.41483718 0.076808505 0.7759027 0.54734224 0.41112545
-0.45215073 0.5172057 -0.3119672 -0.31118086 -0.21770103 -0.3650562 -0.0061181565 0.2922367
-1.0060738 -0.2596419 -0.11969915 0.1396336 0.064766176 -0.37923905 0.34499717 0.53145516
0.18251282 1.0333511 -0.054715224 -0.054839797 -0.20553553 0.433507 -0.64781946 0.15510793
-0.15668705 -0.12515923 0.36048645 -0.2574325 -0.08292541 -0.2706993 -0.23028323 0.37769037

fc1.bias f4 [64]
00000000: 02c6 77be bd21 61be 6958 31be 0837 6ebe
00000010: 8cf9 5a3d c9bf 94be b20e b43b a5f3 85be
00000020: 981d 98bd aec1 c2be ab90 d8bd 8ffb 8ebe
00000030: af26 f0be 8afb dfbe 24d0 49be a5bb c3bc
00000040: b06c bfbe 401d b4be 5181 f6bd 3822 583c
00000050: d652 87be 0f78 4dbe cd95 14be 2f4d dc3d
00000060: 55e6 a6be d67c 50be f6ed 8abe 68fd 15bf
00000070: 56ae 58bd df72 5ebe cab1 84be d67e debd
00000080: 9131 2dbe 9288 973a eb5e 0dbe 9337 743d
00000090: 2216 04be 8fae 1fbe c48f a1be 6508 95bd
000000a0: 77bd f1be 8cb4 70be e6e8 afbe f677 8cbd
000000b0: 8b5e e8be 71d3 c53c 54e3 b3be 25f3 b7be
000000c0: ceca 24be cf35 c9be 6c30 9dbe 0ea0 d3bd
000000d0: af7b b03b b5c8 f8be 1437 9bbe 29ac 69be
000000e0: 2283 a0be 080d 6dbd c4fa 81bd 0999 b1be
000000f0: 2faf f9bb b581 92be a3fa 60be 17e3 dcbe
-0.24196628 -0.21985526 -0.17318882 -0.2326318 0.053460643 -0.2905257 0.005494916 -0.2616245
-0.074275196 -0.3803839 -0.10574468 -0.279263 -0.46904513 -0.43746597 -0.19708306 -0.023893187
-0.3738761 -0.35178566 -0.12036384 0.013191752 -0.26430386 -0.2006533 -0.1451027 0.10756909
-0.32597604 -0.20360121 -0.27134675 -0.5858979 -0.052900635 -0.21723507 -0.25916892 -0.10864036
-0.1691344 0.0011561087 -0.1380574 0.059623312 -0.12899068 -0.15593933 -0.31554997 -0.07276992
-0.47214863 -0.23506373 -0.34357375 -0.06858818 -0.4538463 0.024148675 -0.35134375 -0.35927692
-0.16092989 -0.39298865 -0.30701005 -0.103332624 0.005385838 -0.48590627 -0.3031546 -0.2281958
-0.31350046 -0.057873756 -0.06346658 -0.3468707 -0.0076197605 -0.28614584 -0.2197061 -0.43142006

fc2.weight f4 [32, 64]
00000000: 7334 763d 1a6f 18bf dfc6 20bf ed94 d6be
00000010: ab17 aabe ee1c 00bf 0d92 07bf b21c 403e
00000020: 8bc4 09bf 66df b4be fefb 0abf 6953 c53d
00000030: 7108 1a3e 276e e13d 4020 efbe 26cf 19be
00000040: 144c 333e 3487 783e 9ade 13bf 7d84 e83d
00000050: fcf5 3d3e 43ae 7c3d 2403 0bbf 011d 52bf
00000060: 9103 ad3d b401 92be 3aae 173e a1c2 c0bd
00000070: e24e cebe 45e3 ccbe 0a62 30bf 8096 c0be
00000080: 8b52 bf3d 707b 44bd 055e 38bf dc8e 3fbf
00000090: 9f91 50bf 799b 06bf 23cb 3d3e 76a3 89bf
000000a0: 47a5 8a3e 2b9d 153e 8f7e 193e 09c2 f6be
000000b0: ebe1 0dbc b1ba b7be 15b2 013c de25 043e
000000c0: 4068 eebe cf6a 063e c2de 153d b3dc 9a3d
000000d0: 0161 b5be 1fa5 0fbf b6df 163e 7098 dabd
000000e0: b731 b83d b69c 04bf fc65 02bf e8ea c83d
000000f0: 607d 93be 2f27 93be 4ea4 203d 9914 ca3d
00000100: 6fc0 5b3e f053 59be a0d2 efbe 3f2b 91be
00000110: 3c17 a4be c32b c0be efb7 5dbe f456 e73d
00000120: 2d81 4cbe 33c9 30be b450 9ebe f3ec f43d
00000130: 9420 1b3e ebe3 543e 199e b1be 705e 8ebe
00000140: 397e 843e 4f40 7b3e f2fe a8be 9ae7 073e
00000150: a003 823e ec76 8f3e 6949 5cbe 2b62 65bf
00000160: 81af 113e 8976 80be ca79 763e 61ce d1be
00000170: 0784 5dbe 8b0f 8fbe a48b b6be 0382 18be
00000180: ca34 d23d d0ab 2a3e f4a5 a0be 347f 88be
00000190: 75ae 09bf 2aa9 ecbe 4ef6 2e3e c009 e8be
000001a0: 65ff a93e 23c2 383e a4a0 a43e b8d1 efbe
000001b0: 2b93 8bbe 345d 9bbe 6283 3f3e 7178 513e
000001c0: fc96 87be 7d48 363e 1e2f 773e 9875 c93d
000001d0: 4330 67be d8fd 11bf babe 763e d89b fdbe
000001e0: 830b f93d c289 dcbe fd3c 73be 3beb ac3e
000001f0: c2b0 dbbc 48a5 27be b811 403e 6b99 523e
00000200: d9cb adbe 4260 8b3e 2424 da3e 5b54 833e
00000210: 7ccc c13d 0c78 d63e 6b0a 033e 2c28 d0be
00000220: 83a7 463e c4db 7d3e c80d 693e ab03 d2be
00000230: 825a 50be af4d 55be d744 db3d b12d c53d
00000240: 846e bcbe 224b b7be 0d4d 2b3e 8336 c4be
00000250: 6f18 07bf 0b3f fabe f56f 2a3e c671 4a3e
00000260: 93d0 84be 531e 463e 49ab 8fbe 3682 a83e
00000270: 1848 b03d 69cf 733e 5556 843e 262b 533e
00000280: eafb 51be 4a92 2ebf f1e8 243e da4e fe3d
00000290: 2a19 2a3c 3801 0f3e 6fe1 3abf 1596 c23d
000002a0: b423 3ebf ba01 dbbe f842 f2be 6ac0 463e
000002b0: b15b 753e d2bc 263e 70c3 afbe 5ea1 eabe
000002c0: 6ba9 eb3d 3dec 52bf b301 e6be 8a69 c8be
000002d0: 6653 c13d e570 f33e e1e3 ebbe b22a 9c3e
000002e0: 5f68 a0be eed2 cd3d af20 1f3e 174b 9cbe
000002f0: 24b3 a63d b876 673e ca3f 04bf 9b67 4cbf
00000300: 905f b03e a615 dabe 5913 3ebf 138a 9ebe
00000310: b48d 7abe aed8 c0be 5498 c2bd 42f6 283e
00000320: d03b c1be 7b3a d8be 0793 85be 3975 703e
00000330: 82f6 523d b0b4 883d ff1a 4ebe 0ce1 2dbe
00000340: 2e95 c83e 907f 0a3e e84a 93be deb2 3b3e
00000350: c164 d83c 6277 af3e 5966 e9be a3de 60bf
00000360: 3675 ba3d f7a5 cfbe c7d6 f23d 5da5 87be
00000370: 460f a2be 3781 10bf e56e 31bf 2bd1 10be
00000380: 3ecd 3b3e b223 94bc dc58 93be 4a4f 03be
00000390: 8eb8 1ebf ebf9 9bbe d13b 513e be14 1abe
000003a0: c910 623e a5e1 683e d1a2 b73e 8758 f3be
000003b0: 42f7 d4be aaa7 83bd 6030 323e cc5a 923e
000003c0: 1aed c5be e831 b83e 47eb e93d 0094 543e
000003d0: 62d6 8ebe e428 65bf 87ee 603e 807b 11bf
000003e0: 9af6 833e b100 15bf 161a dfbe 5736 8b3e
000003f0: 6295 6dbe 2785 5bbe 20bf b8bd 0bad c23e
0.060108613 -0.5954453 -0.62803453 -0.41910496 -0.33221182 -0.50044143 -0.5295723 0.18760946
-0.53815526 -0.3532669 -0.5429076 0.0963505 0.15042283 0.11007338 -0.46704292 -0.15020427
0.1750949 0.24270326 -0.5776154 0.11353395 0.18550867 0.061689626 -0.5430167 -0.82075506
0.08447946 -0.28516924 0.14812556 -0.094121225 -0.40294558 -0.40017143 -0.68899596 -0.37614822
0.09341916 -0.04796928 -0.7201846 -0.7482736 -0.814722 -0.5258098 0.18534522 -1.0753009
0.27079222 0.14610736 0.14989685 -0.48194912 -0.00865982 -0.35884622 0.007915993 0.1290507
-0.4656391 0.13126682 0.03658939 0.07561626 -0.3542557 -0.5611133 0.14733776 -0.106736064
0.08993857 -0.5180162 -0.50936866 0.0981043 -0.2880659 -0.28740832 0.039219193 0.0986721
0.21460126 -0.21223426 -0.46840382 -0.28353307 -0.32048976 -0.37533388 -0.21652196 0.11295882
-0.19971152 -0.17264251 -0.30920947 0.11959257 0.15149146 0.20790069 -0.3469093 -0.27806425
0.2587755 0.2453625 -0.33007008 0.13271943 0.2539339 0.28020418 -0.21512379 -0.8960292
0.14227106 -0.25090435 0.24069896 -0.40977767 -0.21632396 -0.27941546 -0.35653412 -0.14893346
0.10263975 0.16667104 -0.31376612 -0.26659548 -0.53781825 -0.46222812 0.17086145 -0.4531994
0.33202663 0.18042807 0.3215381 -0.4683969 -0.27260718 -0.30344546 0.18702462 0.20456101
-0.2648238 0.1780109 0.24139068 0.09836882 -0.22577004 -0.5702796 0.24096194 -0.49532962
0.12160399 -0.4307385 -0.23753734 0.33773217 -0.026817683 -0.16371644 0.18756759 0.20566337
-0.33944586 0.27221876 0.42605698 0.25650296 0.094628304 0.41888463 0.12796943 -0.4065565
0.19399838 0.24790865 0.22759163 -0.41018423 -0.20347026 -0.20830415 0.107064895 0.096278556
-0.36803067 -0.3579951 0.16728611 -0.3832284 -0.5277166 -0.48876223 0.1664427 0.19769964
-0.2594038 0.19347505 -0.28060368 0.32911843 0.08607501 0.2380959 0.25847116 0.20621929
-0.20506254 -0.6819197 0.16104485 0.124173835 0.010381976 0.13965309 -0.73000234 0.09501282
-0.7427323 -0.42774755 -0.47316718 0.19409338 0.23960759 0.16282967 -0.34328794 -0.45826238
0.11506923 -0.8239172 -0.4492317 -0.3914302 0.09439735 0.4754707 -0.46072295 0.30501324
-0.3132963 0.10049997 0.15539812 -0.3052604 0.08139637 0.22603881 -0.51659834 -0.7984559
0.34447908 -0.4259464 -0.7424827 -0.30964717 -0.24468118 -0.37665313 -0.095017105 0.1650019
-0.37740946 -0.42232117 -0.26088735 0.23482217 0.05150462 0.066750884 -0.20127486 -0.1698038
0.39176315 0.13525224 -0.28768086 0.18329951 0.02641523 0.3427077 -0.45585898 -0.87839717
0.091043875 -0.4055631 0.11857372 -0.2649335 -0.31652278 -0.56447166 -0.69309837 -0.14142291
0.18340012 -0.018083427 -0.28778732 -0.12823215 -0.6200036 -0.3046411 0.20432974 -0.15046975
0.22076716 0.22742327 0.35866407 -0.47528479 -0.41594893 -0.06428464 0.17401266 0.28584898
-0.38657457 0.35975575 0.11421829 0.20759583 -0.27897936 -0.8951552 0.21965991 -0.5682907
0.2577408 -0.5820418 -0.4357459 0.27189896 -0.23201516 -0.21437512 -0.09020829 0.38022646

fc2.bias f4 [32]
00000000: cd46 cc3e aa0f 223f 748a 0f3f ece3 df3e
00000010: bb89 ff3e 8e41 063f be55 0a3f 9b12 c83e
00000020: 629d 093f 9943 c63e a063 0a3f 6efc a13e
00000030: a1cc cd3e 3411 083f 87c0 dd3e c9e9 813e
00000040: 4a36 db3e 4b05 c53e a32c bc3e 96ff 003f
00000050: fe47 0b3f 6c74 c33e dc47 e03e 6ca3 f13e
00000060: 8437 0f3f b935 cd3e 3e05 e93e 9a48 113f
00000070: b7b1 983e 4be3 d23e 6d3e 023f 1827 073f
0.39897767 0.6330515 0.5607064 0.43728578 0.49909768 0.5244378 0.5403708 0.39076695
0.5375577 0.38723448 0.54058266 0.316379 0.40195182 0.5315125 0.4331095 0.25373676
0.42814857 0.384806 0.36752805 0.50389993 0.54406726 0.3817476 0.43804824 0.47194993
0.55944085 0.4008005 0.45511812 0.56751406 0.29823086 0.41189036 0.50876504 0.5279403

fc3.weight f4 [1, 32]
00000000: 18fa 1abe 6e45 d4bd f08a b33d 1aa8 82bd
00000010: 9aae 00be 1e05 b2bd ae50 cfbd 1dd9 1e3d
00000020: fa3c a7bd 1e5f b63d e110 9bbd fc81 3e3d
00000030: c575 913d 151d 91bd 69b5 983d 51e1 473d
00000040: 0938 013d 2743 723d be1d 4a3d e7a3 d4bd
00000050: bae5 a8bd 5e4c 8a3d 0362 4a3d 69f4 9abd
00000060: a92f a5bd e783 803d d30a 653d 50ef 8abd
00000070: 9686 453d 3acc 0ebe 0341 92bd 1938 95bd
-0.15134466 -0.10364805 0.087667346 -0.06379719 -0.12566605 -0.08692382 -0.1012281 0.038781274
-0.08165927 0.08904861 -0.07571579 0.04651068 0.07102541 -0.07085625 0.07456476 0.048798863
0.03154758 0.059146073 0.04934477 -0.103828244 -0.08246942 0.06752847 0.049409878 -0.07566149
-0.08065731 0.062751584 0.055918526 -0.067839265 0.048224054 -0.13945094 -0.07141306 -0.072860904
