model/cross_validation/hp_nested_cv/checkpoint/c001_c002_128_4_0.001_64_0.3.pt (torch, 219607 bytes, 5 tensors)

fc1.weight f4 [128, 420]
0.027608467 -0.47665858 0.12804909 0.025991492 0.10939333 0.0066533126 -0.26896095 -0.20069972
-0.08958386 -0.14781213 -0.16391216 -0.050480988 -0.026901087 -0.021291064 -0.09912206 0.092036985
0.066658296 -0.08896541 0.24365252 -0.08448425 -0.18042338 -0.2138258 -0.08045781 -0.02281276
0.0435064 0.22168052 -0.013793565 -0.030494098 -0.077505805 0.008899335 -0.2520695 0.13254617
-0.3647036 -0.032388374 -0.15573227 -0.08519321 -0.07209052 -0.064594015 -0.0016960655 -0.07912763
-0.07804586 -0.041919947 -0.09304113 0.051321357 -0.0828019 -0.039335385 0.09087094 -0.2637216
-0.14977857 -0.051340774 0.114086196 0.034990933 -0.20189007 0.15234657 -0.03856923 0.04646114
-0.133876 0.089117266 -0.113578714 -0.15213673 -0.15711172 -0.07910769 -0.031027677 -0.069806434
0.0029076478 -0.1227521 -0.1741529 -0.16255218 -0.3242121 0.09011175 -0.14644629 0.13181984
-0.32296646 0.026709458 0.45162845 -0.24880192 -0.045951564 -0.14502738 0.05211538 0.09903078
0.05657532 0.0063951327 -0.068865955 0.06935724 0.079612 -0.17683595 0.01797446 -0.19119559
-0.16387197 0.023672732 -0.044515643 -0.2108281 -0.14873955 0.054597873 -0.22286914 -0.14906204
0.032465555 -0.014923002 -0.2584908 0.33702967 0.067791045 0.08059667 -0.28949168 -0.19235307
-0.021504879 0.22582084 -0.20167279 -0.16221943 -0.25656995 0.08061092 0.14000653 -0.08821122
-0.044649623 -0.035906415 -0.044797484 0.04219766 -0.15593353 -0.3044449 -0.20397784 0.08492387
-0.16185032 -0.92900306 -0.1201571 -0.5031976 0.34265515 -0.80176246 0.18903391 0.014290573
-0.39998603 -0.13500714 -0.08842322 0.233606 -1.3803202 -0.2017677 -0.3887009 0.031495392
0.1377263 0.23772968 -0.53478736 0.5246589 0.4704068 -0.12965499 -1.1642716 -0.97885084
0.53498757 -0.1220148 -0.5327863 0.0384268 -0.43083537 0.0010334193 -0.12444029 -0.63023335
0.034833066 0.12019451 -0.9038688 -0.0076121213 -0.20728959 -0.05575213 0.42758977 0.102569476
-0.21476585 -0.8222153 0.8163633 0.09100459 -0.18677822 -0.2740267 0.20790017 -0.2059513
0.22525457 -0.603483 -0.35656038 -0.29048607 0.1283003 -0.48440972 0.4904581 -0.4427885
-0.58681834 -0.30221775 -0.33628306 0.0025325913 -0.13757804 0.045531932 -0.3366781 0.18755727
0.09518225 -0.022733394 0.08964897 -0.021344947 -0.025283944 0.19507036 -0.0037659947 -0.15773517
0.08793981 -0.36004904 -0.3760126 -0.044845533 -0.31710574 0.027556002 -0.07314123 -0.06664808
0.089600414 -0.590854 -0.32688448 -0.04065129 -0.010134069 0.15703873 0.091748066 -0.23004681
-0.1377482 -0.17138793 -0.28031322 0.04228032 0.31035182 0.13225581 0.046940945 -0.063076876
-0.12660617 -0.04801491 -0.22084486 -0.33225688 0.098655626 -0.36710888 0.10529017 0.126109
-0.22871222 0.29583275 0.19446754 -0.10429906 -0.2067762 -0.18242899 -0.36764556 0.23876579
-0.09019575 -0.14701805 -0.339831 0.11082553 0.08437873 -0.20725375 -0.045619845 -0.64147097
-0.18058124 -0.33150312 -0.32299733 0.16622536 -0.3373732 -0.32369792 0.14144602 -0.08693772
-0.24519207 -0.1845497 -0.45390132 0.07986583 -0.14693055 0.097672746 0.024328178 0.2407144
00000000: 272b e23c 980c f4be 4d1f 033e 1cec d43c
00000010: 9c09 e03d 0804 da3b 40b5 89be 3a84 4dbe
00000020: be77 b7bd 105c 17be 97d8 27be 27c5 4ebd
00000030: ab5f dcbc 996a aebc 8200 cbbd e37d bc3d
00000040: 2584 883d 7f33 b6bd 0c80 793e 1406 adbd
00000050: e8c0 38be 27f5 5abe 10c7 a4bd d3e1 babc
00000060: c433 323d 3800 633e 68fe 61bc c2ce f9bc
00000070: 5dbb 9ebd 84ce 113c 410f 81be 2fba 073e
00000080: 6eba babe aca9 04bd 4878 1fbe c779 aebd
00000090: 32a4 93bd de49 84bd 844e deba ab0d a2bd
000000a0: 82d6 9fbd 40b4 2bbd 598c bebd 5836 523d
000000b0: 0b94 a9bd 241e 21bd 8b1a ba3d 8406 87be
000000c0: 8e5f 19be b44a 52bd 06a6 e93d a752 0f3d
000000d0: 45bc 4ebe bd00 1c3e c5fa 1dbd 094e 3e3d
000000e0: ca16 09be 1d83 b63d f59b e8bd bbc9 1bbe
000000f0: e5e1 20be 3603 a2bd c12d febc adf6 8ebd
00000100: 3c8e 3e3b 7465 fbbd 2355 32be 1474 26be
00000110: 21ff a5be 828c b83d 04f6 15be c8fb 063e
00000120: dc5b a5be cbcd da3c d83b e73e eec5 7ebe
00000130: b537 3cbd 0f82 14be f076 553d a6d0 ca3d
00000140: 86bb 673d 438e d13b 9809 8dbd 2b0b 8e3d
00000150: 9e0b a33d 7c14 35be 2d3f 933c c7c8 43be
00000160: 0ece 27be 51ed c13c 0956 36bd 52e3 57be
00000170: 2e4f 18be 05a2 5f3d cf37 64be b8a3 18be
00000180: 9afa 043d 9b7f 74bc e858 84be 278f ac3e
00000190: 08d6 8a3d de0f a53d 4138 94be 34f8 44be
000001a0: 002b b0bc 943d 673e 5083 4ebe da1c 26be
000001b0: 235d 83be 5717 a53d df5d 0f3e 16a8 b4bd
000001c0: 86e2 36bd 9b12 13bd 917d 37bd 74d7 2c3d
000001d0: 0aad 1fbe 34e0 9bbe 91df 50be 91ec ad3d
000001e0: 17bc 25be 25d3 6dbf ed14 f6bd 8fd1 00bf
000001f0: 7f70 af3e 4e40 4dbf 1b92 413e 0223 6a3c
00000200: f8ca ccbe 503f 0abe 3c17 b5bd 6936 6f3e
00000210: 55ae b0bf 319c 4ebe ce03 c7be 5001 013d
00000220: 2008 0d3e 696f 733e d3e7 08bf 0c50 063f
00000230: 29d9 f03e 47c4 04be da06 95bf f895 7abf
00000240: f2f4 083f e5e2 f9bd af64 08bf 6c65 1d3d
00000250: 7496 dcbe cc73 873a 8dda febd f956 21bf
00000260: 1ead 0e3d 8a28 f63d f263 67bf 1a6f f9bb
00000270: b943 54be 585c 64bd 0ced da3e f20f d23d
00000280: 94eb 5bbe b47c 52bf 2ffd 503f 9d60 ba3d
00000290: ca42 3fbe 3a4d 8cbe c8e3 543e e6e4 52be
000002a0: 22a9 663e dd7d 1abf 158f b6be 97ba 94be
000002b0: 2761 033e 8d04 f8be 531d fb3e 2db5 e2be
000002c0: ba39 16bf 49bc 9abe 4b2d acbe d5f9 253b
000002d0: 42e1 0cbe b17f 3a3d 1261 acbe 030f 403e
000002e0: e9ee c23d 623b babc e199 b73d 99db aebc
000002f0: 4620 cfbc 86c0 473e e8ce 76bb 5485 21be
00000300: c919 b43d 5958 b8be b984 c0be f3af 37bd
00000310: af5b a2be 20bd e13c 12cb 95bd ca7e 88bd
00000320: 6c80 b73d 3542 17bf 675d a7be f881 26bd
00000330: 5e09 26bc c3ce 203e 69e6 bb3d 6491 6bbe
00000340: dd0d 0dbe 5180 2fbe 3785 8fbe 212e 2d3d
00000350: 6fe6 9e3e 116e 073e 2645 403d 732e 81bd
00000360: 0ca5 01be 48ab 44bd 2825 62be 931d aabe
00000370: f60b ca3d b2f5 bbbe 5fa2 d73d b822 013e
00000380: 8933 6abe 6477 973e 8022 473e bf9a d5bd
00000390: 24bd 53be aace 3abe 0a3c bcbe 057f 743e
000003a0: 8db8 b8bd e68b 16be 54fe adbe 7ff8 e23d
000003b0: c1ce ac3d 543a 54be e0db 3abd 7137 24bf
000003c0: 4aea 38be c7ba a9be e85f a5be fb36 2a3e
000003d0: 2ebc acbe bcbb a5be 3ad7 103e 670c b2bd
000003e0: a113 7bbe 99fa 3cbe c165 e8be b290 a33d
000003f0: f674 16be a608 c83d e34b c73c d67d 763e

fc1.bias f4 [128]
-0.09277367 -0.3821796 -0.27962905 -0.30995578 -0.32037738 0.0035721776 0.005682884 -0.39338174
-0.36821255 -0.26118875 -0.024160838 -0.4344551 -0.36519554 -0.084585525 -0.37009913 -0.28727582
-0.034545977 -0.27814978 0.034808017 -0.12989707 -0.02710111 -0.3061911 -0.45822096 -0.49152523
-0.29594424 -0.04507313 -0.033065595 -0.27019146 -0.3208631 -0.12180068 -6.0594663e-05 -0.34633288
-0.29889113 -0.3062091 -0.37548703 -0.33134475 -0.0706024 -0.345367 -0.08891101 -0.31357676
-0.01627046 -0.087095946 -0.31477198 -0.07420727 -0.038041014 -0.3172492 -0.33227518 -0.06895412
-0.023660738 -0.40632597 -0.40955618 -0.24120447 -0.07977719 -0.036895372 -0.11544226 -0.3201568
0.006292756 -0.12798549 -0.09657389 -0.34792694 -0.34293056 -0.34148636 -0.09144691 -0.30338547
-0.33560067 -0.1392558 -0.053969905 -0.08485235 -0.33365944 -0.21531688 -0.3357791 0.06513181
-0.30079508 -0.044348273 -0.32425696 0.007860789 -0.0141846035 -0.013980042 -0.0309457 -0.0834592
-0.037929032 -0.4294909 -0.32483506 -0.32917053 -0.11222971 -0.08917748 -0.020251965 0.013292646
-0.04749477 -0.07655969 -0.12894663 -0.32928076 -0.28626427 -0.36107707 -0.4099199 -0.21580254
0.025354816 -0.0048653916 -0.010336712 -0.030927513 -0.12228389 -0.037087154 -0.3311341 -0.47432232
-0.0842555 -0.42443237 -0.28650776 -0.019782307 -0.13731176 0.01379831 -0.2788511 -0.08015884
-0.15091126 -0.012144022 -0.40149492 -0.34330937 0.017920826 0.00020080004 -0.111094646 -0.37726724
-0.38311324 -0.033102594 -0.3031991 -0.25425506 -0.01793692 -0.28656697 -0.37112886 -0.105863445
00000000: 1f00 bebd 0bad c3be 8a2b 8fbe 86b2 9ebe
00000010: 8108 a4be 321b 6a3b 7c37 ba3b 5569 c9be
00000020: 5b86 bcbe 88ba 85be f3ec c5bc e670 debe
00000030: e9fa babe 2d3b adbd a27d bdbe d115 93be
00000040: 1580 0dbd a669 8ebe da92 0e3d bd03 05be
00000050: 2603 debc 14c5 9cbe f09b eabe 32a9 fbbe
00000060: 0186 97be 9a9e 38bd ca6f 07bd 8956 8abe
00000070: 2b48 a4be a372 f9bd 0627 7eb8 8b52 b1be
00000080: 4208 99be 70c7 9cbe d63f c0be 05a6 a9be
00000090: fe97 90bd f2d3 b0be fa16 b6bd 228d a0be
000000a0: a149 85bc 5c5f b2bd cb29 a1be fbf9 97bd
000000b0: e5d0 1bbd 7d6e a2be f91f aabe d137 8dbd
000000c0: 2ad4 c1bc f509 d0be 59b1 d1be 4efe 76be
000000d0: 3962 a3bd 9a1f 17bd fe6c ecbd 98eb a3be
000000e0: 7733 ce3b a10e 03be 88c8 c5bd 7b23 b2be
000000f0: 9894 afbe 4dd7 aebe 8448 bbbd 5755 9bbe
00000100: dad3 abbe 1399 0ebe 8c0f 5dbd 12c7 adbd
00000110: 69d5 aabe 077c 5cbe 3deb abbe d463 853d
00000120: d001 9abe 89a6 35bd 0205 a6be 8aca 003c
00000130: 8a66 68bc 8c0c 65bc d681 fdbc a8ec aabd
00000140: 795b 1bbd 3be6 dbbe c850 a6be 0a89 a8be
00000150: b1d8 e5bd afa2 b6bd 73e7 a5bc 66c9 593c
00000160: e089 42bd 54cb 9cbd 960a 04be 7d97 a8be
00000170: 3b91 92be 18df b8be 05e1 d1be 57fb 5cbe
00000180: e7b4 cf3c dd6d 9fbb 505b 29bc b25b fdbc
00000190: fa6f fabd b3e8 17bd 698a a9be 60da f2be
000001a0: 268e acbd 334f d9be 25b1 92be 810e a2bc
000001b0: 749b 0cbe 4f12 623c 92c5 8ebe 512a a4bd
000001c0: 7b88 1abe b8f7 46bc be90 cdbe 3fc6 afbe
000001d0: b2ce 923c da8d 5239 9785 e3bd 2c29 c1be
000001e0: 6b27 c4be 9696 07bd ea3c 9bbe b82d 82be
000001f0: 73f0 92bc e8b8 92be 9a04 bebe efce d8bd

fc2.weight f4 [4, 128]
-0.30352166 0.18686327 0.18700731 0.22117576 0.22299258 -0.595416 -0.2786803 0.2263446
0.17441498 0.2540519 -0.38768658 0.3305037 0.2976861 -0.22288394 0.24327992 0.16651267
-0.37731746 0.23967975 -0.23754841 -0.24904436 -0.30060568 0.21054408 0.19972491 0.21679087
0.07297583 -0.5963087 -0.24957283 0.18984134 0.2104915 -0.13518229 -0.17706084 0.28153464
0.22021548 0.15575103 0.30631134 0.2347896 -0.25701886 0.22408105 -0.43173277 0.18761988
-0.24222593 -0.27525058 0.24078622 -0.29803923 -0.27694878 0.23759641 0.21565156 -0.26343152
-0.28798828 0.25926527 0.2813044 0.12391242 -0.24635851 -0.36916152 -0.36353904 0.17560886
-0.27341282 -0.24413991 -0.3935675 0.1905543 0.19138359 0.22679187 -0.31592488 0.23451936
0.21549226 -0.2067555 -0.40238258 -0.2880626 0.2513017 0.20028429 0.25585932 -0.51964885
0.20923036 -0.21073954 0.18064627 -0.31207284 -0.24957877 -0.30159882 -0.36361632 -0.40533105
-0.23246197 0.398415 0.22114065 0.21347071 -0.23076028 -0.24752478 -0.2038258 -0.13183583
-0.36893767 -0.22010949 -0.35923353 0.25413442 0.17981699 0.23678105 0.173195 0.11114514
-0.26900306 -0.40716738 -0.5584437 -0.2642129 -0.28364763 -0.47734082 0.2332281 0.31358278
-0.35043368 0.19843578 0.18494669 -0.33716536 -0.3108698 -0.35014355 0.18645813 -0.30126676
-0.63299733 -0.23334347 0.22034146 0.24678306 -0.27635965 -0.25852492 -0.37931988 0.23674656
0.23537171 -0.2737221 0.17467515 0.19069573 -0.36226934 0.19396335 0.29361865 -0.262054
0.16819435 -0.27065945 -0.24533544 -0.35579816 -0.5291132 0.33418366 0.08795012 -0.2898472
-0.25333723 -0.34774986 0.24196456 -0.42572293 -0.2693648 0.15056133 -0.42386344 -0.27138147
0.17591245 -0.37713343 0.14546119 0.19288649 0.21853918 -0.30819616 -0.16102676 -0.27403995
-0.26466277 0.4200114 0.1615489 -0.39094678 -0.3216023 0.1663804 0.11200159 -0.46207073
-0.3448454 -0.27077407 -0.38813174 -0.22309427 0.18398084 -0.3413408 0.37748998 -0.26293236
0.19774961 0.1885975 -0.25602168 0.18789689 0.17941849 -0.46877572 -0.14410228 0.20110534
0.16192763 -0.30932307 -0.27952108 -0.27812362 0.12945728 0.21667868 0.15641224 -0.3196237
0.11593026 0.13731979 0.16561505 -0.22528774 -0.32971492 -0.24050198 0.17831783 -0.3183935
-0.357923 0.17313565 0.1805204 0.14769942 -0.3854744 -0.24087802 -0.23905888 0.24351075
-0.37110025 0.2196332 -0.29944074 0.17934006 0.11819812 0.17687684 0.16819564 0.23275015
0.22794253 -0.30315745 -0.24645531 -0.3432164 0.1711203 0.22611386 0.099196784 0.16389178
0.26644605 0.18441467 0.22564796 -0.29839057 -0.3278517 -0.43363783 -0.30255646 -0.29346648
0.107833154 0.20548584 0.25946957 0.15547857 0.173699 0.39018315 -0.16180722 -0.46567297
0.1751794 -0.10847781 -0.33293378 0.2598053 0.21470155 0.1389868 -0.32069486 0.1978262
0.4996385 0.13711844 -0.25405902 -0.3342974 0.13006943 0.16433638 0.20717472 -0.2203236
-0.20659976 0.13344206 -0.21768229 -0.20638049 0.11425261 -0.23902747 -0.3470772 0.20372948
00000000: 3167 9bbe 1659 3f3e d87e 3f3e e67b 623e
00000010: 2b58 643e 2f6d 18bf 2faf 8ebe e1c6 673e
00000020: d799 323e 1713 823e db7e c6be c837 a93e
00000030: 506a 983e b03b 64be 5f1e 793e 4c82 2a3e
00000040: c12f c1be 9c6e 753e e43f 73be 7c05 7fbe
00000050: fde8 99be de98 573e b084 4c3e 6dfe 5d3e
00000060: 5a74 953d b0a7 18bf 0590 7fbe c565 423e
00000070: 158b 573e 3a6d 0abe 704f 35be 4f25 903e
00000080: 2b80 613e 337d 1f3e d7d4 9c3e af6c 703e
00000090: fa97 83be 8175 653e 140c ddbe 6d1f 403e
000000a0: 130a 78be a5ed 8cbe aa90 763e 9998 98be
000000b0: 3bcc 8dbe 794c 733e c3d3 5c3e 7fe0 86be
000000c0: 3373 93be 6bbe 843e 2107 903e cbc5 fd3d
000000d0: 6845 7cbe bd02 bdbe ca21 babe cfd2 333e
000000e0: c4fc 8bbe d0ff 79be ae81 c9be ab20 433e
000000f0: 0ffa 433e 213c 683e e8c0 a1be d825 703e
00000100: 01aa 5c3e b7b7 53be 1705 cebe f17c 93be
00000110: 9eaa 803e 5317 4d3e feff 823e b507 05bf
00000120: 7c40 563e 1bcc 57be 56fb 383e 03c8 9fbe
00000130: 9491 7fbe 296b 9abe eb2b babe 8d87 cfbe
00000140: 830a 6ebe 0dfd cb3e b272 623e 1198 5a3e
00000150: 6c4c 6cbe 2377 7dbe b6b7 50be f9ff 06be
00000160: 66e5 bcbe 6264 61be 75ed b7be e81d 823e
00000170: f221 383e bb76 723e 085a 313e 10a0 e33d
00000180: c5ba 89be 3e78 d0be 2bf6 0ebf ea46 87be
00000190: 433a 91be 0466 f4be 59d3 6e3e ec8d a03e
000001a0: 0b6c b3be c032 4b3e aa62 3d3e f0a0 acbe
000001b0: 542a 9fbe 0446 b3be e1ee 3e3e a33f 9abe
000001c0: 1d0c 22bf 97f1 6ebe 31a1 613e b3b4 7c3e
000001d0: 037f 8dbe 615d 84be 3736 c2be b16d 723e
000001e0: 4805 713e 4e25 8cbe 0bde 323e be45 433e
000001f0: 5e7b b9be 549e 463e 2f55 963e f12b 86be
00000200: 243b 2c3e e093 8abe 3739 7bbe 2d2b b6be
00000210: f673 07bf 1f1a ab3e 311f b43d da66 94be
00000220: 6bb5 81be 450c b2be 8fc5 773e 5bf8 d9be
00000230: 2fea 89be c02c 1a3e a104 d9be 83f2 8abe
00000240: 6522 343e a217 c1be c7f3 143e 0984 453e
00000250: bcc8 5f3e e3cb 9dbe 33e4 24be f74e 8cbe
00000260: e181 87be bc0b d73e 136d 253e 2d2a c8be
00000270: 0fa9 a4be a05f 2a3e 1761 e53d 8994 ecbe
00000280: 948f b0be e6a2 8abe 34b9 c6be d372 64be
00000290: 7965 3c3e 39c4 aebe 5e46 c13e 129f 86be
000002a0: e07e 4a3e b41f 413e 4615 83be 0b68 403e
000002b0: 7bb9 373e 5f03 f0be 8c8f 13be 8fee 4d3e
000002c0: 5bd0 253e 985f 9ebe 631d 8fbe 3866 8ebe
000002d0: 7390 043e 04e1 5d3e 882a 203e b8a5 a3be
000002e0: d86c ed3d 8f9d 0c3e fe96 293e d4b1 66be
000002f0: 65d0 a8be 2746 76be f398 363e 7904 a3be
00000300: af41 b7be 794a 313e 57da 383e 843e 173e
00000310: e75c c5be baa8 76be dacb 74be e25a 793e
00000320: da00 bebe 87e7 603e 4c50 99be eca4 373e
00000330: db11 f23d 341f 353e 7a3b 2c3e 0e56 6e3e
00000340: c469 693e 7437 9bbe c85e 7cbe 0fba afbe
00000350: 293a 2f3e 648a 673e af27 cb3d 3fd3 273e
00000360: 9e6b 883e 33d7 3c3e 4210 673e a6c6 98be
00000370: 2edc a7be c705 debe aee8 9abe 3d41 96be
00000380: a1d7 dc3d e16a 523e 32d9 843e c635 1f3e
00000390: 27de 313e 16c6 c73e cbb0 25be b06c eebe
000003a0: 3b62 333e 9d29 debd 4c76 aabe 3305 853e
000003b0: b9da 5b3e 8e52 0e3e 1e32 a4be f492 4a3e
000003c0: 9ed0 ff3e c768 0c3e 0614 82be 0729 abbe
000003d0: ec30 053e cc47 283e 9c25 543e 839c 61be
000003e0: e38e 53be 09a5 083e 1be8 5ebe 6855 53be
000003f0: 46fd e93d 9ec3 74be 1ab4 b1be 769e 503e

fc2.bias f4 [4]
0.27353954 0.17003381 0.29324335 0.3061742
00000000: 600d 8c3e 581d 2e3e fe23 963e ddc2 9c3e

fc3.weight f4 [1, 4]
-0.59710824 0.55362445 -0.6021133 -0.60591877
00000000: 16dc 18bf 55ba 0d3f 1924 1abf 7e1d 1bbf
