model/cross_validation/hp_nested_cv/checkpoint/c001_c003_52_24_0.0001_32_0.3.pt (torch, 94743 bytes, 5 tensors)

fc1.weight f4 [52, 420]
0	0x3d4945d6	0.049138866
1	0x3ca71f54	0.02040068
2	0x3d7e0b9b	0.062022787
3	0x3ce88be9	0.028387027
4	0x3c8846ce	0.016635325
5	0xbd2e4056	-0.042541824
6	0x3d928369	0.07153971
7	0x3c73e33d	0.014885721
8	0x3aaeee69	0.0013346198
9	0x3cd4f240	0.02599442
10	0xbce64403	-0.028108602
11	0x3ca24546	0.019808423
12	0x3cd943e0	0.026521623
13	0xbd30d68a	-0.04317335
14	0xbc81ed99	-0.015860366
15	0x3c90b6a7	0.01766522
16	0x3c9d8b82	0.019231562
17	0xbcb19160	-0.021675766
18	0xbd12fd19	-0.035885904
19	0xbca0e5ab	-0.019640764
20	0x3cbb9178	0.022896513
21	0x3c01745b	0.007901276
22	0xbca49788	-0.020091787
23	0x3c134abf	0.008989989
24	0xbc9e5c66	-0.019331168
25	0xbd5f2d6a	-0.05448667
26	0x3d041820	0.03224957
27	0xbb3145fb	-0.0027049768
28	0xbcb356f3	-0.021892047
29	0xbd3e398b	-0.046441596
30	0x3d1f50e6	0.03889551
31	0x3d0a1e0c	0.03372006
32	0xbd1b07fa	-0.037849404
33	0xbb9feed2	-0.0048807645
34	0xbcadab91	-0.021199973
35	0x3c5a1957	0.013311706
36	0xbcdd1813	-0.026989019
37	0xbc5cea8c	-0.013483655
38	0x3d35825e	0.04431378
39	0x3abd823a	0.0014458366
40	0xbd403a48	-0.04693058
41	0x3b48f6c2	0.0030664657
42	0xbc4abace	-0.012373639
43	0x3cd9cbe3	0.026586479
44	0x3c2ff1db	0.010738815
45	0xbc3eb62d	-0.011640114
46	0x3d678142	0.056519754
47	0xbd32f448	-0.043689996
48	0xbc39aa10	-0.01133205
49	0xbcc934a4	-0.024561234
50	0xbd0181f8	-0.03161809
51	0xbb06d946	-0.0020576282
52	0x3b56b543	0.003276185
53	0xbb292acf	-0.002581287
54	0xbbe38a51	-0.006943979
55	0x3c726c71	0.014796362
56	0x3c87acea	0.016561944
57	0xbc2d44ab	-0.010575454
58	0x3b81b1e8	0.0039579757
59	0x3c098223	0.008392843
60	0xbd51f6e4	-0.051260844
61	0x3d20433a	0.039126612
62	0x3c401ae0	0.0117251575
63	0xb9f4785a	-0.00046628976
64	0x3ced5828	0.0289727
65	0x3c962da9	0.01833232
66	0xbdd859d3	-0.105640076
67	0xbc089409	-0.008336076
68	0x3d078952	0.033089943
69	0xbb67d3be	-0.003537401
70	0xbb074b5d	-0.0020644285
71	0x3b8965f3	0.0041930615
72	0x3cef164b	0.029185435
73	0xbce6ba57	-0.028165026
74	0xb9482bc8	-0.00019089796
75	0xbaa5e3ce	-0.0012656392
76	0x3cc226ac	0.02370008
77	0x3be81e26	0.007083672
78	0x3cb3574c	0.021892212
79	0x3d0015fe	0.031270973
80	0xbb3c20fa	-0.002870618
81	0xbbf4e4b7	-0.007473554
82	0xbd84704c	-0.064667314
83	0xbb3e8990	-0.0029073693
84	0xbdb19980	-0.08671856
85	0xbce1abb8	-0.027547702
86	0xbca5f130	-0.020256609
87	0x3bdcc88e	0.006737775
88	0xbc335d65	-0.01094756
89	0xbd00f174	-0.031480268
90	0xbca4edc5	-0.020132909
91	0x3c8075ce	0.015681174
92	0x3c4e6331	0.012596891
93	0x3ba5c266	0.0050585745
94	0x3ad51bb7	0.001625887
95	0x3c0d1843	0.0086117415
96	0xbd099be8	-0.03359595
97	0xbd46fd05	-0.048581142
98	0xbd7501b1	-0.059816066
99	0x3d431349	0.047625814
100	0xbd5fc1b8	-0.054628104
101	0x3c33405f	0.01094064
102	0x3cfefa82	0.03112531
103	0xbcb7458d	-0.022372032
104	0xbd07f022	-0.033187993
105	0x3c028233	0.007965612
106	0xbd378573	-0.044805
107	0x3b16c5cc	0.002300608
108	0x3c17048e	0.0092173945
109	0x3c5493dc	0.012974706
110	0xbd83eb1b	-0.06441327
111	0xbc43a482	-0.011941077
112	0x3d954454	0.07288423
113	0xbce024b0	-0.027361244
114	0xbca52c57	-0.020162744
115	0xbcf76857	-0.03020112
116	0xbc6a9fe5	-0.014320348
117	0xbc5a5ef2	-0.013328301
118	0x3d339e5b	0.04385219
119	0x3c8f1f22	0.0174709
120	0xbd61437f	-0.05499601
121	0x3e933ab2	0.28755718
122	0x3dbc9e70	0.09209907
123	0x3d0e25f2	0.034704156
124	0xbd0a9342	-0.033831842
125	0xbd20f128	-0.039292485
126	0xbc00b03d	-0.0078545185
127	0xbcbabe60	-0.022795856
128	0xbd1c1a92	-0.038111277
129	0x3c915e3c	0.01774513
130	0xbb07c14e	-0.0020714584
131	0x3d0e4099	0.034729574
132	0x3e6ee414	0.23329192
133	0x3ca8ded7	0.02061407
134	0xbd4b09f6	-0.049570046
135	0xbdaa9f77	-0.08331197
136	0x3d0b5d95	0.034024794
137	0xbae1af70	-0.0017218422
138	0x3e15384e	0.1457226
139	0xbcfbc3b6	-0.03073297
140	0xbdddb7ba	-0.10826059
141	0x3dc2c3ee	0.09510027
142	0x3db239e7	0.0870245
143	0xbd1cab41	-0.038249258
144	0xbe28e864	-0.164949
145	0x3d77e369	0.06051961
146	0x3d3b3372	0.04570336
147	0xbb8822a8	-0.004154522
148	0x3e64600d	0.22302265
149	0x3b8c912e	0.0042897677
150	0x3dd721e9	0.10504515
151	0x3e1e3b6e	0.15452358
152	0x3db5feb4	0.088864714
153	0x3df5f1d5	0.120090164
154	0xbd928c2c	-0.07155642
155	0xbcff00d0	-0.031128317
156	0xbe107acf	-0.14109348
157	0xbdf0f642	-0.1176572
158	0xbd75398e	-0.05986934
159	0xbe1af9ef	-0.15134405
160	0xbd71c57f	-0.059026238
161	0x3e19d87a	0.15023986
162	0x3db1a404	0.086738616
163	0x3d68062a	0.056646504
164	0xbd0e60e6	-0.03476038
165	0x3d753da4	0.05987324
166	0xb99da1ea	-0.0003006601
167	0xbbdf8220	-0.006820932
168	0xbcd3eab2	-0.025868747
169	0xb9b13728	-0.00033801165
170	0xbc1a3bfd	-0.009413716
171	0x3cec781f	0.028865872
172	0x3e1344fa	0.14381781
173	0xbc9cb961	-0.019131364
174	0xbcb13b38	-0.021634683
175	0xbcbdbde4	-0.023161836
176	0xbd0c4148	-0.034241945
177	0x3cf975af	0.030451624
178	0x3be8329d	0.0070861117
179	0xbdf61456	-0.120155975
180	0x3b7bb04b	0.003840464
181	0x3e5723e8	0.21009791
182	0xbd9051f1	-0.07046879
183	0xbd69e307	-0.057101276
184	0x3c88babe	0.016690608
185	0xbcf66387	-0.030076755
186	0x3d045e06	0.03231623
187	0xbc75c712	-0.015001075
188	0xbb1c9f49	-0.0023898652
189	0xbc92fb7a	-0.017942179
190	0xbc37a475	-0.011208643
191	0xbd09c8f1	-0.0336389
192	0xbd03f942	-0.032220133
193	0x3c9a574b	0.018840453
194	0x3cd09541	0.025461795
195	0x3c949244	0.018136151
196	0xbca5a9fa	-0.020222653
197	0xbc9fb783	-0.019496685
198	0x3c503d7f	0.012709974
199	0x3d5fa3a9	0.054599438
200	0x3ce9dbc4	0.028547175
201	0x3e0b6132	0.13611296
202	0xbdaca3e1	-0.08429695
203	0xbd0baf40	-0.03410268
204	0x3cbe4bed	0.023229564
205	0xbd2ef974	-0.042718366
206	0xbc173255	-0.009228309
207	0x3bd703fa	0.0065617533
208	0x3c55afdc	0.013042416
209	0x3d22fd32	0.039792247
210	0x3b309377	0.0026943365
211	0xbcadc9af	-0.021214334
212	0xbdcdb09b	-0.100434504
213	0x3d229325	0.03969111
214	0x3d0177d7	0.03160843
215	0xbd140cbd	-0.03614496
216	0xbd4f6ad9	-0.050639007
217	0x3cda8d0b	0.026678583
218	0x3c2069c3	0.009790841
219	0xbc27fab2	-0.0102526415
220	0x3d35b84e	0.04436522
221	0x3e28841e	0.16456649
222	0xbd60e980	-0.054910183
223	0xbc1268b9	-0.008936101
224	0xbd5a6911	-0.053322855
225	0xbc489b57	-0.012244067
226	0x3d2fe241	0.042940382
227	0xbd6606ee	-0.056158952
228	0x3c955abd	0.018231744
229	0x3d0673ef	0.032825407
230	0xbcb2e981	-0.021839859
231	0xbc9c97c3	-0.019115334
232	0x3c4e608f	0.012596264
233	0xbb66595a	-0.0035148473
234	0x3d811e17	0.06304567
235	0x3d014b01	0.03156567
236	0xbb7a0d5e	-0.003815494
237	0xbd658529	-0.056035195
238	0x3b249485	0.0025112939
239	0x3c1ed5a7	0.009694493
240	0xbd6c6245	-0.057710905
241	0x3e3d85df	0.18508099
242	0xbcdbbdf1	-0.02682397
243	0x3bcf3510	0.006323464
244	0xbcd5f5fe	-0.026118275
245	0xbc1e985a	-0.009679878
246	0xbd63aaff	-0.055582996
247	0xbd9dfb37	-0.07713931
248	0x3d02d320	0.031939626
249	0xbcbf656b	-0.02336379
250	0xbc938580	-0.018007994
251	0x3c2f6838	0.010706
252	0x3c8e5f95	0.017379561
253	0x3d8d6e44	0.06905797
254	0x3da962cc	0.08270797
255	0xbd01ced2	-0.03169138

fc1.bias f4 [52]
0	0xbc19aa87	-0.009379036
1	0xbda624f6	-0.081125185
2	0xbd0792b9	-0.03309891
3	0xbd01aa96	-0.031656824
4	0xbd425757	-0.047446575
5	0xbd49b127	-0.04924121
6	0xbd6947dd	-0.0569533
7	0xbd047d04	-0.032345787
8	0xbd890264	-0.06689909
9	0xbdb84904	-0.089983016
10	0xbda3fb36	-0.08006899
11	0xbd94a914	-0.072588116
12	0xbd377133	-0.04478569
13	0xbd7f707f	-0.062363144
14	0xbba0b386	-0.0049042134
15	0xbc6e3818	-0.014539741
16	0xbd76582d	-0.060142685
17	0xbd62b7ec	-0.055351183
18	0xbd944dd5	-0.07241408
19	0xbd70b947	-0.058770444
20	0xbc644545	-0.013932531
21	0xbce6c5b3	-0.028170442
22	0xbc9ec63b	-0.019381633
23	0xbd0ec13e	-0.03485226
24	0xbc0eb63e	-0.008710442
25	0xbd92d620	-0.07169747
26	0xbcebc39d	-0.0287798
27	0xbd3dd1a7	-0.04634252
28	0xbd1e4b04	-0.03864576
29	0xbc220cc2	-0.009890737
30	0xbb9aeced	-0.004727951
31	0xbd8f8f80	-0.07009792
32	0xbd01c9d1	-0.031686608
33	0xbd045d3a	-0.03231547
34	0xbd373d04	-0.044735923
35	0xbce2a23d	-0.027665252
36	0xbd626574	-0.055272534
37	0xbd519ce6	-0.05117502
38	0xbdbd7632	-0.092510596
39	0xbbdb4a34	-0.0066921953
40	0xbd00013f	-0.03125119
41	0xbcf7b000	-0.03023529
42	0xbcd42c8b	-0.025900146
43	0xbd6818f4	-0.056664422
44	0xbc8adba1	-0.01695043
45	0xbd5a784b	-0.053337377
46	0xbd899ec0	-0.06719732
47	0xbd0f726a	-0.035021223
48	0xbd79941a	-0.060932256
49	0xbd969215	-0.07352082
50	0xbd2acc9b	-0.041699033
51	0xbd14d7d7	-0.036338653

fc2.weight f4 [24, 52]
0	0xbe58acec	-0.21159714
1	0x3dd8f333	0.105932616
2	0x3e4fc022	0.20288137
3	0xbe9927ef	-0.2991328
4	0xbe917338	-0.28408217
5	0x3e015a71	0.12632157
6	0xbe97a756	-0.29619855
7	0xbe094f2a	-0.13409105
8	0xbec75e40	-0.38939095
9	0x3e5fe35e	0.21864077
10	0x3de3d6d6	0.11124961
11	0xbe5b8e54	-0.21441013
12	0x3e08b43e	0.13350007
13	0xbe715b78	-0.23570049
14	0x3de36943	0.111040615
15	0x3e4dd7b0	0.2010181
16	0x3d65af00	0.056075096
17	0x3d9da393	0.07697215
18	0x3dae4051	0.08508361
19	0x3dbfd7b4	0.09367314
20	0xbe976f24	-0.2957698
21	0x3e346f5a	0.17620602
22	0xbe987d23	-0.29782972
23	0xbebbcb0d	-0.36678353
24	0xbe4d94ec	-0.2007634
25	0x3e2c6fce	0.16839525
26	0x3dc6a3da	0.09699221
27	0xbe48a275	-0.19593222
28	0xbe701a75	-0.23447593
29	0x3da57c16	0.08080308
30	0x3e2c6957	0.16837059
31	0x3e957590	0.29191256
32	0xbeaa415c	-0.3325299
33	0x3d8df635	0.06931726
34	0x3e870ceb	0.26377043
35	0x3dbafdba	0.09130426
36	0xbedc23c8	-0.4299605
37	0x3dae5ecc	0.08514175
38	0x3e290b86	0.16508302
39	0x3e00f2bd	0.12592597
40	0xbe683ae3	-0.22678714
41	0xbea651ee	-0.32484382
42	0xbe998c31	-0.2998977
43	0x3e078e70	0.1323793
44	0xbe8c5b99	-0.27413633
45	0x3e1d019b	0.15332644
46	0xbeca3cc1	-0.39499477
47	0x3e486031	0.19567944
48	0xbee043b9	-0.43801668
49	0x3da34b4d	0.07973347
50	0x3dd955cd	0.10612068
51	0x3e81ec6c	0.25375688
52	0xbe4ea9f0	-0.20182014
53	0x3e7138b4	0.23556787
54	0x3e192652	0.14956024
55	0xbe6227f4	-0.22085553
56	0xbe970f9b	-0.29504094
57	0x3e2817f4	0.16415387
58	0xbe9496cb	-0.29021296
59	0xbdc697cf	-0.09696924
60	0xbea0d72d	-0.31414166
61	0x3e68db56	0.2273992
62	0x3dc096ae	0.0940374
63	0xbe195fd8	-0.14977968
64	0x3d31856e	0.04334014
65	0xbe8b3504	-0.27188885
66	0x3dbf3ac6	0.09337382
67	0x3e2aac4c	0.16667289
68	0x3dbef578	0.09324163
69	0x3e286b87	0.16447268
70	0x3e014cba	0.12626925
71	0x3e100973	0.14066105
72	0xbeb3123a	-0.34974843
73	0x3dd46eeb	0.103727184
74	0xbe3503f1	-0.17677285
75	0xbe662e9e	-0.2247872
76	0xbe1cf888	-0.15329182
77	0x3df0369a	0.117291644
78	0x3c4bd3b5	0.012440612
79	0xbe441f87	-0.19152652
80	0xbddab0b0	-0.10678232
81	0x3e1dea93	0.15421514
82	0x3e220a9e	0.15824363
83	0x3e90b2d1	0.28261426
84	0xbeba4931	-0.36383966
85	0x3e5b49f2	0.21414927
86	0x3e1b312f	0.15155481
87	0x3e41bfdd	0.18920846
88	0xbea37770	-0.3192706
89	0x3dfa3efe	0.12219046
90	0x3e075a8e	0.13218138
91	0x3deca163	0.115542196
92	0xbe52439a	-0.205336
93	0xbe895596	-0.2682311
94	0xbe8ee88c	-0.27911794
95	0x3e13706a	0.14398351
96	0xbe5c746a	-0.21528783
97	0x3e173b1c	0.14768642
98	0xbecd13cd	-0.4005417
99	0x3e60ef5d	0.2196631
100	0xbeb687d5	-0.35650507
101	0x3df8ded2	0.121518746
102	0x3e23c996	0.15994868
103	0x3e25aaad	0.16178389
104	0xbe9f0ae3	-0.31062993
105	0x3e54b112	0.20770672
106	0x3dbc64cb	0.09198912
107	0xbe7cb699	-0.2467903
108	0xbeaafdaa	-0.33396655
109	0x3dd5d1f0	0.10440433
110	0xbeb5f5ad	-0.35538998
111	0xbe2d63cd	-0.16932602
112	0xbeab3e08	-0.33445764
113	0x3e7b2149	0.24524416
114	0x3c0511b9	0.008121901
115	0xbe977486	-0.29581088
116	0x3d970fb1	0.0737604
117	0xbe727271	-0.23676468
118	0x3e440036	0.19140705
119	0x3ddf97d2	0.10917629
120	0x3db2c6f0	0.087293506
121	0x3dea7f0e	0.11450015
122	0x3dc3cc8e	0.095605
123	0x3de200dc	0.1103532
124	0xbe862830	-0.26202536
125	0x3e427201	0.18988802
126	0xbe71bb49	-0.236066
127	0xbe8e0d58	-0.27744555
128	0xbe455fc4	-0.19274813
129	0x3e17c4c4	0.14821154
130	0x3da0f769	0.0785969
131	0xbe37f9b0	-0.17966342
132	0xbe60a1c8	-0.21936715
133	0x3e3904b8	0.18068206
134	0x3ded26e1	0.11579681
135	0x3e23a68b	0.159815
136	0xbe884a2c	-0.2661909
137	0x3e7a7eb2	0.24462393
138	0x3e25c4ec	0.16188401
139	0x3e3d33b2	0.18476751
140	0xbeb5e7bf	-0.3552837
141	0x3e1cd5d1	0.1531594
142	0x3e4bef02	0.19915393
143	0x3de995f7	0.11405557
144	0xbe5c9ff4	-0.21545392
145	0xbea31014	-0.31848204
146	0xbe84e2e3	-0.2595435
147	0x3deddcce	0.11614381
148	0xbe9deb09	-0.3084338
149	0x3e7c2603	0.24623875
150	0xbeb9e5b1	-0.36308053
151	0x3e12ff3f	0.14355181
152	0xbeccca51	-0.39998105
153	0x3da1dd83	0.07903578
154	0x3d58fbcb	0.052974503
155	0x3e38a80d	0.18032856
156	0x3e3d2ec3	0.1847487
157	0xbe392956	-0.18082175
158	0xbe68dde9	-0.22740902
159	0x3e254cb2	0.16142538
160	0x3eaf123f	0.34193608
161	0xbe4d5ccf	-0.20054935
162	0x3e95b114	0.29236662
163	0x3e4380bb	0.19092076
164	0x3e47789d	0.19479604
165	0xbd8ebf72	-0.06970109
166	0xbe8a68cc	-0.2703308
167	0x3e3b6c58	0.18303049
168	0xbe4e1b91	-0.20127703
169	0x3e6157eb	0.22006194
170	0xbe7f5c24	-0.24937493
171	0xbe6dc476	-0.23219475
172	0xbe38070d	-0.1797144
173	0xbe2f307d	-0.1710834
174	0xbdcca9f8	-0.099933565
175	0xbe452d17	-0.19255482
176	0x3e86c3c9	0.26321247
177	0xbec2be1f	-0.38035676
178	0x3e8a6d2c	0.27036417
179	0x3dde1f1d	0.10845778
180	0x3e35d3c1	0.17756559
181	0xbe7cfaf9	-0.24705113
182	0xbe857d5c	-0.26072204
183	0x3e61af4f	0.22039531
184	0x3e329517	0.17439686
185	0xbea15c9e	-0.31515974
186	0xbe35f621	-0.17769672
187	0xbe919e93	-0.28441295
188	0x3e600fc4	0.21881014
189	0xbe32fe3d	-0.17479797
190	0xbe90c0ea	-0.28272182
191	0xbe712efb	-0.23553078
192	0x3ea576c3	0.3231717
193	0xbe784d35	-0.24248202
194	0xbe90abcb	-0.28256068
195	0xbe8399f2	-0.25703388
196	0x3e4f88da	0.20267048
197	0x3e9faf83	0.31188592
198	0x3e35f8e2	0.17770723
199	0xbe79c472	-0.24391344
200	0x3e20a2e0	0.15687132
201	0xbe664486	-0.22487077
202	0x3e86e88a	0.26349288
203	0xbe995e66	-0.29954833
204	0x3ebd1143	0.36927232
205	0xbe9a7702	-0.3016892
206	0xbe840693	-0.25786266
207	0xbea39bcd	-0.31954804
208	0xbe9b4786	-0.30328006
209	0x3e03a9e6	0.1285778
210	0x3e62b70c	0.2214014
211	0xbe9ced7d	-0.3064994
212	0xbe6d5235	-0.2317589
213	0x3e171ce0	0.14757109
214	0xbeb9d892	-0.36298043
215	0xbe2cb572	-0.16866091
216	0xbec45c1d	-0.38351527
217	0x3e408ecf	0.18804477
218	0x3dee416a	0.116335705
219	0xbeaa483c	-0.33258235
220	0x3d7fbac8	0.062433988
221	0xbe78152b	-0.24226825
222	0x3da0831f	0.07837509
223	0x3e09ab89	0.13444342
224	0x3dff3e74	0.12463084
225	0x3e651825	0.22372492
226	0x3e13b4aa	0.14424387
227	0x3e070d38	0.13188636
228	0xbebbe79b	-0.36700138
229	0x3e02c0b2	0.1276882
230	0xbe9f2618	-0.3108375
231	0xbeb3f786	-0.35149783
232	0xbe69d834	-0.22836381
233	0x3e1d39c1	0.15354063
234	0x3e0db990	0.13840318
235	0xbe83b89f	-0.25726792
236	0xbe3e2f9b	-0.18572848
237	0x3daa9023	0.08328273
238	0x3db78bbd	0.089622
239	0x3e937ddd	0.28806964
240	0xbed7ef64	-0.42174828
241	0x3e2e2506	0.17006311
242	0x3e82550f	0.2545552
243	0x3e1565a3	0.14589553
244	0xbee1a9d2	-0.44074875
245	0x3de993ac	0.11405119
246	0x3e39af60	0.18133307
247	0x3dc69ac3	0.09697487
248	0xbe971f16	-0.29515904
249	0xbeb5e68b	-0.35527453
250	0xbeb683b1	-0.35647348
251	0x3e039980	0.12851524
252	0xbea5bd30	-0.323709
253	0x3e6cf356	0.231397
254	0xbeea78c3	-0.4579526
255	0x3db731d4	0.08945051

fc2.bias f4 [24]
0	0x3d9622a0	0.07330823
1	0x3d7030e3	0.058640372
2	0x3d92aeec	0.0716227
3	0x3e017367	0.12641679
4	0x3d9f68a2	0.07783629
5	0x3d81bd7e	0.06334971
6	0x3d6e413e	0.05816769
7	0x3d77a2a0	0.060457826
8	0x3dd6c409	0.104866095
9	0x3dea047b	0.11426636
10	0x3e132b52	0.14371994
11	0x3de4271a	0.111402705
12	0x3d8843a8	0.066535294
13	0x3d30c064	0.043152228
14	0x3ddcaf1a	0.107755855
15	0x3de1c3bb	0.11023661
16	0x3e09002e	0.13378975
17	0x3d9a92a0	0.07547498
18	0x3dfc9ca7	0.123345666
19	0x3da98ba1	0.08278585
20	0x3d88d89c	0.0668194
21	0x3df62d60	0.12020373
22	0x3dd43f30	0.103636146
23	0x3d238f7b	0.039931756

fc3.weight f4 [1, 24]
0	0x3ef75138	0.48304152
1	0x3f003e39	0.50094944
2	0x3ef4ed13	0.47837123
3	0xbf09e6c3	-0.5386774
4	0x3ee9a79f	0.45635697
5	0x3ef8bc3c	0.4858111
6	0x3ee8e622	0.45488077
7	0x3ef15b1a	0.47139817
8	0xbf13557b	-0.5755231
9	0xbf11ea06	-0.56997716
10	0xbf20b233	-0.6277191
11	0xbf34c8eb	-0.70619076
12	0x3f011bb3	0.5043289
13	0x3ee57047	0.44812223
14	0xbf1d91a4	-0.61550355
15	0xbf4231e7	-0.75857395
16	0xbf177274	-0.59159017
17	0x3efaedef	0.49009654
18	0xbf2c1a16	-0.67227304
19	0x3ed92549	0.4241126
20	0x3ecbeb09	0.39827755
21	0xbf12c3e3	-0.5733015
22	0xbf0989ee	-0.5372609
23	0x3ee74383	0.45168695
