model/cross_validation/hp_nested_cv/checkpoint/c001_c000_44_12_0.0001_32_0.1.pt (torch, 78231 bytes, 5 tensors)

fc1.weight f4 [44, 420]
-0.024964824 0.054808404 0.04550459 0.013113261 0.0018036197 0.022236453 0.010040149 0.037935972
-0.007553049 -0.025429998 0.0068155862 0.025397759 0.021197246 0.044204015 0.011702877 -0.03696323
-0.049054272 -0.05592603 -0.00815319 -0.06815356 -0.0142824035 -0.04321107 0.011770285 0.018803384
0.029478518 0.00012181321 0.001727995 -0.051010296 -0.030083176 0.009943312 -0.0044760397 0.023420105
0.022818748 0.019445153 0.007592286 0.01607716 0.021311592 -0.008794427 0.027393194 0.0036418824
-0.042453036 -0.0019962345 0.030223738 -0.0021950323 -0.022116948 0.014924229 0.042307116 -0.037950367
-0.013451439 -0.0020376644 -0.037910733 -0.023822524 -0.014829927 -0.039725803 0.036518734 0.03141238
0.0069397213 -0.045181446 0.03483739 0.011440246 -0.04208318 -0.024184696 0.036087617 -0.015264218
-0.023066692 0.021651872 0.0048187994 -0.0033617576 0.0053263474 0.024145395 0.0035359552 -0.0048725363
-0.017957278 -0.021876067 0.011739366 0.0064478246 0.013035819 0.029427642 0.0017290227 0.024892919
-0.04019713 -0.00797308 -0.022784581 0.03450821 -0.0581961 0.004478988 -0.007885925 -0.01806748
-0.016175063 0.009655193 -0.10040426 -0.02526379 0.08586316 -0.00941687 0.00710479 -0.037662633
0.018704481 -0.0028112256 0.024395194 -0.0151292905 -0.045043726 0.017079378 -0.007929596 -0.0016758153
0.06478563 0.018209714 0.027608361 0.026195915 -0.01655287 0.019294767 -0.013937092 -0.03714377
0.048406284 0.041800354 0.005409139 -0.024893895 -0.002065857 -0.044375315 -0.027153421 0.030302359
0.00017103362 0.2736205 -0.06538292 -0.07436403 -0.08729217 0.021489417 -0.02027014 -0.032826558
-0.020555284 -0.030791488 -0.11151336 0.021081004 0.35062936 0.020154733 -0.047761653 -0.028659575
0.044725705 -0.012289069 0.0031770025 -0.024824759 0.046436854 0.22914834 0.26526967 0.06326259
-0.10876015 0.14502276 0.05463362 0.0010290906 -0.034707226 0.019267874 0.0061003286 0.18161803
0.2014056 -0.028110718 -0.1939084 -0.12743816 -0.2989482 -0.15201099 -0.12783316 -0.16872744
0.011975914 0.25727233 0.023231478 0.09128064 -0.16823837 0.03810785 -0.109245814 -0.045039352
-0.037400786 -0.015053419 0.03578456 -0.06911279 0.16014203 0.01400047 -0.18050197 0.0031913081
0.035885435 0.024218721 -0.018095821 -0.1664696 -0.03708677 0.2518779 -0.0032027618 -0.027583119
0.006461361 0.007027959 -0.008340543 0.041189436 0.008010219 0.065501526 0.042675916 0.040099777
-0.09852873 0.027503185 -0.025341624 -0.030146169 -0.011549464 0.040172566 0.09875997 0.08938868
-0.00410733 0.22505838 0.069087975 0.035936385 -0.051096216 0.021615148 -0.052000504 -0.036128175
0.0014379254 0.011438763 0.05775808 0.015677629 -0.12910686 0.045979295 -0.09084019 -0.023585051
-0.021811023 -0.056471158 -0.04630018 0.068359226 -0.03468141 0.18638904 0.04457638 0.08642026
-0.12668262 -0.034118958 0.028471783 -0.060265545 0.011801356 -0.06909855 0.031178981 -0.021131318
0.004986357 0.018940134 -0.0931327 0.014013545 -0.017475195 -0.05921949 0.0052902685 0.0072365645
0.0053703575 0.17435716 0.10456298 0.060433272 -0.07640122 0.03607816 -0.100261316 -0.058793463
-0.0009793552 -0.0068157907 -0.0172339 0.054955035 -0.013616013 -0.007616948 -0.027498672 0.004682057
00000000: 0883 ccbc c77e 603d 0563 3a3d 01d9 563c
00000010: 6f67 ec3a 3929 b63c 707f 243c c062 1b3d
00000020: 917f f7bb 9252 d0bc 4855 df3b f60e d03c
00000030: d9a5 ad3c 450f 353d 6cbd 3f3c c266 17bd
00000040: 22ed 48bd b112 65bd f594 05bc 1894 8bbd
00000050: be00 6abc 17fe 30bd 27d8 403c 8e09 9a3c
00000060: ef7c f13c f875 ff38 e47d e23a 2cf0 50bd
00000070: fe70 f6bc 46e9 223c beab 92bb 85db bf3c
00000080: 62ee ba3c 714b 9f3c b6c8 f83b 40b4 833c
00000090: a695 ae3c 8016 10bc b167 e03c a6ac 6e3b
000000a0: 3ce3 2dbd 42d3 02bb c697 f73c 88da 0fbb
000000b0: 9a2e b5bc c184 743c 3a4a 2d3d d871 1bbd
000000c0: 6d63 5cbc 568a 05bb 4948 1bbd 7427 c3bc
000000d0: 39f9 72bc 86b7 22bd ab94 153d 45aa 003d
000000e0: 9a66 e33b 2e10 39bd a7b1 0e3d df6f 3b3c
000000f0: 6a5f 2cbd fc1e c6bc 9cd0 133d c516 7abc
00000100: 5cf6 bcbc 445f b13c 05e7 9d3b ef50 5cbb
00000110: a488 ae3b 90cc c53c 7cbb 673b cca9 9fbb
00000120: 241b 93bc 7035 b3bc 7856 403c 4648 d33b
00000130: 3094 553c 3d12 f13c 60a0 e23a 3cec cb3c
00000140: bfa5 24bd 85a1 02bc bba6 babc 7b58 0d3d
00000150: 095f 6ebd 79c4 923b f733 01bc 4002 94bc
00000160: 9181 84bc d130 1e3c c0a0 cdbd 02f6 cebc
00000170: 06d9 af3d 3749 1abc 4ccf e83b 2244 1abd
00000180: 243a 993c 8a3c 38bb 6ed8 c73c d8e0 77bc
00000190: c57f 38bd 0dea 8b3c 23eb 01bc 08a7 dbba
000001a0: 54ae 843d 8a2c 953c ee2a e23c d198 d63c
000001b0: e299 87bc 0f10 9e3c 6758 64bc 1124 18bd
000001c0: ab45 463d d936 2b3d 263f b13b 48ee cbbc
000001d0: 5463 07bb e4c2 35bd da70 debc a73c f83c
000001e0: 7d57 3339 fc17 8c3e 7be7 85bd 2b4c 98bd
000001f0: 3dc6 b2bd 930a b03c 910d a6bc 2475 06bd
00000200: 8e63 a8bc 6e3e fcbc 1e61 e4bd 12b2 ac3c
00000210: b185 b33e 8a1b a53c b9a1 43bd 7cc7 eabc
00000220: 4d32 373d 1758 49bc 4235 503b 4b5d cbbc
00000230: 9234 3e3d dda5 6a3e 6dd1 873e d18f 813d
00000240: a4bd debd d980 143e 81c7 5f3d 8de2 863a
00000250: 2a29 0ebd a9d7 9d3c 44e5 c73b 14fa 393e
00000260: 453d 4e3e 7348 e6bc ec8f 46be 267f 02be
00000270: bd0f 99be c5a8 1bbe b2e6 02be e3c6 2cbe
00000280: a036 443c 33b9 833e f14f be3c 58f1 ba3d
00000290: ae46 2cbe fa16 1c3d 45bc dfbd 2f7b 38bd
000002a0: 9131 19bd 9ea2 76bc d592 123d 028b 8dbd
000002b0: 46fc 233e 3a62 653c 82d5 38be 4425 513b
000002c0: 9bfc 123d 5766 c63c b03d 94bc 0277 2abe
000002d0: 4ce8 17bd 24f6 803e 6de5 51bb fef5 e1bc
000002e0: d3b9 d33b cb4a e63b c6a6 08bc 41b6 283d
000002f0: 4b3d 033c aa25 863d f1cc 2e3d aa3f 243d
00000300: 6ec9 c9bd 5c4e e13c 3d99 cfbc 19f5 f6bc
00000310: f739 3dbc fd8b 243d ab42 ca3d 6a11 b73d
00000320: c896 86bb b475 663e ff7d 8d3d 0832 133d
00000330: 444a 51bd 4012 b13c 7bfe 54bd 23fb 13bd
00000340: c578 bc3a a669 3b3c bd93 6c3d 5f6e 803c
00000350: 9734 04be c954 3c3d 6c0a babd 7035 c1bc
00000360: 08ad b2bc 4d4e 67bd 42a5 3dbd ecff 8b3d
00000370: 180e 0ebd c5dc 3e3e b995 363d 1bfd b03d
00000380: 17b9 01be 52c0 0bbd a83d e93c 01d9 76bd
00000390: 7a5a 413c 8a83 8dbd 106b ff3c 961b adbc
000003a0: 9864 a33b 5728 9b3c 5bbc bebd 1199 653c
000003b0: 2428 8fbc 2390 72bd fd59 ad3b b420 ed3b
000003c0: d3f9 af3b af8a 323e 1e25 d63d e188 773d
000003d0: 3e78 9cbd b1c6 133d ce55 cdbd 6ad1 70bd
000003e0: b55d 80ba ff56 dfbb 1c2e 8dbc 8818 613d
000003f0: b315 5fbc 9797 f9bb e544 e1bc f16b 993b

fc1.bias f4 [44]
-0.055200633 -0.060043897 -0.02435988 -0.09480597 -0.102369756 -0.041137625 -0.050727975 -0.026555495
-0.058067083 -0.13185295 -0.05234392 -0.055958595 0.00581261 -0.036008406 -0.022230402 0.0061240178
-0.09608347 -0.091213405 -0.09195471 -0.06805406 -0.08121472 -0.035335734 -0.07860245 -0.06079919
0.006025799 -0.07357419 -0.045045316 -0.002292261 -0.08551124 -0.063784815 -0.11365216 -0.057354596
-0.07663012 -0.052774314 -0.0835277 -0.07546861 -0.060504887 -0.041989725 -0.04471968 -0.0067785433
-0.0071452465 -0.10612784 -0.054485094 -0.06235209
00000000: 0f1a 62bd 97f0 75bd 5f8e c7bc a229 c2bd
00000010: 3ca7 d1bd ed7f 28bd 23c8 4fbd e98a d9bc
00000020: c0d7 6dbd 7604 07be 9466 56bd d734 65bd
00000030: b577 be3b 8d7d 13bd 881c b6bc fcab c83b
00000040: 69c7 c4bd 18ce babd c052 bcbd ed5f 8bbd
00000050: e753 a6bd 34bc 10bd 52fa a0bd 9208 79bd
00000060: 1174 c53b 11ae 96bd 7081 38bd c239 16bb
00000070: 8420 afbd 9da1 82bd 77c2 e8bd a7ec 6abd
00000080: 41f0 9cbd e129 58bd 9210 abbd 498f 9abd
00000090: f9d3 77bd 6bfd 2bbd fc2b 37bd 8b1e debb
000000a0: ac22 eabb 8e59 d9bd c32b 5fbd e864 7fbd

fc2.weight f4 [12, 44]
0.27760857 -0.30138603 -0.23086333 0.076038286 -0.3773449 0.28400952 -0.28467914 0.23302247
0.20570529 0.3810041 -0.41102222 0.22487397 0.14963757 0.2104768 -0.31358114 0.25872564
-0.14269216 0.3727222 0.33042073 0.26303348 0.25865683 0.16122726 -0.30065265 0.27874905
0.20613205 -0.2885416 0.3104153 0.21412589 -0.3605292 -0.36963633 -0.31655526 -0.41379434
0.28228688 0.33605617 0.29512298 0.27945018 0.23711999 -0.30550024 0.19758163 0.19776489
0.20462658 -0.3360037 0.21977942 0.16577409 -0.41739163 0.29232058 0.29537573 0.15067717
0.26630893 -0.4805995 0.24237405 -0.6467216 -0.4817605 -0.4704651 0.29606998 -0.32640865
-0.4787889 -0.2915482 0.14029898 -0.40147284 0.29791477 -0.56986916 -0.41784194 -0.40761307
-0.24929284 -0.50345725 0.22184622 -0.51098144 -0.443474 0.2395305 -0.3685351 -0.6161226
0.23953243 0.25306562 0.32745287 0.32687804 -0.48895136 -0.45911524 -0.5104968 -0.48899654
-0.46278033 0.24739882 -0.488092 -0.5027913 -0.56365955 0.26962987 -0.52712804 -0.47154436
-0.36070323 0.22828235 0.268311 0.14424717 0.26870322 -0.36567795 0.24456692 -0.5082068
-0.37692836 -0.42977685 0.25315613 -0.3220927 -0.33477572 -0.3546751 0.19458158 -0.36491904
0.27264103 -0.42820522 -0.38593248 -0.3573382 -0.2190446 -0.3045165 0.15689124 -0.36978924
-0.46844512 0.18029155 -0.3313792 -0.5461933 0.30850995 0.1940321 0.30989072 0.30511597
-0.29154253 -0.37878174 -0.4576424 -0.41555423 -0.4320787 0.21653324 -0.41605404 -0.37803036
-0.36854196 0.2701282 -0.502369 -0.4103585 0.229466 -0.30356425 -0.2637435 0.071952716
-0.3573402 0.2670277 -0.3470626 0.31124386 0.21978234 0.41626164 -0.45153964 0.28082886
0.15344957 0.18133512 -0.31968927 0.24857539 -0.11215458 0.31563303 0.28089127 0.12231405
0.25959024 0.14981243 -0.28699097 0.2390421 0.18169421 -0.30463985 0.22775492 0.2047076
-0.33209094 -0.33277664 -0.3342232 -0.35185117 0.23323631 0.28182548 0.2576401 0.25796172
0.24217834 -0.34069017 0.20756587 0.14256744 0.18650798 -0.38288736 0.1952073 0.22733448
0.26031226 -0.37896714 -0.26834226 0.055606127 -0.4189514 0.28935227 -0.3867158 0.25888604
0.23902614 0.36085618 -0.43373233 0.26864326 0.10963963 0.20544188 -0.3879449 0.20455043
-0.12217932 0.3474147 0.31444526 0.22449107 0.22544684 0.14798152 -0.34663513 0.28963932
0.15445405 -0.40754467 0.27401167 0.22371121 -0.40368274 -0.47549212 -0.31985432 -0.3828896
0.21529394 0.30515897 0.27651814 0.2553981 0.26816717 -0.38636747 0.1939296 0.19305718
0.25255892 -0.4240726 0.25663823 0.23037696 0.2832118 -0.24490604 -0.23379004 0.09050281
-0.34072468 0.24086393 -0.30497447 0.28803232 0.25191912 0.4231885 -0.35156453 0.2727985
0.16127855 0.24602976 -0.31720084 0.23233789 -0.117819965 0.22183172 0.28539616 0.23406744
0.2694532 0.109169036 -0.32586253 0.2655431 0.15647312 -0.3341838 0.29267916 0.21330987
-0.27133492 -0.3499161 -0.24573459 -0.3096494 0.29090106 0.26406997 0.31446525 0.25454685
00000000: b622 8e3e 454f 9abe 7067 6cbe f6b9 9b3d
00000010: 5a33 c1be b269 913e 77c1 91be 719d 6e3e
00000020: 68a4 523e f812 c33e 8171 d2be 5d45 663e
00000030: 973a 193e 3b87 573e b58d a0be b077 843e
00000040: e51d 12be 72d5 be3e e82c a93e 53ac 863e
00000050: ab6e 843e c218 253e 25ef 99be 32b8 8e3e
00000060: 4814 533e b9bb 93be c1ee 9e3e d143 5b3e
00000070: 4997 b8be f940 bdbe 8813 a2be dadc d3be
00000080: e887 903e 8e0f ac3e 5c1a 973e 1814 8f3e
00000090: 95cf 723e 876a 9cbe d752 4a3e e182 4a3e
000000a0: a189 513e ad08 acbe db0d 613e afc0 293e
000000b0: 5bb4 d5be 0bab 953e 7d3b 973e 1e4b 1a3e
000000c0: a559 883e 2311 f6be e730 783e 8c8f 25bf
000000d0: 50a9 f6be cde0 f0be 7c96 973e 091f a7be
000000e0: d223 f5be ce45 95be 89aa 0f3e d98d cdbe
000000f0: 4988 983e f2e2 11bf 61ef d5be a9b2 d0be
00000100: 9f46 7fbe 93e2 00bf a82b 633e aecf 02bf
00000110: 060f e3be 7c47 753e a2b0 bcbe 36ba 1dbf
00000120: fd47 753e d191 813e e7a7 a73e 8f5c a73e
00000130: d557 fabe 2711 ebbe ebaf 02bf c15d fabe
00000140: 8bf1 ecbe 1e56 7d3e 32e7 f9be eeb6 00bf
00000150: fe4b 10bf ed0c 8a3e ddf1 06bf 436e f1be
00000160: 18ae b8be d9c2 693e 0f60 893e 88b5 133e
00000170: 7893 893e 243a bbbe c06f 7a3e d719 02bf
00000180: c1fc c0be b60b dcbe ae9d 813e 56e9 a4be
00000190: b967 abbe fa97 b5be 6540 473e abd6 babe
000001a0: 9b97 8b3e b73d dbbe f198 c5be 08f5 b6be
000001b0: 3a4d 60be 96e9 9bbe 19a8 203e 0455 bdbe
000001c0: 0ad8 efbe 599e 383e 89aa a9be 53d3 0bbf
000001d0: 04f5 9d3e 5ab0 463e ffa9 9e3e 2938 9c3e
000001e0: 1045 95be aeef c1be 1b50 eabe 86c3 d4be
000001f0: 6b39 ddbe e4ba 5d3e 0905 d5be 328d c1be
00000200: 88b1 bcbe 3e4e 8a3e 419b 00bf 821a d2be
00000210: 23f9 6a3e c66c 9bbe 6309 87be f25b 933d
00000220: 4bf5 b6be dbb7 883e 30b2 b1be 5b5b 9f3e
00000230: 9f0e 613e 3f20 d53e 3430 e7be cdc8 8f3e
00000240: e221 1d3e eaaf 393e 50ae a3be 8c8a 7e3e
00000250: 4db1 e5bd a79a a13e fbd0 8f3e ca7f fa3d
00000260: 03e9 843e 6e68 193e 7bf0 92be 74c7 743e
00000270: 0c0e 3a3e c1f9 9bbe 9638 693e de9e 513e
00000280: d307 aabe b361 aabe 4e1f abbe d625 b4be
00000290: 80d5 6e3e 6e4b 903e 67e9 833e 8f13 843e
000002a0: 99fd 773e f16e aebe 268c 543e 33fd 113e
000002b0: f3fb 3e3e d009 c4be 6ce4 473e 5fca 683e
000002c0: a647 853e fb07 c2be 2864 89be 40c3 633d
000002d0: cc80 d6be fb25 943e 9dff c5be b68c 843e
000002e0: 45c3 743e 24c2 b83e 2a12 debe 9c8b 893e
000002f0: be8a e03d 5b5f 523e b7a0 c6be ab75 513e
00000300: 2739 fabd 57e0 b13e f8fe a03e fde0 653e
00000310: 89db 663e 7888 173e 297a b1be 9b4b 943e
00000320: 3429 1e3e b2a9 d0be 424b 8c3e 8d14 653e
00000330: 81af cebe b473 f3be f2c3 a3be 1b0a c4be
00000340: 0476 5c3e cc3d 9c3e c993 8d3e 8ac3 823e
00000350: 354d 893e f5d1 c5be 7b95 463e c8b0 453e
00000360: 674f 813e 0b20 d9be 1666 833e f0e7 6b3e
00000370: 2301 913e a6c8 7abe a866 6fbe 8a59 b93d
00000380: 7773 aebe 09a5 763e 9d25 9cbe f978 933e
00000390: 8bfb 803e 2aac d83e 4400 b4be 3fac 8b3e
000003a0: 3426 253e 3aef 7b3e 2668 a2be fce9 6d3e
000003b0: 984b f1bd db27 633e 721f 923e 60af 6f3e
000003c0: c5f5 893e 0494 df3d 74d7 a6be 44f5 873e
000003d0: 7d3a 203e 241a abbe 0bda 953e e76d 5a3e
000003e0: 69ec 8abe 3428 b3be d9a1 7bbe 5e8a 9ebe
000003f0: fcf0 943e 2e34 873e 9701 a13e f753 823e

fc2.bias f4 [12]
0.05573853 0.12511395 0.1192505 0.046643667 0.054444596 0.0473681 0.06384533 0.07156973
0.12998278 0.052008927 0.14406733 0.049743697
00000000: 164e 643d df1d 003e 9b39 f43d 6e0d 3f3d
00000010: 4c01 5f3d 0e05 423d 57c1 823d 2793 923d
00000020: 351a 053e 5007 553d 6386 133e 0cc0 4b3d

fc3.weight f4 [1, 12]
-0.7281141 0.8149126 0.87554693 -0.76467216 -0.72312874 -0.7285728 -0.77736497 -0.62853265
0.9587207 -0.7295081 0.8556667 -0.6846064
00000000: b065 3abf 1d9e 503f d823 603f 8ec1 43bf
00000010: f71e 39bf bf83 3abf 6401 47bf 84e7 20bf
00000020: b86e 753f 0bc1 3abf f90c 5b3f 5d42 2fbf
