model/cross_validation/hp_nested_cv/checkpoint/c001_c003_52_12_0.001_32_0.3.pt (torch, 92119 bytes, 5 tensors)

fc1.weight f4 [52, 420]
0	0x3e8ee931	0.27912286
1	0xbe0a46d7	-0.13503586
2	0x3e0fd672	0.14046648
3	0x3cc0511f	0.023476182
4	0xbe08524f	-0.13312648
5	0xbd6ad733	-0.057334136
6	0xbded596b	-0.11589321
7	0xbc43a3c5	-0.011940901
8	0x3dcaaaf4	0.09895888
9	0x3e4cbda2	0.19994214
10	0xbd9fb6d0	-0.077985406
11	0x3e3cec1c	0.18449444
12	0x3d6ae2a3	0.057345044
13	0xbdeb95e5	-0.115031995
14	0xbd98f992	-0.07469477
15	0xbe2e2c88	-0.17009175
16	0xbe0c6061	-0.1370864
17	0xbed7c44f	-0.4214196
18	0xbaf1e701	-0.0018455685
19	0xbe732b09	-0.23746885
20	0xbdf7270d	-0.12067995
21	0x3ebe90d8	0.37219882
22	0xbe975b35	-0.29561773
23	0x3db62701	0.08894158
24	0x3e976dec	0.2957605
25	0x3dc62c94	0.09676471
26	0x3d4e4d09	0.050366435
27	0x3d27707a	0.04087875
28	0x3ddbb608	0.10728079
29	0xbd170f31	-0.036879722
30	0x3e819d71	0.2531543
31	0x3d0ec7a2	0.034858353
32	0x3d99fbce	0.07518731
33	0xbeb1f19c	-0.34754646
34	0x3b1f2eaf	0.00242893
35	0xbe9946cb	-0.29936823
36	0xbdc92234	-0.09820977
37	0xbe25c11c	-0.16186947
38	0x3dd26c3d	0.10274551
39	0xbe8321fd	-0.25611869
40	0xbdd160c3	-0.10223534
41	0x3dd4b367	0.10385781
42	0x3d10b929	0.035332832
43	0xbd9008aa	-0.070329025
44	0xbdcdb220	-0.1004374
45	0xbde67484	-0.11252692
46	0x3eda3573	0.42618904
47	0x3d38d038	0.045120448
48	0xbea879a7	-0.32905313
49	0xbe79b924	-0.24387032
50	0xbd6ca73f	-0.057776686
51	0x3d266094	0.040619448
52	0xbcd3e576	-0.025866251
53	0xbd932077	-0.071839266
54	0x3df7577c	0.12077233
55	0x3c2e1b72	0.010626661
56	0x3e4c0f69	0.19927754
57	0x3a6f02f0	0.0009117564
58	0x3e282802	0.16421512
59	0xbe0539e2	-0.13010362
60	0xbe231034	-0.1592415
61	0x3e15f245	0.146432
62	0xbe712e40	-0.23552799
63	0xbe381b43	-0.1797915
64	0x3df77b04	0.1208401
65	0xbd34e2a9	-0.044161472
66	0xbea05b97	-0.31319878
67	0x3e9074b7	0.28214046
68	0x3de5fa44	0.11229375
69	0xbe18f79b	-0.14938204
70	0x3e8648e6	0.26227492
71	0x3d6ea517	0.05826291
72	0xbd5931fa	-0.053026177
73	0xbea459ac	-0.32099664
74	0x3e47d09a	0.19513169
75	0x3d4886d9	0.048956726
76	0xbd05d1bf	-0.032670733
77	0x3d478d38	0.04871866
78	0x3e8bf09a	0.27332002
79	0x3de35eab	0.11102041
80	0x3dd9464e	0.10609113
81	0xbda6ca9c	-0.081441134
82	0xbe201173	-0.15631656
83	0x3d419577	0.04726168
84	0xbe43baf8	-0.19114292
85	0xbe93af21	-0.2884455
86	0x3ea0dafb	0.3141707
87	0xbb6de076	-0.003629712
88	0xbee5eaae	-0.4490561
89	0x3de5fb9b	0.112296306
90	0xbe8e1f77	-0.2775838
91	0x3d9d79cc	0.076892465
92	0x3d06f03e	0.032943957
93	0x3d74fd4b	0.05981187
94	0xbd9a73f0	-0.075416446
95	0x3e45b916	0.19308886
96	0x3e86c7cf	0.26324317
97	0x3e341500	0.17586136
98	0x3d4c1bf8	0.04983136
99	0xbeca8be0	-0.3955984
100	0xbe0c7c0c	-0.13719195
101	0xbe97016e	-0.29493278
102	0xbea6bd89	-0.3256648
103	0x3c4c8055	0.012481769
104	0x3e695985	0.22788055
105	0xbdffdacd	-0.12492905
106	0xbd8e85dc	-0.069591254
107	0x3d257f90	0.040404856
108	0x3e5d4f2f	0.21612237
109	0xbec22a69	-0.3792298
110	0xbddba651	-0.10725082
111	0x3e6c940e	0.23103353
112	0x3df95502	0.12174417
113	0xbdc19f4b	-0.09454211
114	0xbdd87275	-0.10568706
115	0x3e0e0799	0.13870086
116	0xbe5ad711	-0.21371104
117	0x3e6225b5	0.22084697
118	0x3db9839d	0.09058306
119	0x3dbd6166	0.09247093
120	0xbb92272c	-0.004460236
121	0x3fa5dc2a	1.2957814
122	0xbeeeaae6	-0.4661476
123	0xbf2264bb	-0.6343495
124	0xbc942e85	-0.018088588
125	0x3d9f930e	0.0779172
126	0xbe3c3ab6	-0.18381771
127	0x3e044739	0.12917794
128	0xbe9ff302	-0.31240088
129	0x3e66aa67	0.22525941
130	0x3e4d2a65	0.20035703
131	0x3e4e6371	0.20155121
132	0xbdc3f413	-0.09568038
133	0x3e91100c	0.28332555
134	0x3da5b5e7	0.08091336
135	0xbdbbecf0	-0.091760516
136	0xbe82dd1a	-0.25559312
137	0xbe7be972	-0.24600771
138	0x3f1e25fe	0.6177672
139	0x3e78962d	0.24276038
140	0xbe1cb86f	-0.15304731
141	0x3f898a2b	1.074529
142	0x3baa2bd4	0.005193213
143	0xbdbc80b6	-0.09204237
144	0xbf1a1f96	-0.60204446
145	0x3e0d983d	0.13827606
146	0xbdf52769	-0.119704075
147	0x3e99ad8f	0.30015227
148	0xbe73b61b	-0.23799936
149	0xbe12c215	-0.14331849
150	0xbdb8c3d4	-0.09021726
151	0x3e890195	0.2675902
152	0xbe8b13de	-0.27163595
153	0x3db697d8	0.08915681
154	0xbf1ab9cb	-0.6043975
155	0x3eb074bc	0.3446406
156	0x3ebeac10	0.37240648
157	0x3e93df90	0.28881502
158	0x3f11f104	0.57008386
159	0xbec10cec	-0.3770517
160	0xbe812912	-0.25226647
161	0x3eee5218	0.46547008
162	0xbebbe6c3	-0.36699495
163	0x3e635d4b	0.22203557
164	0x3eb451a8	0.3521855
165	0x3d23f822	0.04003156
166	0xbe2eada2	-0.17058423
167	0xbcec057d	-0.02881121
168	0xbed1c3b1	-0.40969613
169	0xbca5a62e	-0.020220842
170	0x3e5b7706	0.21432123
171	0x3e49b5d1	0.19698264
172	0x3d7e3c85	0.062069435
173	0x3ed6bb10	0.41939592
174	0xbe5ff16f	-0.21869443
175	0xbe2e4b0b	-0.17020814
176	0x3dab4143	0.08362057
177	0xbe811c1c	-0.25216758
178	0x3e945007	0.28967306
179	0xbec385e2	-0.38188082
180	0x3ceffc5a	0.029295135
181	0x3f09e297	0.53861374
182	0xbdba4738	-0.09095615
183	0xbea9c234	-0.33155978
184	0xbe5c0130	-0.21484828
185	0xbe22211e	-0.15832946
186	0x3e298b13	0.16556959
187	0xbe792866	-0.24331817
188	0xbef63eae	-0.48094696
189	0xbe1ca1ec	-0.15296143
190	0x3f0b4a89	0.54410607
191	0xbd468abd	-0.048472155
192	0xbdaf2088	-0.08551127
193	0x3db2a7f8	0.08723444
194	0xbc91273a	-0.0177189
195	0x3e61a45d	0.22035356
196	0x3e216e86	0.15764818
197	0x3d62740f	0.055286463
198	0x3e670a4a	0.22562519
199	0x3ec87197	0.39149162
200	0xbe87b4fb	-0.26505265
201	0x3eb26a3a	0.3484667
202	0xbd5708f5	-0.052498776
203	0xbe992224	-0.2990886
204	0x3e0ebe37	0.13939749
205	0xbf16018b	-0.58596104
206	0xbd21ad61	-0.039471988
207	0x3cd0d2ba	0.025491107
208	0xbe2d50dc	-0.16925377
209	0x3e7955de	0.24349162
210	0x3eda37c3	0.42620668
211	0xbde71992	-0.11284174
212	0xbe4e347d	-0.2013721
213	0x3ea32077	0.31860706
214	0x3e3a869b	0.1821541
215	0xbe84e7c3	-0.2595807
216	0xba799de9	-0.00095221266
217	0x3de346f0	0.11097515
218	0x3c695b16	0.014242908
219	0x3e326da6	0.1742464
220	0x3b810edc	0.003938539
221	0x3ef9f825	0.48822132
222	0x3df5c336	0.12000124
223	0xbd28d169	-0.041215334
224	0xbd49cd1f	-0.049267884
225	0x3e7cffe4	0.2470699
226	0x3c2a924e	0.010410858
227	0xbe21d9bd	-0.15805717
228	0xbcb2dc7a	-0.021833647
229	0x3e91c952	0.28473908
230	0xbcb1b431	-0.021692367
231	0xbdc1074a	-0.094252184
232	0xbe2d252f	-0.16908716
233	0xbe9fadd8	-0.3118732
234	0xbe2d3472	-0.16914538
235	0xbd6d2fbe	-0.05790686
236	0xbe05a146	-0.13049802
237	0xbdf5f646	-0.120098636
238	0x3ec7a8d7	0.38996002
239	0x3ddd24b4	0.10798016
240	0x3e99c1fe	0.30030817
241	0x3f87f933	1.0622925
242	0x3df9aa27	0.12190657
243	0xbdbd0a0d	-0.09230433
244	0x3e8b64dc	0.27225387
245	0x3e9fdf4b	0.31225047
246	0xbeec59d8	-0.46162295
247	0xbf68a9e1	-0.90884215
248	0x3e671727	0.22567426
249	0xbe9c05a2	-0.30473047
250	0xbe0368cf	-0.1283295
251	0x3ebe2da5	0.371442
252	0x3d70078d	0.05860095
253	0xbd667c07	-0.056270625
254	0xbe4c47d3	-0.19949274
255	0xbda2832a	-0.07935174

fc1.bias f4 [52]
0	0xbe9a5fe5	-0.30151287
1	0xbe51a4ab	-0.20472972
2	0xbe93a52c	-0.28836954
3	0xbe218842	-0.15774634
4	0xbd84fbf9	-0.064933725
5	0xbde515cc	-0.11185798
6	0xbe073805	-0.13204964
7	0xbeb54577	-0.3540456
8	0xbe8b73a0	-0.27236652
9	0xbee67fe0	-0.45019436
10	0xbe85feb5	-0.2617089
11	0xbe34e3de	-0.1766505
12	0xbe967bdd	-0.29391375
13	0xbdba8c75	-0.09108821
14	0xbed125c6	-0.4084913
15	0xbe05a764	-0.13052136
16	0xbeb6678d	-0.35625878
17	0xbec335a8	-0.38126874
18	0xbe2f930c	-0.17145938
19	0xbeb8d53e	-0.3610019
20	0xbdca606b	-0.098816715
21	0xbdebd799	-0.11515731
22	0xbe98fdfb	-0.29881272
23	0xbe286c43	-0.16447549
24	0xbec8f3ab	-0.39248404
25	0xbe7a32d0	-0.24433446
26	0xbe274366	-0.16334304
27	0xbd2ea2b5	-0.04263564
28	0xbd3d9e13	-0.04629333
29	0xbe53a619	-0.2066883
30	0xbeab214c	-0.3342384
31	0xbe8131af	-0.25233218
32	0xbdff09d1	-0.12453044
33	0xbe51307a	-0.20428649
34	0xbef4cf79	-0.4781454
35	0xbe2c469c	-0.1682381
36	0xbe84f91a	-0.259713
37	0xbe84bde8	-0.25926137
38	0xbebb23c4	-0.36550725
39	0xbe25d21c	-0.16193432
40	0xbc683d72	-0.014174806
41	0xbe6369fd	-0.222084
42	0xbd6f5e3b	-0.058439475
43	0xbdbfdcf8	-0.09368318
44	0xbd86c623	-0.0658076
45	0xbe90e462	-0.28299242
46	0xbe995c2d	-0.29953137
47	0xbeba95e5	-0.36442485
48	0xbec69438	-0.38784957
49	0xbdacf484	-0.08445075
50	0xbe83df8c	-0.2575649
51	0xbe2e86d1	-0.17043616

fc2.weight f4 [12, 52]
0	0x3e1ab741	0.15108968
1	0x3e00ffe3	0.12597613
2	0x3e4538e7	0.19259988
3	0xbe92a611	-0.28642324
4	0x3e03e26f	0.12879346
5	0xbe59a5fc	-0.21254724
6	0xbe6d2c63	-0.23161463
7	0xbe934afa	-0.2876814
8	0x3e01717a	0.12640944
9	0x3e8b2701	0.27178195
10	0x3e3f8703	0.18703847
11	0xbee98a7c	-0.45613468
12	0x3e91a0ca	0.28442985
13	0xbe53a8c2	-0.20669845
14	0xbe8f629e	-0.28004926
15	0xbe9465af	-0.28983828
16	0x3e8b909b	0.27258763
17	0x3e67e1ff	0.22644804
18	0xbec617e2	-0.38690096
19	0xbed2d408	-0.41177392
20	0x3e30c60e	0.17263052
21	0xbf0b319d	-0.5437258
22	0xbebf2312	-0.37331444
23	0xbea7e75c	-0.327937
24	0x3e6fdecc	0.23424834
25	0x3e6c62f1	0.23084618
26	0x3e240f7e	0.16021535
27	0xbeb2ce78	-0.34923148
28	0xbe939036	-0.28820962
29	0x3e9ca886	0.30597323
30	0x3e113f3b	0.14184277
31	0x3e7a8700	0.24465561
32	0xbeb391e2	-0.35072237
33	0x3eb09bce	0.3449387
34	0x3e88e233	0.26735076
35	0xbed917ff	-0.4240112
36	0xbe884041	-0.26611522
37	0xbe99ff2a	-0.30077487
38	0x3e751506	0.23933801
39	0xbef47434	-0.47744906
40	0xbf1a52c1	-0.6028252
41	0xbe9c9016	-0.3057868
42	0xbedb13c2	-0.42788512
43	0xbe81961d	-0.2530984
44	0xbee53d00	-0.44773102
45	0x3de9b0a7	0.11410647
46	0x3e675246	0.22589979
47	0xbf31ebe6	-0.6950058
48	0x3eb48d48	0.3526404
49	0xbee94a3b	-0.45564446
50	0x3e421755	0.18954213
51	0x3e196751	0.14980818
52	0xbe589058	-0.21148813
53	0xbeacae64	-0.337268
54	0xbf0db926	-0.5536064
55	0x3e0bd830	0.13656688
56	0xbe96e045	-0.2946798
57	0x3e5fef86	0.21868715
58	0x3e5ee4d7	0.21766983
59	0x3e817a48	0.25288606
60	0xbea1a69a	-0.3157242
61	0xbf1d16e3	-0.6136305
62	0xbe8a5d8d	-0.270245
63	0x3f033e92	0.5126735
64	0xbea9fe04	-0.3320161
65	0x3e2e3b30	0.17014766
66	0x3eba5fbc	0.36401165
67	0x3dd25028	0.10269195
68	0xbec83dfc	-0.3910979
69	0xbf186793	-0.5953304
70	0x3e45be01	0.19310762
71	0x3eae9b2e	0.34102768
72	0xbe87506d	-0.26428548
73	0x3de37150	0.11105597
74	0x3e42a2e1	0.19007446
75	0x3dcf9501	0.10135842
76	0xbf1c15cf	-0.6097078
77	0xbf2c54c0	-0.6731682
78	0xbe6fdb05	-0.23423393
79	0x3dc7c9b5	0.097552694
80	0x3da1ff13	0.0790998
81	0xbf29e64d	-0.66367036
82	0xbefece82	-0.49766928
83	0xbf22b3ec	-0.6355579
84	0x3e46b8dc	0.19406456
85	0xbedee1c5	-0.43531623
86	0xbee6a40a	-0.45047027
87	0x3e5c3049	0.21502794
88	0x3ea8ace9	0.3294442
89	0x3e808517	0.2510154
90	0xbf094358	-0.53618383
91	0x3e70a10a	0.23498932
92	0x3e0e8974	0.13919622
93	0x3e84ec32	0.25961453
94	0x3df2fbd6	0.1186444
95	0x3e6b8ef5	0.23003753
96	0x3e3568e9	0.17715801
97	0xbf007fa9	-0.50194794
98	0xbeb27f2f	-0.34862658
99	0x3f02aaac	0.51041675
100	0xbede32d7	-0.43398163
101	0x3e6ce0a0	0.23132563
102	0xbee87bff	-0.45407102
103	0xbedc5d83	-0.43040094
104	0xbee6cca9	-0.45078018
105	0xbe937557	-0.2880046
106	0xbea3d488	-0.31998086
107	0x3e15d958	0.14633691
108	0xbf0aa1a7	-0.5415291
109	0x3df9284e	0.12165891
110	0x3df84fd3	0.121246
111	0x3e6f8fb3	0.2339466
112	0xbec7642a	-0.38943607
113	0xbec48a2c	-0.38386667
114	0xbee3b5e7	-0.44474718
115	0x3ec321c1	0.3811169
116	0xbeb7099a	-0.35749513
117	0x3def7dbd	0.116939045
118	0x3ef1906d	0.471805
119	0x3d93d522	0.07218386
120	0xbec6e74b	-0.38848338
121	0xbea8ddad	-0.32981625
122	0x3e6d23ec	0.23158234
123	0x3e4f9393	0.20271139
124	0xbecf0e34	-0.40440524
125	0x3e313e22	0.17308858
126	0x3e821847	0.25409147
127	0x3df6b32b	0.12045892
128	0xbec40ed9	-0.38292578
129	0xbf61f9c3	-0.8827173
130	0xbe8c0bc0	-0.27352715
131	0x3de0a241	0.109684475
132	0x3e0c706a	0.13714758
133	0xbf63bfe8	-0.889647
134	0xbe9b3552	-0.30314118
135	0xbee17293	-0.44032726
136	0x3e38cd32	0.18047026
137	0xbeea64eb	-0.4578012
138	0xbf31133f	-0.6916999
139	0x3e2214ec	0.15828294
140	0x3e933b96	0.28756398
141	0x3e24d2a1	0.16095974
142	0xbf01ad7b	-0.50655335
143	0x3e6ac45e	0.2292647
144	0x3e0ae13f	0.13562487
145	0x3e55fda0	0.20897532
146	0x3e34b190	0.1764586
147	0x3e0c315e	0.13690707
148	0x3e313252	0.17304352
149	0xbf0103d4	-0.50396466
150	0xbec6c744	-0.38823903
151	0x3ed18c94	0.40927565
152	0xbf0905c6	-0.53524435
153	0x3c79964c	0.0152335875
154	0xbf188bbe	-0.5958823
155	0xbf0e04f4	-0.5547631
156	0xbe342d58	-0.17595422
157	0xbe8f4ab7	-0.2798669
158	0xbeda3206	-0.4261629
159	0x3e5e3ab1	0.21702076
160	0xbea64a93	-0.3247877
161	0x3e395670	0.1809938
162	0x3e3b0a1f	0.1826558
163	0x3e862f4c	0.2620796
164	0xbe86140c	-0.2618717
165	0xbf49ea5c	-0.7887323
166	0xbf072337	-0.5278811
167	0x3ece1ba6	0.4025547
168	0xbe9928a1	-0.2991381
169	0x3e2c1d36	0.16808018
170	0x3e43e1fc	0.19129175
171	0x3e1f48b2	0.15555075
172	0xbefa457f	-0.48881146
173	0xbee29927	-0.4425747
174	0x3e2bb9f6	0.16770157
175	0x3e66de36	0.22545704
176	0xbebf07ac	-0.3731054
177	0x3e4c438a	0.19947639
178	0x3e82d498	0.2555282
179	0x3e054e1c	0.13018078
180	0xbefdc98c	-0.4956783
181	0xbec0c2d9	-0.37648657
182	0xbea23621	-0.31681922
183	0x3e393588	0.18086827
184	0x3da9e903	0.082963966
185	0xbf354e56	-0.70822656
186	0xbea57869	-0.32318428
187	0xbeb3fadd	-0.3515233
188	0x3e5648a1	0.20926143
189	0xbed4af7c	-0.41540134
190	0xbf168737	-0.5880007
191	0x3e33f85c	0.1757521
192	0x3e85eaa8	0.2615559
193	0x3e811077	0.25207874
194	0xbebabbb0	-0.3647132
195	0x3e50dedd	0.20397516
196	0x3df8c5a8	0.12147075
197	0x3e5c5b41	0.21519186
198	0x3e50cd1b	0.20390742
199	0x3e40aec5	0.1881667
200	0x3e1cfed7	0.15331589
201	0xbf1f0fca	-0.6213347
202	0xbeb6ec0f	-0.35726973
203	0x3ef847ef	0.4849238
204	0xbee84bba	-0.45370275
205	0x3d49d91c	0.049279317
206	0xbe8a3795	-0.2699553
207	0xbedf026a	-0.4355653
208	0x3e00460b	0.1252672
209	0x3e20b9cc	0.15695876
210	0x3e366dec	0.1781537
211	0xbe942e28	-0.28941464
212	0x3e27a6fc	0.16372293
213	0xbe7c67b8	-0.2464894
214	0xbe8bada0	-0.27280903
215	0xbe9bb7a0	-0.30413532
216	0x3e8e86ab	0.27837119
217	0x3e90af60	0.282588
218	0x3e87a507	0.26493093
219	0xbf53a5ce	-0.8267487
220	0x3de31eca	0.11089857
221	0xbed81671	-0.4220462
222	0xbea87a9b	-0.3290604
223	0xbe59ab63	-0.21256785
224	0x3ecaaa29	0.39582947
225	0x3e9b91f2	0.30384785
226	0xbea41ebe	-0.32054704
227	0xbeed1cc5	-0.46311012
228	0x3e3b2678	0.18276393
229	0xbe9b0c75	-0.3028294
230	0xbed16056	-0.4089381
231	0xbe810621	-0.25199988
232	0x3e46805e	0.19384906
233	0x3e6217c8	0.22079384
234	0x3e1f3cf1	0.15550591
235	0xbe702aae	-0.23453781
236	0xbea8ae33	-0.32945403
237	0x3e43d8b6	0.19125637
238	0x3e4cb177	0.19989572
239	0x3e5825cd	0.2110817
240	0xbecce39a	-0.40017396
241	0x3e57cd83	0.2107449
242	0x3e8f46fd	0.27983847
243	0xbe8fa982	-0.28059012
244	0xbea1fbf6	-0.31637543
245	0xbedd4352	-0.43215424
246	0x3e75e243	0.24012093
247	0xbef2fb70	-0.47457457
248	0xbe923b19	-0.28560713
249	0xbec6b007	-0.38806173
250	0xbf1f20b2	-0.62159264
251	0xbeb2eee9	-0.349479
252	0xbec8adb0	-0.39195013
253	0x3e42a266	0.19007263
254	0x3e71fabb	0.23630802
255	0xbf570db2	-0.8400527

fc2.bias f4 [12]
0	0x3ea9ca45	0.33162132
1	0x3e83bf88	0.25732064
2	0x3e8eb0cb	0.27869257
3	0x3e90df9f	0.2829561
4	0x3e91516a	0.28382427
5	0x3ea50166	0.3222763
6	0x3e90c2ff	0.2827377
7	0x3e859015	0.26086488
8	0x3e869ef5	0.2629315
9	0x3e8f7dcd	0.28025666
10	0x3e5239bb	0.20529835
11	0x3eaf6c58	0.34262347

fc3.weight f4 [1, 12]
0	0xbe96b98a	-0.2943843
1	0x3e3ed09c	0.18634266
2	0x3e65848c	0.22413844
3	0x3e408185	0.18799408
4	0xbe731962	-0.23740152
5	0xbe83d695	-0.2574965
6	0xbe803b7c	-0.25045383
7	0xbea2604e	-0.317141
8	0x3e551917	0.20810352
9	0x3e39aae2	0.18131593
10	0x3e38e0f3	0.18054561
11	0xbe833776	-0.2562825
