model/cross_validation/hp_nested_cv/checkpoint/c001_c003_44_12_0.0001_32_0.1.pt (torch, 78231 bytes, 5 tensors)

fc1.weight f4 [44, 420]
000000 b7 18 4b bd 35 69 e4 bc 9c c6 91 3c 75 74 06 bd
       -0.049584117 -0.027882198 0.0177949 -0.032825906
000010 05 0a c9 bc c0 ff a4 bc 01 82 d8 bc df 54 84 38
       -0.02454091 -0.020141482 -0.026429178 6.310059e-05
000020 3a fe 32 3d 26 da 71 3c a3 d8 89 3b b7 87 4a bd
       0.04369948 0.014761483 0.0042067333 -0.049445834
000030 95 25 8e bb 2c 69 f8 39 3c 79 6f 3c bd 35 bb 3c
       -0.004337976 0.00047380605 0.014616307 0.022852773
000040 3c b2 96 3b 5f cd 60 bc 1e fe d6 3c f4 4f dc bc
       0.004598884 -0.013720839 0.02624422 -0.026893593
000050 4b 9c 13 bc 60 bb 7f 3d cf a0 74 bc 8f c4 a3 bb
       -0.009009431 0.062434554 -0.014930918 -0.004997797
000060 e9 73 4d bc e0 92 7c bc 44 a2 50 3d 02 1a 42 bc
       -0.012539842 -0.015415877 0.050936 -0.011847021
000070 b5 b8 6a ba 54 64 86 3c c8 6a 26 3c 42 89 4a bd
       -0.0008953915 0.016405262 0.010157295 -0.049447306
000080 41 8d fd 3c 4b 5a 2f bd b1 e3 28 bb 57 21 03 3c
       0.030951144 -0.04281072 -0.002577048 0.008003554
000090 f3 82 91 3c 2e 25 94 3c ee fe 26 bd 37 12 0e 3d
       0.017762637 0.018084135 -0.040770464 0.03468534
0000a0 73 69 8a 3a 35 be 1c 3c 6b bb 59 bd 32 e8 71 3c
       0.0010559991 0.009566833 -0.05315725 0.014764832
0000b0 ee 0e 8e 3c 90 76 55 bd 0f 9c 8b bc aa 2a f3 3c
       0.017341103 -0.052115023 -0.017042188 0.02968343
0000c0 3e d5 f6 3b 03 79 34 3b ef 48 89 bd 13 f3 cc bc
       0.0075327447 0.002753795 -0.06703364 -0.02501825
0000d0 7e 98 73 bd 71 29 a7 bc fd 9f 34 bd 3a a5 17 bc
       -0.0594716 -0.020405503 -0.04409789 -0.009255702
0000e0 84 2a 9a bc 39 ce c0 bc e0 87 59 bc a5 f7 ad 3c
       -0.018819101 -0.023535835 -0.013277024 0.02123625
0000f0 0e e9 8b bc e0 dd 6f bc 00 26 06 3d ba f2 24 3c
       -0.017078903 -0.0146403015 0.032751083 0.010067636
000100 3b 1d d0 bd 5f 5b 79 bd b2 89 1a 3c 24 15 d5 bc
       -0.10161825 -0.060878154 0.009432243 -0.026011057
000110 42 9d 8f 3c 54 75 48 3b 36 dc 3a bd 80 3a 8a 3c
       0.017531041 0.003058751 -0.045620166 0.016873598
000120 fc 47 da bd 6a 1a 2b bc 49 d9 4c 3d 5c e7 8b b9
       -0.10658261 -0.010443309 0.050011907 -0.00026684522
000130 28 c5 89 3c 69 21 bf bd 0b b3 d9 bd fe 41 4a 3d
       0.016817644 -0.09332544 -0.10629853 0.04937934
000140 90 55 87 3c 16 25 b4 bc d3 01 b4 bb 2c a0 00 bc
       0.016520292 -0.02199034 -0.0054933815 -0.007850688
000150 35 95 3d bc 6d 31 24 bd 40 d5 4c 3d 4d d5 fd bd
       -0.011571218 -0.0400862 0.05000806 -0.123941995
000160 78 0b 86 ba 11 42 c2 bc bc 89 44 3d 15 36 cf 3c
       -0.0010226807 -0.023713144 0.047982916 0.025294343
000170 e1 dc 45 be cc 4c d6 3c 68 e1 8f 3b fe 0f f7 bb
       -0.1932254 0.026159666 0.004390884 -0.007539748
000180 ea 26 50 bd a5 f1 bd bc bd 52 ad bd fc f4 04 bd
       -0.05081836 -0.023186514 -0.08463047 -0.032460198
000190 81 1e e4 bc b0 28 26 3d 04 13 60 3c 16 be 69 bd
       -0.027846577 0.040566146 0.013676409 -0.057066046
0001a0 49 c6 14 ba 11 28 48 bc b0 f6 72 3b ea a5 6a bd
       -0.0005675299 -0.012216584 0.0037073307 -0.057287134
0001b0 93 41 f6 3c fd 7c 3c bd c3 3b 3a bc 53 53 a1 3c
       0.030060565 -0.046017636 -0.011366787 0.019693052
0001c0 66 55 24 be c5 09 dd bc d1 44 74 bb ab 4a 3a bb
       -0.16048202 -0.026982198 -0.0037272463 -0.0028425853
0001d0 89 0f be 3b e6 3b 0b bd 85 75 f4 3b a8 2b 6b 3c
       0.005800192 -0.03399267 0.0074602985 0.01435367
0001e0 0d 11 b7 3d ec 97 bc be 95 bc 55 be 6e 02 fc bd
       0.08938799 -0.36834657 -0.2087272 -0.12305151
0001f0 90 52 2a 3c c1 96 b6 bc f2 5e c0 3b fa b2 5f 3c
       0.010395661 -0.022288682 0.0058706934 0.013653511
000200 d2 21 97 3d b6 94 5b bd 27 f5 b2 bd 35 0c 8b bd
       0.073794976 -0.05360862 -0.08738165 -0.06789438
000210 ec 67 a5 be 69 17 0c 3d 1c 03 94 3d 66 44 0e bd
       -0.3230585 0.034202013 0.072271556 -0.0347332
000220 c0 6a 77 3c 20 6b 18 bd 44 99 c6 bd d4 ed a9 3d
       0.015101135 -0.037211537 -0.09697202 0.08297315
000230 21 b8 95 bd c1 21 1f be 63 ea 5d be fa a4 d9 3d
       -0.073105104 -0.1554022 -0.21671443 0.1062717
000240 4d 02 85 be a2 7c f6 bd 66 51 84 be 92 f0 a0 3c
       -0.25978318 -0.120354906 -0.25843352 0.019645963
000250 44 05 64 be 26 fd ed 3d 31 b8 e1 3d 09 54 43 be
       -0.22267634 0.1162055 0.1102146 -0.19075026
000260 92 bc d2 bd 34 f5 6d 3d b0 78 91 3d 2e e4 41 bd
       -0.10289873 0.058095172 0.071030974 -0.04733675
000270 2d b2 97 bc 84 90 00 bd 82 7c ea bd 12 61 93 3d
       -0.018517578 -0.03138782 -0.11449529 0.07196249
000280 2d cf cc 3b 29 53 50 be b8 6f 2b bd 16 14 1b be
       0.006250283 -0.20344223 -0.04185459 -0.15144381
000290 8e 1b 5a 3d 4d 77 2d bd d6 33 02 3d 9e b2 a9 bc
       0.053248934 -0.042350102 0.031787716 -0.020715054
0002a0 5f 11 e8 bd 44 d2 73 3d 2b 2d 59 3d 71 0d 75 3d
       -0.11331438 0.059526697 0.05302159 0.05982727
0002b0 40 46 14 3d 89 90 47 3c de 51 08 be e2 ac 79 bb
       0.036199808 0.012180456 -0.1331248 -0.003809743
0002c0 71 f9 95 bd 7c 20 ed bc f4 48 bc 3d 9c 01 8c 3c
       -0.07322968 -0.028946154 0.09193602 0.017090611
0002d0 65 48 47 bd 00 72 10 be c1 5e c7 3d f5 14 9f 3d
       -0.048653025 -0.14105988 0.0973487 0.07767669
0002e0 29 1b 1b be 01 cd 13 3c a3 db 0e bd 1c 56 2a bd
       -0.1514708 0.009021045 -0.03487743 -0.041586027
0002f0 a1 d0 be 3c ed a3 82 bd 05 21 f1 bd f4 93 f1 3c
       0.023292841 -0.063789226 -0.11773876 0.029489495
000300 09 56 5d 3d 41 32 b0 bb 95 93 26 be 9b ff 0d bd
       0.054037128 -0.0053770845 -0.16267236 -0.034667592
000310 df 2b 49 bd 1e 25 ba bd 5b 59 b7 3c ca 14 a9 bd
       -0.049114104 -0.09089111 0.022381475 -0.08255918
000320 a1 3e fd bc 4a 25 54 be 30 70 30 3c 29 b8 5b 3c
       -0.030913653 -0.2071735 0.010768935 0.013410606
000330 90 51 b0 3d 5c c4 51 bd 32 33 ba 3d 41 fb e6 3b
       0.08609307 -0.051212654 0.09091796 0.007048995
000340 9a 83 cb bb d7 12 94 3b 43 19 e0 3c f6 02 85 bd
       -0.0062107565 0.0045188474 0.027355796 -0.064947054
000350 f2 dc 85 be 11 78 6c ba 8b 3a 97 bc b9 d3 cd bc
       -0.2614513 -0.0009020577 -0.018460533 -0.025125371
000360 bf 92 86 3a 72 6a e8 bc 8f 82 9c bd 26 68 29 3d
       0.0010267122 -0.02837107 -0.076420896 0.04135909
000370 20 2d 88 bd 75 27 04 be 6f 1d 76 bd ea bd 75 bc
       -0.06649232 -0.12905677 -0.060086664 -0.014998892
000380 ba 8b 79 bc c3 bb 6f be 31 cc 8a bd 06 65 95 3d
       -0.015231067 -0.23411469 -0.06777228 0.07294659
000390 75 35 9d 3b c2 b6 80 3d 40 f3 e6 bd 70 75 4f bd
       0.0047976323 0.06284858 -0.11276865 -0.050649107
0003a0 5c 56 a4 3d eb f2 63 3d 88 a4 d6 bc 3e 48 a1 bc
       0.08024284 0.055651587 -0.026201501 -0.019687768
0003b0 99 13 49 bd 32 7f 6b 3d 31 19 34 bd a0 6f dc bc
       -0.049090955 0.05749435 -0.043969337 -0.026908696
0003c0 c3 f9 9c bd bf 60 68 be a0 c8 39 3b f8 66 3d 3d
       -0.07664826 -0.22693156 0.0028348342 0.046240777
0003d0 d7 c8 04 3d e9 ee 8e be 16 80 a0 3d 2b 73 a1 3d
       0.0324181 -0.2791665 0.078369305 0.07883295
0003e0 73 6f 3d bd 19 19 27 3d 5c 99 ac bb 44 fe 75 bc
       -0.046248864 0.04079542 -0.0052673053 -0.015014235
0003f0 ae a1 1f bb 6e 01 2a 3d 34 d4 cf bd fd f7 12 be
       -0.0024357843 0.04150527 -0.101478964 -0.14352413

fc1.bias f4 [44]
000000 f9 88 19 bd 8b 2e af bd b7 66 10 bd 12 0b 31 bd
       -0.037484143 -0.08553799 -0.035254207 -0.043223448
000010 15 fe 9f bd a3 e1 3e bd bf 56 83 bc 74 c7 b6 bd
       -0.07812134 -0.046601903 -0.016032575 -0.089247614
000020 4e 35 a9 bd 6e 5d 10 bc e1 b7 54 bd 95 3e 87 bd
       -0.0826212 -0.008811338 -0.051933173 -0.066037335
000030 61 b4 c0 bc 68 77 59 bd 05 92 21 bd fd b0 09 bb
       -0.023523511 -0.05309239 -0.039445896 -0.0021010034
000040 9e 94 96 bd 96 21 8b bd 91 2e 87 bd 46 e8 6a bd
       -0.07352565 -0.067935154 -0.06600679 -0.05735042
000050 af 80 c2 bc 56 cb 2f bc 1b cc b0 bd 0c 9f 3b bc
       -0.023743002 -0.010729631 -0.0863268 -0.011451494
000060 c8 ae 82 3b 4b 4b a9 bd 4d 98 04 bd 21 ba 6d bd
       0.0039881207 -0.08266314 -0.032371808 -0.058038834
000070 33 2f 83 bd fe 33 1d bd 97 0d a9 bd 42 be c3 bd
       -0.06405487 -0.03837966 -0.08254545 -0.09557773
000080 9f 55 9f bd cd 90 8a bd 92 9b 98 bd 1d 3c df bb
       -0.07780003 -0.067659 -0.07451548 -0.006812586
000090 7b 78 1f bd 7e c8 23 bd 96 d4 1e bd cc 2d 8b bc
       -0.03893326 -0.039986126 -0.038776956 -0.016989611
0000a0 84 0d 61 bd 41 27 96 bd 89 97 be bc 1a 76 a9 bd
       -0.05494453 -0.07331706 -0.023265617 -0.08274479

fc2.weight f4 [12, 44]
000000 5b 4f 4e 3e ab 45 c7 be 21 94 61 3e 2c 1f ef 3d
       0.20147459 -0.3892034 0.22029163 0.116758674
000010 2f c6 84 3e d7 c1 f8 3d ce a0 e6 be a6 ab ac 3e
       0.25932452 0.12146347 -0.4504456 0.33724707
000020 cd 4e 20 3e c5 1b e0 3d 34 e2 8b 3e e6 fb 5b be
       0.1565506 0.109427966 0.27321017 -0.2148281
000030 16 2a b4 be 61 0c b9 be 20 8b c2 be 42 d5 fc be
       -0.3518836 -0.36142257 -0.3799677 -0.49381453
000040 5a d5 c7 be 96 ec f5 be 31 65 ce be 56 f0 92 3e
       -0.39029962 -0.48032063 -0.40311578 0.28698987
000050 52 88 e6 be 27 9e 59 3e 11 05 6f 3e 70 cb d5 be
       -0.4502588 0.21251737 0.23341776 -0.41756773
000060 17 d4 e7 be dc b7 88 3e 3c 02 6e 3e b7 47 42 3e
       -0.45279 0.26702774 0.2324304 0.1897267
000070 20 0a e0 be 99 48 46 3e 28 dd 5e 3e 3f 12 72 3e
       -0.43757725 0.19363631 0.21764052 0.23639773
000080 51 48 32 3e b3 42 fa be 26 d9 98 3e d7 7f ef be
       0.17410399 -0.48879012 0.2985317 -0.46777222
000090 a5 e3 ea be 05 9c 03 bf ff a9 59 3e 9e 1a dc be
       -0.45876804 -0.5140994 0.21256255 -0.42989057
0000a0 db f8 ae be a2 7e 30 3e 5d 1b 08 bf 03 36 89 3e
       -0.34174237 0.17235807 -0.53166753 0.2679902
0000b0 07 ac 77 3e 18 a7 9e be 54 c4 12 3e 44 fc 0d 3e
       0.24186717 -0.30986857 0.14332706 0.13865763
0000c0 ce 58 7c 3e 7d 78 12 3e bb 20 d3 be 0e 32 ab 3e
       0.24643251 0.14303775 -0.4123591 0.33436626
0000d0 ea 8a 2e 3e b1 30 11 3e 2f 4e 79 3e 8c 18 3a be
       0.17045179 0.1417873 0.24346231 -0.18173426
0000e0 0e 83 a9 be 43 1c f2 be d0 cb b1 be f8 ff ee be
       -0.331078 -0.47287187 -0.3472581 -0.46679664
0000f0 7a b9 df be 4d 61 e3 be bf 3f d7 be a8 ce 55 3e
       -0.43696195 -0.44410172 -0.42040822 0.20879614
000100 61 61 b3 be f6 ab 2d 3e e2 74 3c 3e d1 08 bf be
       -0.35035232 0.16960129 0.18403962 -0.37311414
000110 f7 b2 d6 be 70 cd 50 3e 1c 66 5b 3e 42 94 4d 3e
       -0.41933414 0.20390868 0.2142567 0.20076087
000120 36 8a f8 be 4a 29 50 3e b8 fd f7 3d 25 9c 6a 3e
       -0.48542947 0.2032825 0.1210894 0.22911127
000130 72 94 4d 3e d1 af 04 bf 08 4d 71 3e 8f 69 b5 be
       0.20076159 -0.51830775 0.23564541 -0.35432097
000140 e4 0f d5 be 2e ba d6 be 08 2e 46 3e dc 9a 09 bf
       -0.41613686 -0.4193892 0.19353497 -0.5375192
000150 cc 42 a8 be aa 5a 4d 3e 7d 6e 0e bf 93 55 5f 3e
       -0.32863462 0.20054117 -0.5563734 0.21809988
000160 40 ca a2 3e ae d1 e7 be 86 d8 66 3e 74 0e 33 3e
       0.3179493 -0.4527716 0.22543535 0.17485982
000170 86 f5 9b 3e d5 97 52 3e 64 5c e2 be 11 e2 90 3e
       0.30460757 0.20565732 -0.44211113 0.28297475
000180 52 3c 29 3e ae b2 3b 3e 8c 72 7a 3e 85 5d 6c be
       0.16526917 0.1832988 0.24457759 -0.2308255
000190 76 63 c3 be 08 cf d3 be 76 58 c3 be 6c 9e f3 be
       -0.3816182 -0.4136889 -0.38153428 -0.47581804
0001a0 44 bb f3 be 3d 35 07 bf 7f 94 d9 be 2e 96 8d 3e
       -0.4760381 -0.5281561 -0.42496106 0.2765364
0001b0 57 bd fa be e8 9c 26 3e b6 d8 87 3e 61 a7 dd be
       -0.4897258 0.16270792 0.26532525 -0.43291762
0001c0 74 e3 c7 be ee a4 9c 3e b9 72 6a 3e da 56 23 3e
       -0.3904072 0.3059458 0.22895326 0.159511
0001d0 34 da 09 bf fa 39 99 3e 53 73 6a 3e 92 06 9a 3e
       -0.53848577 0.29927045 0.22895555 0.30083138
0001e0 66 29 63 3e 81 a1 ed be 70 f2 a7 3e 69 98 c6 be
       0.22183761 -0.4641228 0.32802153 -0.38788155
0001f0 dd c7 f0 be bf 68 f5 be c9 9c 53 3e 04 34 18 bf
       -0.47027484 -0.47931477 0.20665278 -0.5945437
000200 a1 31 c0 be 22 0c 53 3e 25 fe ea be 89 91 89 3e
       -0.37537864 0.20610097 -0.45897022 0.26868847
000210 a0 0e 0d bf 5a 2a 85 3e c1 d0 04 bf 9b c0 e0 be
       -0.5510044 0.26008874 -0.51881033 -0.43896946
000220 d2 95 df be cf d0 b7 be 6f 95 89 3e 7a d0 98 be
       -0.4366899 -0.35901496 0.2687182 -0.29846555
000230 42 ba aa be 4e ff b0 be c3 38 f1 be 08 44 98 3e
       -0.33345228 -0.34569782 -0.47113618 0.29739404
000240 e8 e8 5f 3e 21 a1 71 3e 69 a1 4b 3e ac 41 97 3e
       0.2186619 0.23596622 0.19885792 0.2954229
000250 5c f1 ab 3e c0 cb 98 3e df 2f 97 3e 1b 9c b8 be
       0.3358258 0.2984295 0.2952871 -0.360566
000260 3c 76 c2 3e ae dd d1 be d6 fc e3 be 2f 9d 7e 3e
       0.3798083 -0.4098944 -0.44528836 0.24864648
000270 df b1 71 3e 2c 99 d9 be 76 ab ec be 80 e9 e9 be
       0.23603009 -0.42499673 -0.46224564 -0.4568596
000280 2a e9 8c 3e 6b 56 d8 be a7 38 b4 be fb 63 a8 be
       0.2752164 -0.42253432 -0.35199472 -0.3288878
000290 9f 5f eb be a0 ed ba 3e 35 fb 07 bf c8 52 65 3e
       -0.4597139 0.36509418 -0.53117687 0.2239486
0002a0 1d b2 76 3e 68 70 8d 3e 10 54 81 be ac 49 ba 3e
       0.24091382 0.27624822 -0.25259447 0.36384332
0002b0 81 4d 6b 3e fb 9a f8 be b9 85 a0 3e d4 94 aa be
       0.22978784 -0.4855574 0.31352022 -0.33316672
0002c0 8c 67 a4 3e 4f 8c c4 be 30 bd 87 3e d8 ef 3d 3e
       0.3211025 -0.38388297 0.26511526 0.18548524
0002d0 65 bb 8f 3e cb 4e 10 3e 75 36 f2 be 50 9d a6 3e
       0.28072658 0.14092557 -0.47307172 0.32541895
0002e0 7c 76 7d 3e d9 63 60 3e e2 dd 8f 3e b6 ce 49 be
       0.2475223 0.21913089 0.2809897 -0.1970776
0002f0 b5 07 e5 be db e5 d7 be 5f d9 f4 be e4 bb e5 be
       -0.44732442 -0.42167553 -0.4782209 -0.44869912
000300 e4 2b 97 be e8 6c 0f bf 5f 81 cd be 7a a4 6f 3e
       -0.29525673 -0.5602555 -0.40137765 0.23402587
000310 54 c2 e0 be 79 8e 37 3e 4b 82 ad 3e f2 ae 00 bf
       -0.4389826 0.17925443 0.33888468 -0.50266945
000320 9e 1f ed be ea 6e a6 3e 0f 8f 82 3e e0 92 4d 3e
       -0.46313184 0.32506496 0.2549977 0.2007556
000330 5d 01 f2 be 68 6f 5b 3e 03 42 40 3e 5f 84 7f 3e
       -0.47266665 0.21429217 0.18775181 0.2495284
000340 bd 31 9e 3e 8e 38 dd be 0d f0 8b 3e e5 82 da be
       0.30897322 -0.4320721 0.27331582 -0.4267799
000350 24 a6 da be fa 67 f2 be 9f 72 76 3e 55 4f 19 bf
       -0.4270488 -0.47344953 0.24067162 -0.59886676
000360 c1 16 9a be 7c e6 40 3e d6 b2 14 bf e6 25 78 3e
       -0.30095485 0.18837923 -0.5808538 0.24233207
000370 f1 c7 d6 be 77 ef 31 3e 82 4f d4 be 64 5e b2 be
       -0.41949418 0.17376505 -0.4146691 -0.3483764
000380 97 d9 b8 be 72 2a ce be 5b 38 89 3e a9 87 ac be
       -0.36103508 -0.40266758 0.26800808 -0.3369725
000390 a3 a9 9a be b7 c7 d2 be 98 18 f7 be b7 c8 8f 3e
       -0.30207548 -0.41167995 -0.4826095 0.2808282
0003a0 05 1c 3f 3e 1d 5f 60 3e 7a 73 44 3e e6 8e 7f 3e
       0.18663032 0.21911283 0.19184676 0.24956855
0003b0 31 b8 92 3e ad 80 ab 3e ce 22 79 3e e5 b1 ad be
       0.28656152 0.3349661 0.24329683 -0.33924785
0003c0 de dc 9f 3e c3 5b d5 be 71 29 e8 be 55 2d 7c 3e
       0.31223196 -0.4167157 -0.45344117 0.24626668
0003d0 5f f9 49 3e 5a 94 a5 be ed 3e b8 be 49 87 a5 be
       0.19724034 -0.32339746 -0.3598551 -0.32329777
0003e0 a9 18 6c 3e 6f 77 c8 be 46 c8 be be b5 2c 7b be
       0.23056282 -0.3915362 -0.37262172 -0.24528773
0003f0 5b f2 a8 be da 3e b8 3e 5c 2b f8 be 7c e4 62 3e
       -0.32997403 0.35985452 -0.4847058 0.22157472

fc2.bias f4 [12]
000000 58 8a d3 3d d5 c7 be 3d 38 a0 d3 3d 26 a1 de 3d
       0.10329121 0.09315459 0.10333294 0.108705804
000010 d6 67 d7 3d ca 10 d0 3d d1 10 9f 3d 4a 17 cb 3d
       0.10517852 0.10159452 0.07766879 0.099165514
000020 47 2a e0 3d 72 35 d1 3d c9 5f dc 3d f3 16 ce 3d
       0.10945564 0.10215272 0.10760457 0.10062971

fc3.weight f4 [1, 12]
000000 c1 f9 27 3f d3 f0 2e 3f ee 9c 15 3f c6 c4 60 bf
       0.6561547 0.6833622 0.5844258 -0.8780025
000010 8f 2f 11 3f 6e d0 75 bf d0 b6 51 3f 98 d7 43 3f
       0.56713194 -0.96021163 0.81919575 0.76500845
000020 c9 7f 7a bf 23 85 3d 3f fd dc 49 bf ba 5f 73 bf
       -0.97851235 0.74031276 -0.78852826 -0.9506794
