model/cross_validation/hp_nested_cv/checkpoint/c001_c000_68_12_0.0001_64_0.2.pt (torch, 119831 bytes, 5 tensors)

fc1.weight f4 [68, 420]
-0.04818528 -0.033815153 -0.020722263 0.06705731 -0.0042050206 -0.003842905 -0.0022336126 -0.014418469
-0.026406163 -0.009521218 -0.015229939 -0.013047014 -0.018580439 0.025340397 0.0060471 0.00321194
-0.028880991 0.01206172 0.04505077 0.00061635335 0.0065855673 -0.037693247 -0.008352003 0.044102766
-0.025072094 -0.0008273803 0.010971513 -0.049864106 -0.009263268 -0.006500148 0.0006974533 -0.03405831
-0.019816484 -0.0006142967 0.010968833 0.03096228 -0.011160838 0.006594622 0.00073810545 -0.06646233
-0.023655573 0.026664566 -0.008000065 0.004526611 -0.014127466 -0.03892306 0.02832862 -0.06237218
0.0027905703 -0.021370951 -0.04987401 0.00030422787 -0.026228549 -0.0032614374 -0.053543504 0.0015924615
-0.038236927 -0.039848015 0.023407703 -0.022427348 -0.016114773 0.006066515 -0.020360516 -0.01392595
0.0005417309 -0.029395347 -0.02001721 -0.038322467 -0.039009273 0.0073445523 -0.015162281 0.015267934
-0.008761788 0.070211865 0.00032031734 0.005421354 -0.023818593 -0.027551886 -0.08337036 -0.00015253335
-0.023307934 0.0054652416 -0.013829139 -0.004605162 -0.021074219 0.024167554 -0.059572086 -0.027980674
0.012875762 0.0010795422 -0.027021531 -0.021554425 -0.06431591 0.008678211 -0.025474688 -0.015999483
-0.022968706 -0.063675456 -0.050313998 0.009341749 0.011988057 0.051327433 0.012047288 0.015729869
-0.016320271 -0.0017840706 -0.0077897664 -0.0040964284 -0.023721447 -0.042216193 0.017295655 -0.014606447
-0.038485415 -0.068823695 -0.035878327 -0.020939523 -0.029519862 -0.0057257665 -0.032974333 -0.1409331
0.004771215 -0.09482231 -0.098834224 -0.15335748 0.08235074 -0.021970546 -0.02789694 0.043240324
0.052000765 0.0058549237 0.020084025 -0.018432317 -0.20297222 -0.07350936 -0.0012350096 -0.04590951
0.0108721685 -0.021945952 -0.07711211 0.10895567 -0.024411464 -0.0756458 -0.23993196 -0.070063815
-0.10035539 -0.16245362 -0.22918269 0.07486642 -0.03311727 0.14720295 0.111902095 -0.11826193
-0.097327314 0.038442343 -0.089239 0.005631289 -0.0021469658 -0.0142998295 -0.026058532 -0.154177
0.04491049 -0.09821332 0.08909139 -0.061424974 -0.050339643 -0.0707964 -0.047431946 0.043622263
-0.051119797 0.015925135 0.005399875 -0.03684553 0.019042915 -0.046854727 -0.10788482 -0.00416921
-0.019083716 -0.053219125 0.10247327 -0.05527614 -0.077962406 -0.10872994 0.12122132 0.08577292
-0.15891418 0.0088673625 0.037440248 -0.0433936 2.8724999e-05 -0.13011931 -0.12099721 0.008412371
0.03927952 -0.009463556 0.036920104 -0.017606348 -0.034325 -0.08614486 -0.062161904 -0.080496885
-0.035045296 -0.064407274 -0.06888744 -0.000108004264 0.0012451163 -0.039427046 0.08133135 0.039242733
0.03896986 -0.009546295 -0.017052503 0.0070821354 -0.080214754 0.0040842737 -0.017761411 -0.002876123
-0.024638858 0.05961086 -0.05021002 -0.050054442 -0.034477532 -0.038144313 -0.04583288 -0.07264827
-0.06856278 -0.061607745 -0.070151925 0.10333426 -0.12992473 0.05197903 -0.068438716 0.019145241
0.007903206 -0.050419416 -0.06244526 -0.007735747 -0.011251306 0.06819779 -0.12152934 -0.024541706
0.0077613923 -0.11957015 -0.025762403 -0.0005977044 -0.0060494216 -0.15976684 0.061238132 -0.00025980303
-0.03974701 0.055425774 0.027949147 -0.066816926 0.00096248963 0.038633104 -0.106994785 -0.06561329
00000000: ee5d 45bd c281 0abd bcc1 a9bc 5855 893d
00000010: 45ca 89bb 3fd9 7bbb cd61 12bb 713b 6cbc
00000020: bd51 d8bc e2fe 1bbc fe86 79bc 25c3 55bc
00000030: 0136 98bc aa96 cf3c c026 c63b 697f 523b
00000040: d497 ecbc 859e 453c 2887 383d c692 213a
00000050: becb d73b 3c64 1abd d7d6 08bc 1aa5 343d
00000060: fe63 cdbc 8de4 58ba dcc1 333c 4e3e 4cbd
00000070: f6c4 17bc 32ff d4bb 4cd5 363a ba80 0bbd
00000080: 2e56 a2bc c108 21ba 9fb6 333c 9ca4 fd3c
00000090: f3db 36bc b317 d83b 6b7d 413a 671d 88bd
000000a0: 55c9 c1bc a66f da3c b412 03bc f753 943b
000000b0: e376 67bc c96d 1fbd 6c11 e83c f979 7fbd
000000c0: 00e2 363b 2212 afbc b148 4cbd c680 9f39
000000d0: 41dd d6bc d7bd 55bb 6f50 5bbd 24ba d03a
000000e0: 539e 1cbd ac37 23bd 83c1 bf3c 8fb9 b7bc
000000f0: 2103 84bc 9ec9 c63b 19cb a6bc ab29 64bc
00000100: f202 0e3a 83ce f0bc 22fb a3bc 05f8 1cbd
00000110: 30c8 1fbd 92aa f03b 376b 78bc 5b26 7a3c
00000120: 9a8d 0fbc 3dcb 8f3d 44f0 a739 9da5 b13b
00000130: 361f c3bc 7eb4 e1bc 14be aabd 5cf1 1fb9
00000140: 48f0 bebc c515 b33b 9d93 62bc e6e6 96bb
00000150: d7a3 acbc 09fb c53c dc01 74bd ba37 e5bc
00000160: dcf4 523c 6d7f 8d3a 425c ddbc e892 b0bc
00000170: 0fb8 83bd 0e2f 0e3c 4bb0 d0bc 5911 83bc
00000180: de28 bcbc 4768 82bd 0d16 4ebd 230e 193c
00000190: 8e69 443c b73c 523d fd61 453c eddb 803c
000001a0: 17b2 85bc 7ad7 e9ba 4c41 ffbb 553b 86bb
000001b0: 7b53 c2bc e3ea 2cbd 9eaf 8d3c e14f 6fbc
000001c0: e2a2 1dbd 70f3 8cbd 27f5 12bd 5d89 abbc
000001d0: a3d3 f1bc 369f bbbb 1810 07bd c450 10be
000001e0: da57 9c3b 3332 c2bd 9969 cabd be09 1dbe
000001f0: 81a7 a83d 93fb b3bc 2088 e4bc c41c 313d
00000200: c1fe 543d a9da bf3b 4187 a43c 5fff 96bc
00000210: f3d7 4fbe 138c 96bd 0ce0 a1ba 9c0b 3cbd
00000220: 2e21 323c ffc7 b3bc f4ec 9dbd 2624 df3d
00000230: 8dfa c7bc 2fec 9abd b9b0 75be 9e7d 8fbd
00000240: 2087 cdbd 3e5a 26be deae 6abe 9153 993d
00000250: f9a5 07bd 5fbc 163e ed2c e53d 5033 f2bd
00000260: 8b53 c7bd b875 1d3d f0c2 b6bd ad86 b83b
00000270: 1cb4 0cbb d549 6abc b478 d5bc 93e0 1dbe
00000280: 10f4 373d 1124 c9bd 8c75 b63d c198 7bbd
00000290: f130 4ebd b4fd 90bd 0048 42bd 42ad 323d
000002a0: fe62 51bd 6e75 823c 6ff1 b03b 57eb 16bd
000002b0: e3ff 9b3c beea 3fbd b7f2 dcbd de9d 88bb
000002c0: 7455 9cbc 4cfc 59bd 81dd d13d 3c69 62bd
000002d0: c1aa 9fbd cead debd e242 f83d b6a9 af3d
000002e0: 66ba 22be 6a48 113c f25a 193d 7dbd 31bd
000002f0: 77f6 f037 ff3d 05be 63cd f7bd 0bd4 093c
00000300: 90e3 203d 080d 1bbc 8939 173d 303b 90bc
00000310: 5f98 0cbd b76c b0bd 7b9d 7ebd 8ddb a4bd
00000320: a88b 0fbd f6e7 83bd dc14 8dbd 5980 e2b8
00000330: 2c33 a33a 417e 21bd 0d91 a63d fdbc 203d
00000340: dc9e 1f3d 1068 1cbc b1b1 8bbc 4211 e83b
00000350: a247 a4bd 5fd5 853b 6180 91bc 567d 3cbb
00000360: 6ed7 c9bc 842a 743d 06a9 4dbd e305 4dbd
00000370: 5038 0dbd 363d 1cbd 42bb 3bbd 9ec8 94bd
00000380: a56a 8cbd 6758 7cbd d0ab 8fbd eaa0 d33d
00000390: fd0a 05be f7e7 543d 9929 8cbd 7bd6 9c3c
000003a0: 737c 013c 9784 4ebd 9ac6 7fbd 267c fdbb
000003b0: 6657 38bc 48ab 8b3d 60e4 f8bd b00b c9bc
000003c0: 4753 fe3b 32e1 f4bd ad0b d3bc 43af 1cba
000003d0: 3a3a c6bb eb99 23be d6d4 7a3d 2c36 88b9
000003e0: c3cd 22bd 2306 633d 9cf5 e43c 50d7 88bd
000003f0: 964f 7c3a bf3d 1e3d 1520 dbbd 4360 86bd

fc1.bias f4 [68]
-0.037519503 0.0055785202 -0.043942768 -0.019183222 -0.054480568 -0.029293876 0.000302423 -0.029974755
-0.007997732 -0.01113934 -0.06171292 -0.06310684 -0.06518056 -0.07394761 -0.041225005 -0.043852266
-0.010491636 -0.03425486 -0.029197546 0.04042522 0.01513301 -0.03646602 -0.012392302 -0.038244665
-0.037160166 -0.01938237 -0.0067028184 -0.06566057 -0.02186605 -0.072859645 -0.05254471 0.008997493
-0.041066546 0.0064859735 -0.065013684 -0.03758363 0.0033158904 0.0017765433 -0.030944148 0.00276144
-0.027470615 -0.03438532 -0.0337229 0.009976013 0.025605584 -0.002860618 -0.07366525 -0.076282896
-0.049326424 0.0031302352 -0.076584354 -0.058684945 -0.044656515 0.009709467 -0.048154976 -0.03611399
-0.051439002 -0.04584921 -0.0521353 0.0051721674 0.0038471418 -0.0006031755 -0.037393007 -0.054490734
0.0068575772 -0.039381348 0.007210613 0.0032990568
00000000: 0dae 19bd 05cc b63b 55fd 33bd 2226 9dbc
00000010: 0427 5fbd b6f9 efbc 878e 9e39 9e8d f5bc
00000020: eb08 03bc c781 36bc b0c6 7cbd 293e 81bd
00000030: 637d 85bd d871 97bd 8ddb 28bd 6f9e 33bd
00000040: 1ce5 2bbc d34e 0cbd b12f efbc ea94 253d
00000050: 72f0 773c 655d 15bd 1509 4bbc 70a6 1cbd
00000060: 4235 18bd c7c7 9ebc 51a3 dbbb 0d79 86bd
00000070: 6e20 b3bc 7037 95bd 1f39 57bd 396a 133c
00000080: 6535 28bd 4a88 d43b e525 85bd 4bf1 19bd
00000090: 694f 593b e7da e83a 957e fdbc 46f9 343b
000000a0: 0e0a e1bc 9fd7 0cbd 0621 0abd 6e72 233c
000000b0: cdc2 d13c 3579 3bbb cedd 96bd 353a 9cbd
000000c0: 810a 4abd a224 4d3b 42d8 9cbd a05f 70bd
000000d0: c0e9 36bd 7514 1f3c 273e 45bd 43ec 13bd
000000e0: b4b1 52bd 62cc 3bbd d38b 55bd 497b a93b
000000f0: 5420 7c3b 6c1e 1eba 6929 19bd ad31 5fbd
00000100: 87b5 e03b 564e 21bd 0247 ec3b fd34 583b

fc2.weight f4 [12, 68]
0.2843455 -0.25471297 0.17640096 -0.26697686 -0.31406894 -0.04473198 0.073730536 0.13050988
0.26578492 -0.25565457 0.18782178 0.20210412 -0.34202296 0.2711464 0.22203517 -0.24400558
0.23705898 -0.26080343 0.023967251 -0.08566212 -0.22634295 -0.48017964 -0.35150295 -0.21380632
0.14826679 -0.26777038 -0.3623043 0.1856719 -0.31696203 0.26411375 -0.3917732 -0.35365373
0.26591864 0.11511878 0.18043734 -0.2743967 -0.39638793 -0.38218814 -0.34061396 0.19980703
0.18928394 0.23280801 -0.30241868 0.11823941 -0.2874128 -0.22892341 0.2623333 0.24271306
0.20465119 0.21589546 -0.22673026 0.22401828 0.31594563 -0.2219674 -0.31307024 -0.4299356
-0.29923517 -0.2816473 0.23097506 -0.17948934 -0.24043906 -0.26273632 -0.33849868 -0.33956495
-0.3403257 0.2203025 0.21530785 -0.5305703 0.17448296 -0.19494529 0.15899155 -0.32098016
-0.30292243 -0.025980612 -0.061251592 0.1831982 0.13440837 -0.21745037 0.17621091 0.17771642
-0.19488682 0.1752575 0.17043248 -0.19599406 0.22621782 -0.2725326 0.017506087 0.012409852
-0.22159763 -0.39082628 -0.2859104 -0.23182034 0.13474523 -0.19315267 -0.3607672 0.17150137
-0.31454012 0.12662518 -0.25428823 -0.36145058 0.17506287 0.16506347 0.20367163 -0.36942416
-0.3241 -0.28254712 -0.31392148 0.121176355 0.17926978 0.21232055 -0.2946963 0.12013969
-0.29633555 -0.25105357 0.1390933 0.19059545 0.12659504 0.17813034 -0.2125194 0.14282584
0.19806801 -0.22426519 -0.2985671 -0.3087076 -0.26331386 -0.2701014 0.18412852 -0.2734088
-0.19058621 -0.23667961 -0.23781583 -0.39595595 -0.25966048 0.12904078 0.14819488 -0.43205574
0.31888333 -0.2778278 0.24043423 -0.32210118 -0.2536575 -0.03373979 -0.0017320585 0.23568094
0.16037133 -0.2617265 0.20729996 0.19952296 -0.26721126 0.2791847 0.23212679 -0.3208086
0.24161018 -0.21178596 0.016180879 -0.0771054 -0.19105601 -0.36505452 -0.28655276 -0.23237818
0.21120049 -0.24348597 -0.24868956 0.25154608 -0.30908912 0.19801894 -0.3095263 -0.32600144
0.19467713 0.18946774 0.22880393 -0.41124776 -0.30596873 -0.33952725 -0.26943815 0.16239141
0.26528203 0.15495327 -0.23672049 0.10687166 -0.30079284 -0.2881237 0.17921604 0.22421515
0.19627465 0.22468145 -0.14410499 0.2689568 0.24648887 -0.20301859 -0.3459833 -0.37614754
-0.29210433 -0.2266206 0.21905977 -0.22012496 -0.24101286 -0.3012297 -0.32140452 -0.33332905
-0.30742463 0.19869973 0.21572016 -0.37917057 -0.3151141 0.26225793 -0.1693234 0.3243528
0.26610982 0.24093777 -0.27978274 -0.30558902 -0.30201957 0.29938778 -0.24508941 -0.2947905
0.32402483 -0.2711037 -0.26226157 0.2037181 -0.32718244 0.24827677 0.23096478 -0.23827855
0.32317924 0.33034 0.32262945 0.31643987 -0.09731404 0.14516884 0.30575374 -0.29486653
0.25806692 -0.26259723 0.32222906 0.3393183 -0.26416463 -0.33417994 -0.22076508 0.30765915
0.22767784 0.17931119 0.24562484 -0.18921238 -0.28427896 -0.20144524 0.25423935 -0.2766317
0.24306424 0.18694635 -0.270056 -0.27658835 -0.2652683 -0.29826078 0.29932156 -0.24629071
00000000: bc95 913e bd69 82be 74a2 343e 31b1 88be
00000010: a5cd a0be e138 37bd 0900 973d 62a4 053e
00000020: f614 883e 28e5 82be 5a54 403e 62f4 4e3e
00000030: a21d afbe b3d3 8a3e 305d 633e 99dc 79be
00000040: 97bf 723e 0788 85be f856 c43c 9f6f afbd
00000050: 72c6 67be 1bda f5be 32f8 b3be 0bf0 5abe
00000060: 40d3 173e 3319 89be f37f b9be c620 3e3e
00000070: d948 a2be eb39 873e 7f96 c8be 1a12 b5be
00000080: 7d26 883e 65c3 eb3d 91c4 383e b97d 8cbe
00000090: 5cf3 cabe 2aae c3be f464 aebe 379a 4c3e
000000a0: a6d3 413e 3965 6e3e 9fd6 9abe 8127 f23d
000000b0: c527 93be e66a 6abe 8d50 863e c689 783e
000000c0: 1590 513e b313 5d3e fa2b 68be 0c65 653e
000000d0: a0c3 a13e 6c4b 63be be4a a0be 8520 dcbe
000000e0: 5a35 99be 1334 90be ba84 6c3e 0ecc 37be
000000f0: a835 76be 6085 86be b34f adbe 75db adbe
00000100: 2c3f aebe fb96 613e a979 5c3e 75d3 07bf
00000110: a9ab 323e bd9f 47be aece 223e 8357 a4be
00000120: a618 9bbe 4bd5 d4bc f3e2 7abd 4f98 3b3e
00000130: 59a2 093e 4fab 5ebe a270 343e 4bfb 353e
00000140: 6990 47be b476 333e da85 2e3e abb2 48be
00000150: a5a5 673e 6589 8bbe ed68 8f3c b152 4b3c
00000160: 7dea 62be 621a c8be d962 92be 5062 6dbe
00000170: a7fa 093e d0c9 45be 7ab6 b8be 0e9e 2f3e
00000180: 670b a1be 08aa 013e 1132 82be 0d10 b9be
00000190: ae43 333e 6606 293e 4c8f 503e 2a25 bdbe
000001a0: 6ff0 a5be 04aa 90be 51ba a0be 4f2b f83d
000001b0: 7f92 373e 8f6a 593e 6fe2 96be cc0b f63d
000001c0: 4bb9 97be 188a 80be 796e 0e3e 742b 433e
000001d0: 21a2 013e cd67 363e b09e 59be f040 123e
000001e0: 57d2 4a3e c6a5 65be c9dd 98be ec0e 9ebe
000001f0: 13d1 86be bb4a 8abe 308c 3c3e 3dfc 8bbe
00000200: 0829 43be 245c 72be fe85 73be bdba cabe
00000210: 38f2 84be 4423 043e 66c0 173e 6936 ddbe
00000220: ad44 a33e 723f 8ebe 6434 763e 72ea a4be
00000230: 65df 81be bc32 0abd 3d06 e3ba 5856 713e
00000240: 6238 243e 0401 86be 7146 543e bf4f 4c3e
00000250: eacf 88be 4cf1 8e3e a5b2 6d3e 0641 a4be
00000260: a968 773e 6bde 58be c38d 843c 70e9 9dbd
00000270: 30a4 43be 6de8 babe 0bb7 92be 8cf4 6dbe
00000280: f144 583e 6354 79be 7aa8 7ebe a6ca 803e
00000290: ee40 9ebe 7ac5 4a3e 3b7a 9ebe a9e9 a6be
000002a0: 7159 473e d503 423e 944b 6a3e 118f d2be
000002b0: efa7 9cbe 84d6 adbe ccf3 89be ef49 263e
000002c0: 0cd3 873e 12ac 1e3e db66 72be 87df da3d
000002d0: 8501 9abe f384 93be 6984 373e a898 653e
000002e0: 39fc 483e e512 663e 4290 13be b5b4 893e
000002f0: 9467 7c3e 1be4 4fbe b924 b1be 6996 c0be
00000300: b38e 95be 3b0f 68be 3451 603e 7068 61be
00000310: 13cc 76be c73a 9abe 228f a4be 1baa aabe
00000320: c366 9dbe f177 4b3e bfe5 5c3e a522 c2be
00000330: a356 a1be ac46 863e 1d63 2dbe 9211 a63e
00000340: 8c3f 883e 64b8 763e af3f 8fbe 2a76 9cbe
00000350: 4fa2 9abe 5b49 993e b8f8 7abe c8ee 96be
00000360: 95e6 a53e 1bce 8abe 2647 86be 7a9b 503e
00000370: 7584 a7be 443c 7e3e 0882 6c3e 4bff 73be
00000380: c077 a53e 5322 a93e b02f a53e 6804 a23e
00000390: 954c c7bd 24a7 143e c18b 9c3e bff8 96be
000003a0: 5921 843e 2573 86be 35fb a43e 21bb ad3e
000003b0: 9640 87be a219 abbe 3e10 62be 8085 9d3e
000003c0: 6124 693e 5a9d 373e 1485 7b3e e4c0 41be
000003d0: 038d 91be a947 4ebe a92b 823e aca2 8dbe
000003e0: d5e5 783e dd6e 3f3e c844 8abe fd9c 8dbe
000003f0: 3fd1 87be a3b5 98be ad40 993e a233 7cbe

fc2.bias f4 [12]
0.13980079 0.11976516 0.12149992 0.08238104 0.083347045 0.118690506 0.089723065 0.081691064
0.08062014 0.09344008 0.12650879 0.13613227
00000000: f027 0f3e 7047 f53d f3d4 f83d 64b7 a83d
00000010: dbb1 aa3d 0214 f33d bac0 b73d a54d a73d
00000020: 2c1c a53d 835d bf3d 858b 013e 4266 0b3e

fc3.weight f4 [1, 12]
0.6143421 0.78108686 0.5975609 -0.69693935 -0.8169286 0.8079351 -0.8099499 -0.64860743
-0.92232144 -0.7859036 0.75617486 0.7510751
00000000: 8645 1d3f 4ff5 473f c0f9 183f 9e6a 32bf
00000010: 3c22 51bf d6d4 4e3f e058 4fbf 230b 26bf
00000020: 421d 6cbf fa30 49bf ad94 413f 7546 403f
