model/cross_validation/hp_nested_cv/checkpoint/c001_c004_128_8_0.0001_32_0.3.pt (torch, 221655 bytes, 5 tensors)

fc1.weight f4 [128, 420]
000000 a1 d2 36 bb 7f 3c 56 3c 22 d1 17 bd 2a 79 32 3d
       -0.002789654 0.013075947 -0.03706468 0.043572582
000010 17 a5 88 3d 91 e1 0d bd 56 e8 42 bc 5a e3 02 3c
       0.066721134 -0.034638945 -0.0118962135 0.007988775
000020 6e 7c 8e 3c 2b a7 a7 bd 86 42 72 bb ce 9c 0a bc
       0.017393317 -0.08186182 -0.003696592 -0.008460237
000030 83 79 a8 3c af b5 2d bd ce 58 c7 3c 9b 7d c7 3b
       0.020565754 -0.042409595 0.024334338 0.0060879714
000040 52 d8 fa 3a 55 72 1d bd bc c9 99 bd c1 2d f0 3c
       0.0019137955 -0.038439114 -0.07509181 0.029318692
000050 57 27 47 bc 29 6b e0 bc 97 09 9f 3d 52 15 99 bc
       -0.012155375 -0.027394848 0.07765501 -0.018686924
000060 a6 88 99 bc e0 a1 af bd d8 e2 1c 3b f7 d4 1e 3c
       -0.018741917 -0.08575797 0.002393892 0.009694329
000070 3a 1b 89 bc 62 85 57 3c 3c 78 a3 3c 72 2a 13 bc
       -0.016736615 0.01315436 0.019954793 -0.008982288
000080 76 00 c3 bc 8a e7 43 3d c6 85 e0 bc 16 a0 ad bc
       -0.02380393 0.047828235 -0.027407538 -0.021194499
000090 f3 75 fc b9 4d d2 16 bd ef c2 f8 ba 7e 2a 48 3d
       -0.00048153065 -0.036821652 -0.0018978993 0.04886865
0000a0 31 58 e6 3b 4a 94 35 3c 5c 49 ba bb d7 92 b7 3c
       0.007029556 0.011082718 -0.0056850147 0.022408886
0000b0 79 e3 a5 bd 30 62 a1 ba 3a 41 89 3b 5a a5 7c bc
       -0.081000276 -0.0012312587 0.004188684 -0.015420282
0000c0 f2 2b 80 3c d9 54 7a 3c 11 92 12 3d c7 45 ac 3b
       0.015645955 0.015279018 0.03578383 0.0052573415
0000d0 6d e5 f5 3c 41 de 87 3a af 78 57 bd 2d 1d 8b bd
       0.030016625 0.001036592 -0.052605327 -0.06792674
0000e0 0c c3 95 bc d4 f4 95 bc 8e 24 7c 3b 9c d2 09 bc
       -0.018281482 -0.01830522 0.0038473937 -0.00841203
0000f0 6f 72 83 3b 73 2f 15 3d 8f c0 ef 3b 7d 83 39 bd
       0.0040114443 0.036422204 0.007316656 -0.045291413
000100 5f 6b e3 bd 8f 2a 1b bc f3 de 4f bc 12 35 5c bc
       -0.11104464 -0.009470596 -0.012687433 -0.013440387
000110 5b 3a c4 3b 90 5f 44 bb e9 3a a3 bd 5f 0a 64 3c
       0.005988402 -0.0029964186 -0.079702206 0.013918488
000120 07 df 04 3d da 00 1e bc 54 3d 95 bd 38 98 e6 bb
       0.032439258 -0.009643758 -0.07287088 -0.007037189
000130 24 ad 88 bc 18 31 9f bb a4 e7 12 bc 62 6d 70 bd
       -0.016684122 -0.0048581474 -0.00896636 -0.058698066
000140 fb 98 1e 3d 14 ea b5 bb 53 c4 8d 3d 13 70 8b 3c
       0.038720112 -0.005551586 0.069222115 0.017021215
000150 9e 0d e0 bd af e1 21 bd 78 02 ae 3a 1f 6c 93 3c
       -0.10940097 -0.03952187 0.0013275882 0.017995892
000160 66 9f 3c 3b 8a 15 1e bc 00 94 c1 3c 4d 34 6f 3c
       0.0028781532 -0.00964869 0.023630142 0.014599872
000170 4d 94 fe 3c 40 13 0c 3b 4d de d6 bc c1 c2 b0 bc
       0.031076575 0.0021373779 -0.026229048 -0.02157724
000180 0b 6c 71 bd a6 78 06 3c 11 ac c3 bc 38 c2 c3 bc
       -0.05894093 0.008207476 -0.023885759 -0.023896322
000190 b4 ee 3a 3d 29 ec 0d bd fa 34 34 bc 4d 4d 1f 3c
       0.0456378 -0.034649048 -0.010998959 0.00972302
0001a0 17 4e c4 3c 4d a8 2e bd 33 9c 94 bd a2 88 d8 bc
       0.023963017 -0.042640973 -0.07256355 -0.02643234
0001b0 46 64 3f 3c 72 d3 6d bc c2 d5 ad bc 3b 14 f1 bb
       0.011681622 -0.0145157445 -0.021220092 -0.007357148
0001c0 d9 79 82 bd e9 19 cc bb 7a 67 0e bd 92 cc bd 3b
       -0.06370897 -0.0062286747 -0.03476665 0.005792209
0001d0 ce 4d db b9 11 d5 ef bc 02 d7 1f bc c3 9c 4e bc
       -0.00041828904 -0.029276403 -0.009755852 -0.012610617
0001e0 29 dc 89 3d 23 05 00 be 59 86 29 be d9 9b 35 bd
       0.06731445 -0.1250196 -0.16555156 -0.04433808
0001f0 fa 1a c4 bd f2 6a 7d 3c 96 af 8c bc 16 04 18 3c
       -0.09575458 0.015467392 -0.01717357 0.009278318
000200 59 4e 83 3d 51 b0 b0 bd 96 09 64 bd 64 f8 12 bd
       0.06411428 -0.0862738 -0.055673204 -0.035881415
000210 8a 74 a5 bd fd b9 76 bb 2f d5 3e 3d 08 58 9e bc
       -0.08078869 -0.0037647479 0.046590026 -0.019329086
000220 f7 5d 42 bc de c9 bd 3b f5 f5 aa bd 38 d8 fb 3a
       -0.011863223 0.0057918867 -0.08347694 0.0019214218
000230 27 b2 2c be ee a8 b1 3b 04 ea 40 be 2c a0 09 3e
       -0.16864835 0.0054217493 -0.1883927 0.13440007
000240 41 fa 78 bd b6 94 55 be 00 14 26 be 38 c6 05 3d
       -0.060785536 -0.2085751 -0.16218567 0.03265974
000250 a9 58 3e be a5 67 82 3d 64 24 98 3d 02 d8 1e bc
       -0.18588509 0.06367425 0.07428816 -0.009695055
000260 7c 21 7b be d3 63 a1 3d 5c 88 02 bc 45 a5 ad 3c
       -0.24524492 0.07880368 -0.007967081 0.02119697
000270 17 4d 3f ba 3a a2 84 bd f6 4b 87 3c b1 32 e2 3d
       -0.0007297559 -0.06476255 0.016515713 0.11044825
000280 04 99 00 3b d4 9b 84 bd 20 13 03 3c cb 16 1c bd
       0.0019622454 -0.06475034 0.008000165 -0.038107675
000290 8d 6d 40 bd 83 ad 01 3a 8c 7f 6a bc eb e3 18 3d
       -0.046979476 0.0004946815 -0.014312636 0.037326735
0002a0 b6 37 05 bd 3b 55 38 3d c6 49 48 3d 89 4d 05 3d
       -0.032523833 0.045003157 0.04889848 0.032544646
0002b0 c8 67 8b bc f4 00 d3 bb 24 a8 ed bd b0 02 2b 3d
       -0.01701726 -0.0064393226 -0.11604336 0.04175061
0002c0 ba ed b8 bc 5e 8a 05 bd 5d 9d af 3d ba 3b 3e bd
       -0.022574294 -0.03260266 0.085749365 -0.04644368
0002d0 25 4b 0b bd 68 1e 31 be 45 17 c2 3d 87 63 94 3c
       -0.03400721 -0.17296755 0.094770946 0.018113865
0002e0 0c 06 6b 3a 6b dc df bd 04 d2 d6 bd c9 f7 91 bc
       0.00089654396 -0.10930713 -0.10489276 -0.017818348
0002f0 9e d1 31 3d ef fb d7 3b 37 67 03 be 13 d3 42 3d
       0.043412797 0.006591312 -0.12832342 0.047564577
000300 df 7e 22 3d 45 f2 e6 bb fc fc ac 3c 59 85 d3 3c
       0.039671775 -0.0070479237 0.021116726 0.025820421
000310 4f bc 38 3d 80 de a4 bc 20 d3 e1 bc d7 b5 45 be
       0.04510146 -0.020125628 -0.027566493 -0.19307648
000320 24 0e 3b bd 07 7c ef 3b 4a 5b 91 3c 77 c0 e4 3c
       -0.045667782 0.0073084864 0.017743725 0.027923806
000330 06 21 b0 3d da bb 10 bd 7b d2 53 3c ef eb 62 3d
       0.08600049 -0.0353354 0.0129286 0.055400785
000340 c7 d6 2e 3c 11 a4 48 3b 7c 10 b5 bc 2b 6e 6f 3c
       0.010671324 0.003061537 -0.022102587 0.014613668
000350 a0 cb 1c be 44 61 08 3d 2c 76 0e bd 06 94 bf bd
       -0.15312052 0.033295885 -0.034780666 -0.09354405
000360 08 84 1c bb 8d e8 ad 3b 8b e2 1a 3d 54 9d 73 3d
       -0.0023882408 0.005307263 0.037813704 0.05947621
000370 20 ba eb 3c 68 96 92 bb 00 02 91 bd 8b 2b a9 bb
       0.028775275 -0.004473496 -0.070804596 -0.0051626614
000380 e6 83 96 bb e2 c6 b1 bd 32 fa c5 bc dc 60 9c 3d
       -0.0045933602 -0.08680512 -0.024167154 0.07635662
000390 e3 31 90 39 04 b2 6b 3c bb d3 b3 3b 41 d4 08 3d
       0.0002750299 0.014385704 0.0054878867 0.033405546
0003a0 57 2e b5 3d b8 ca a1 3c 23 5c 15 be d4 54 ae bd
       0.08846729 0.019749984 -0.14585929 -0.085122734
0003b0 13 1d 8f 3d c1 be 81 3c ba f0 cb 3b cb 4e c8 bd
       0.06987967 0.015838029 0.006223765 -0.097806536
0003c0 08 3e 2f 3c c7 3a e2 bd fd 61 19 bc d1 23 a3 3d
       0.010695942 -0.11046367 -0.009361741 0.07965816
0003d0 d9 ed 74 3d 88 7d 66 be d9 27 8b 3d 06 b1 08 bd
       0.05979714 -0.22508824 0.0679471 -0.033371948
0003e0 69 3c 37 bd 96 30 73 3d a9 d7 33 3b bf de 8b bb
       -0.044735346 0.059372507 0.0027441776 -0.0042684968
0003f0 dc 6f d6 bc 0f 84 bf 3c 72 89 02 bd 84 74 b0 bd
       -0.026176386 0.0233784 -0.03186936 -0.086159736

fc1.bias f4 [128]
000000 8d b5 57 bd 61 1b 5a bc 71 82 40 bb d1 6a 33 bd
       -0.052663375 -0.013312192 -0.0029374624 -0.04380304
000010 96 ea 70 3b a1 ce 64 bd 4a 68 8d bd 1b a3 9a bd
       0.0036760918 -0.05586112 -0.06904657 -0.07550641
000020 a9 a1 09 be 4b 2e a9 3c b7 fc 83 bc 40 2e 0f bd
       -0.13440575 0.020651957 -0.016111715 -0.034956217
000030 fa 27 71 bd 70 b6 b8 bc 13 35 54 3c 31 7a c7 bd
       -0.058876015 -0.02254793 0.012952107 -0.09740103
000040 ff 94 cf 3c af d1 eb bd 7c 69 56 bd a7 40 c7 bb
       0.025339602 -0.11514603 -0.05234669 -0.006080705
000050 05 a1 9e bd a2 6f 53 38 8e f4 89 bd 65 7d 0d be
       -0.07745556 5.0410286e-05 -0.06736098 -0.13817365
000060 7c 3f 2d bd b8 c4 51 bd dc 34 dc bd f9 25 31 3d
       -0.04229687 -0.051212996 -0.107522696 0.043249104
000070 7e 41 82 bd 81 42 03 bd 65 35 14 bd 54 7c 73 39
       -0.06360148 -0.032045845 -0.036183733 0.00023220602
000080 86 18 9d bd 4a 9f ce 3c e7 4f e5 3c 3b 4f e3 3c
       -0.07670693 0.02522244 0.027992202 0.027747741
000090 80 60 83 bd d0 97 64 bd ab a4 9a 3c 73 4f f8 3c
       -0.0641489 -0.055808842 0.018877348 0.030311322
0000a0 bf 94 78 bd b4 57 fe bd e1 08 81 bc f0 87 3e bc
       -0.06068873 -0.12419072 -0.015751304 -0.01162909
0000b0 fa 07 f7 bd 34 06 f6 bd b3 89 9d bc d0 6f 8b 3c
       -0.12062068 -0.12012902 -0.0192307 0.01702109
0000c0 60 4a 42 3c 44 14 9a bc a1 04 cd bb 48 1d ae 3c
       0.011858553 -0.018808492 -0.0062566553 0.021254197
0000d0 af b2 88 bd 37 93 30 bd dc a3 e4 3c 19 69 9a bd
       -0.06674706 -0.043109145 0.027910165 -0.07539577
0000e0 69 71 9b bd 66 02 29 bd 3e 70 cd 3c 15 39 d9 bd
       -0.07589991 -0.041262053 0.025077935 -0.10606591
0000f0 a9 20 64 bd bd 02 b3 bd ec ee da bd b0 ca d2 3c
       -0.05569521 -0.08740757 -0.10690102 0.025731415
000100 db 43 d8 bd 5f b6 09 3b c9 76 ab 3c e9 25 02 bd
       -0.105598174 0.0021013243 0.020930665 -0.031774435
000110 6b 48 10 3d e4 c4 47 bd 7b 38 b4 bb 3a af 7f bd
       0.035225313 -0.048771754 -0.005499897 -0.06242297
000120 85 c6 83 bd ef b3 5a 3d fb a9 7f bd dd 48 32 3c
       -0.06434349 0.053394254 -0.062417965 0.01088163
000130 b4 03 e8 bd 72 7b cb 3c 6b 1a a4 bd ce 68 c4 bd
       -0.11328831 0.024839137 -0.08012851 -0.095903024
000140 8f 24 1d 3b cd 4d 92 bc 42 02 83 bd 24 1b ad bd
       0.002397809 -0.017859364 -0.06396915 -0.08452442
000150 22 da 32 3a dc c2 c7 bd b2 19 3c bd e8 2e e9 bc
       0.00068226655 -0.09753963 -0.045922942 -0.02846475
000160 cf 21 b1 bd be b7 8d b8 17 e3 82 bd 16 5b c5 bd
       -0.086490266 -6.7576286e-05 -0.0639097 -0.09636514
000170 88 88 a5 bd ba 76 95 bc 82 34 35 bd 60 e2 a3 3c
       -0.08082682 -0.01824509 -0.04423953 0.020005405
000180 32 ae 88 3c 9c 8d fd 3c d9 ed ab bd 1a 29 08 bd
       0.016684625 0.030951314 -0.08394975 -0.033242323
000190 55 5f 86 bd b5 84 c5 bc 17 c4 40 bd cb 22 20 bc
       -0.06561152 -0.024111131 -0.047062006 -0.00977392
0001a0 d6 8f 23 bd 91 a0 67 bd 07 6d 5d bd 65 e2 27 bd
       -0.039932095 -0.056549612 -0.054059055 -0.04098739
0001b0 30 d6 dc bc d7 44 20 bc 86 6c eb bc b2 c3 00 bd
       -0.026957601 -0.009782038 -0.028738271 -0.03143663
0001c0 02 65 d4 3c 69 b6 75 3c 86 f5 4b bb 8e 49 e8 bd
       0.02592707 0.014997103 -0.0031121685 -0.113421544
0001d0 e6 c5 00 3d ea 01 1b 3c 68 34 e1 bc 37 b5 06 bd
       0.03143873 0.009460906 -0.02749081 -0.032887664
0001e0 32 8f ed bd 83 6e 64 3a 90 30 6e 39 41 71 05 bd
       -0.11599578 0.00087139773 0.0002271554 -0.03257871
0001f0 e2 02 ad bd 1f 89 87 bd de 7e 2e bd b2 6f 1b bd
       -0.084478155 -0.06617951 -0.04260146 -0.037948318

fc2.weight f4 [8, 128]
000000 be 64 b8 3d e1 54 8b be e0 4a 87 be 8f 1f 17 3e
       0.0900359 -0.27213195 -0.26424313 0.14758132
000010 95 9a bd be ce 99 82 be 65 53 ad 3d 4c 3e 07 3e
       -0.37032 -0.2550797 0.08463172 0.13207358
000020 26 15 44 3e 1b 63 97 be df cd 8c be 4e f1 9e be
       0.19148692 -0.295678 -0.27500817 -0.31043476
000030 82 9f b7 3d 7b e5 45 be a9 b1 78 be 06 82 3c 3e
       0.089659706 -0.19325821 -0.24286522 0.18408975
000040 e0 44 9a be 44 81 22 3e 80 e5 f2 3d ed e9 67 be
       -0.30130672 0.15869623 0.1186018 -0.2264783
000050 ee 74 ad 3d c8 2c 62 be dd ee d2 3d f5 a3 47 3e
       0.08469568 -0.22087395 0.10299466 0.19496138
000060 f8 de 9c be 6b 11 8b 3d 32 87 c5 3d 8c d9 84 be
       -0.30638862 0.067904316 0.09644927 -0.25947225
000070 e8 73 e8 3d 4d dc 8b be e2 14 a3 be 2b e4 99 be
       0.11350232 -0.27316514 -0.3185187 -0.3005689
000080 c8 ce 33 3e b8 3b 71 be c6 1f a9 be 86 37 a7 be
       0.1755935 -0.23557937 -0.33032054 -0.3265955
000090 81 21 34 3e 18 ad 47 be 1c 9e 7d be 60 f1 70 be
       0.17590906 -0.19499624 -0.24767345 -0.23529577
0000a0 f3 db 92 3d 0b 70 1a 3e 86 a8 87 be d8 cc 87 be
       0.07170858 0.15081804 -0.2649576 -0.2652347
0000b0 b3 80 28 3e 88 0f 43 3e b8 1b 5c be 58 34 aa be
       0.16455345 0.19048893 -0.21494949 -0.3324306
0000c0 49 a6 41 be 46 f0 70 be a8 4b 82 be ea 52 a3 be
       -0.18911089 -0.23529157 -0.25448346 -0.31899196
0000d0 6a ff 08 3e 42 63 8b be af 44 84 be 28 7e 04 3e
       0.13378683 -0.27224165 -0.2583365 0.1293875
0000e0 27 cd fe 3d e7 77 19 3e e0 bb 56 be 6b 37 0d 3e
       0.124414735 0.14987145 -0.20970106 0.13790672
0000f0 96 a3 9b 3d a5 eb 03 3e 5a 16 2a 3e 07 62 90 be
       0.07599561 0.1288286 0.16610089 -0.2819979
000100 43 ed 1f 3e 5f 12 47 be 7b 75 53 be ce 2b 88 be
       0.15617852 -0.19440602 -0.20650284 -0.2659592
000110 b3 be 97 be 67 91 c6 3d 04 82 5f be b2 06 2a 3e
       -0.2963768 0.09695702 -0.21826941 0.16604117
000120 47 11 d3 3d 54 65 6b be 0c 8b 13 3e 61 92 8e be
       0.1030603 -0.22987872 0.14408511 -0.27846053
000130 99 ad 26 3e 33 10 89 be 42 d9 0d 3e 90 da e8 3d
       0.1627716 -0.26770172 0.13852409 0.113698125
000140 70 04 87 be da 97 78 be f2 d5 09 3e 34 b1 30 3e
       -0.26370573 -0.24276677 0.1346052 0.17255098
000150 1b 7d 7c be 38 00 2a 3e ff 32 f4 3d c6 05 92 be
       -0.24657099 0.16601646 0.11923789 -0.2852003
000160 8e 19 07 3e ce f6 65 be f1 f1 16 3e c1 5a 08 3e
       0.13193342 -0.2245743 0.14740731 0.1331587
000170 4d d5 eb 3d 27 68 8c be aa 63 16 3e 86 ea 5a be
       0.11515293 -0.27423212 0.14686456 -0.21378526
000180 58 e0 a8 be e5 2e 81 be 37 5a 01 3e a9 48 5f be
       -0.3298366 -0.2523109 0.1263207 -0.21805061
000190 6c e2 ea 3d 7d 79 92 be f8 87 8c be b4 8b 96 be
       0.11468968 -0.28608313 -0.27447486 -0.2940346
0001a0 13 ea a6 3d 80 2e f5 3d d1 b6 fb 3d 3f d3 f6 3d
       0.08150115 0.1197176 0.12290729 0.12052011
0001b0 de b2 0c 3e 9e 10 93 be 7f 32 e9 3d fc 5b 8a 3d
       0.13740107 -0.28723615 0.113865845 0.06755826
0001c0 df ba 9c be 99 79 95 be 37 28 85 be 98 6b ec 3d
       -0.3061132 -0.29194334 -0.26007244 0.115439594
0001d0 db b8 88 be a6 db 8a be 96 11 b6 be 20 f7 82 be
       -0.26703534 -0.27120703 -0.35560292 -0.25579166
0001e0 15 1c 4c 3e f6 58 59 be fd 30 a2 be da 00 a8 3d
       0.19932587 -0.21225342 -0.31678 0.082032874
0001f0 35 e0 ee 3d ca 4e 26 3e de f7 a5 3d 02 b1 58 be
       0.11663858 0.16240993 0.081039175 -0.21161273
000200 af 8c fc 3d 68 05 80 be 91 61 99 be c3 b7 22 3e
       0.12331521 -0.25004125 -0.2995725 0.15890412
000210 f8 0c 72 be 36 b5 6f be 89 41 20 3e 8c 7f e8 3d
       -0.2363776 -0.2340897 0.1565 0.11352453
000220 52 d5 2f 3e 93 c0 4b be 03 2d 53 be 30 5e 8b be
       0.17171219 -0.1989768 -0.2062264 -0.27220297
000230 1b 9e b5 3d 54 a9 59 be 75 f4 5b be 74 c5 37 3e
       0.08868047 -0.21256 -0.21479972 0.17946416
000240 08 72 78 be d9 08 26 3e 3e 92 cd 3d 52 4b 96 be
       -0.2426225 0.16214313 0.10037659 -0.2935434
000250 e5 e8 a6 3d 8a 6c 7a be 2e 43 94 3d a1 cd 41 3e
       0.0814989 -0.24455467 0.07239376 0.18926097
000260 14 73 7e be fb 51 c0 3d c3 59 09 3e ff 13 88 be
       -0.24848586 0.093906365 0.13413148 -0.26577756
000270 bd 2f fc 3d ac f6 85 be 06 91 82 be 87 4f 81 be
       0.12313793 -0.26164758 -0.2550127 -0.25255987
000280 3a 93 3d 3e 25 3c 33 be 43 09 9b be f4 15 95 be
       0.18513194 -0.17503412 -0.30280504 -0.2911831
000290 34 4b 3f 3e c2 c3 3b be 15 b0 57 be 6d 3b 35 be
       0.18681031 -0.18336394 -0.21063264 -0.1769845
0002a0 29 a8 b8 3d 75 7f 32 3e 1d 02 6e be 4f 69 82 be
       0.09016449 0.17431433 -0.23242994 -0.2547097
0002b0 07 75 2f 3e 7f 8d 25 3e 34 12 60 be ab 2f 5c be
       0.17134486 0.16167258 -0.21881944 -0.21502559
0002c0 37 4d 2c be 36 94 74 be 7d 49 81 be 8c 36 99 be
       -0.1682633 -0.23884663 -0.2525138 -0.29924428
0002d0 06 3f fa 3d bb 42 70 be 81 12 73 be 34 80 13 3e
       0.12219052 -0.23462956 -0.23737527 0.14404374
0002e0 51 0a b3 3d 94 dc 04 3e e6 05 47 be 15 e9 10 3e
       0.08742202 0.12974769 -0.19435844 0.14151414
0002f0 e5 b1 86 3d b0 4e e4 3d 5e f7 d6 3d 46 36 34 be
       0.065768994 0.11147821 0.104964 -0.17598829
000300 a9 9b 01 3e c5 a6 48 be 4e 1d 6f be 6f 66 a1 be
       0.12657036 -0.19594868 -0.23351023 -0.31523463
000310 e7 4f 4f be 96 1c f8 3d d7 b1 59 be 9b fa 51 3e
       -0.20245324 0.12114827 -0.21259247 0.20505755
000320 5a ba 2a 3e 5d fa 78 be 6f c7 f4 3d 4d 84 9e be
       0.1667265 -0.24314256 0.119521014 -0.30960312
000330 af 3e 2d 3e fc a0 62 be 52 77 1b 3e 6b f6 fa 3d
       0.16918443 -0.22131723 0.15182236 0.12254032
000340 c9 45 4b be 96 0f 3a be 36 c8 b3 3d 70 0c 22 3e
       -0.1985084 -0.18170008 0.087784216 0.15825057
000350 bb 9b 92 be 49 4a 18 3e 4a 13 16 3e 27 5c 37 be
       -0.28634438 0.14872088 0.14655796 -0.17906247
000360 25 a4 01 3e a3 da 4b be 30 9a ee 3d ca d2 04 3e
       0.12660272 -0.19907622 0.11650503 0.12971035
000370 8d 61 fc 3d 4f 0f 46 be 5b 79 06 3e cb 9b 32 be
       0.12323294 -0.19341777 0.13132231 -0.17442243
000380 39 e0 92 be dc 72 63 be b4 75 16 3e 54 70 6c be
       -0.28686693 -0.22211784 0.14693338 -0.23089725
000390 18 0b da 3d 34 45 63 be 5f 3c 8a be f5 a0 8e be
       0.10646647 -0.22194368 -0.26999184 -0.27857175
0003a0 f9 30 7f 3d 1a fd b9 3d 9e 09 2d 3e 1a 70 90 3d
       0.062302563 0.090814784 0.168982 0.07052632
0003b0 ad 31 ae 3d a4 54 2e be f8 e2 06 3e 9b de be 3d
       0.08505569 -0.17024475 0.13172519 0.093198024
0003c0 36 13 3f be 1b c8 81 be b0 28 5c be c4 a4 e6 3d
       -0.18659672 -0.2534798 -0.21499896 0.11261895
0003d0 99 67 45 be 2c c0 63 be f8 cd a2 be dd 47 84 be
       -0.192778 -0.22241277 -0.31797767 -0.25836077
0003e0 ef 59 30 3e 95 ee 93 be e6 6b 2a be 61 9f d0 3d
       0.17221807 -0.2889296 -0.16642722 0.10186649
0003f0 35 69 fd 3d 3d a9 2a 3e dd f9 c2 3d ac 5e 15 be
       0.12373582 0.16666122 0.09520314 -0.14586896

fc2.bias f4 [8]
000000 ef 3a 64 3e cd d7 3b 3e be 74 37 3d d1 5f 3d 3e
       0.22288106 0.1834404 0.04478907 0.18493582
000010 52 3a 38 3e b1 2a 5e 3e d5 cf 36 3e ad 74 5c 3e
       0.17990997 0.21695973 0.17852719 0.21528883

fc3.weight f4 [1, 8]
000000 a1 4b 58 3f 2c 26 6c 3f 40 98 98 bf f2 a6 6e 3f
       0.844904 0.92245746 -1.1921463 0.9322349
000010 06 10 70 3f 25 98 53 3f f2 47 6d 3f c4 a9 76 3f
       0.9377445 0.8265403 0.92687905 0.9635279
