model/cross_validation/hp_nested_cv/checkpoint/c001_c000_44_16_0.0001_64_0.2.pt (torch, 78935 bytes, 5 tensors)

fc1.weight f4 [44, 420]
000000 9a 28 9b 3c 1d 3b 16 3d 9c cd 95 bc 36 1c fc bc
       0.018940259 0.03667747 -0.018286519 -0.03077517
000010 c9 0e cb b9 5d 98 6b 3c dd b0 37 bc 08 4a 3b 3c
       -0.00038730193 0.014379588 -0.011211601 0.011431225
000020 bf b9 8f bc 2f 86 0b bc a3 a0 45 3c 00 18 8d bd
       -0.017544625 -0.008515879 0.012062225 -0.06889343
000030 b4 51 d5 bc d3 d4 c2 3c 5e d2 25 3d 2f 1a 86 bc
       -0.026039936 0.023783123 0.040483825 -0.016369907
000040 0b a0 18 bd 15 ad 7f 3c 03 6a 57 3a 40 13 8f 3d
       -0.037262004 0.015605231 0.0008217396 0.069860935
000050 1b 4c 7b bc fd 98 39 3d 8b f4 7c bb 59 92 b6 3c
       -0.015337969 0.045311917 -0.0038597907 0.02228658
000060 e8 1d e6 bb 4a 5e 12 bd 14 2c 9d bc 78 65 31 bd
       -0.007022608 -0.035734452 -0.019186057 -0.04330966
000070 83 86 52 bd 9a 52 30 3c c5 04 be 3b 36 f3 5d 3a
       -0.05139781 0.010761881 0.0057989084 0.0008466722
000080 b3 29 3e bd a7 55 3b bc f8 6e 0e 3c f8 d9 4f bd
       -0.046426486 -0.011433995 0.008693449 -0.05074498
000090 fb 89 a8 3a 40 e4 89 bb 7e c4 91 bc d1 67 bb bc
       0.0012858504 -0.0042081177 -0.01779389 -0.022876652
0000a0 f7 43 ea bc 95 8d 86 3c 1d a8 05 bc cb b1 ab bc
       -0.028596861 0.016424933 -0.008157757 -0.020958802
0000b0 93 ec 66 3c 02 be 63 3c a8 2e cf bd 14 87 03 3d
       0.01409449 0.013900282 -0.10116321 0.032111242
0000c0 d3 53 09 bb df dd 44 3c 62 74 3b 3d f7 42 81 3b
       -0.0020954504 0.012015789 0.04576529 0.0039447504
0000d0 3e 84 26 3b db 1b 56 3a e8 ac fa bc e3 69 ac bc
       0.0025408412 0.0008167603 -0.030600026 -0.021046584
0000e0 fc 55 07 3c ab 24 0a bd a6 0e e6 3c bf e9 58 bc
       0.008260246 -0.033726376 0.028083157 -0.013239323
0000f0 82 db 15 bd 0d da 61 bc 0d e6 91 bc 12 1b e1 bc
       -0.036586292 -0.0137848975 -0.017809892 -0.027478728
000100 88 1a 2c bd ae 88 92 bc df 92 99 b9 fc 6e f8 bb
       -0.04201749 -0.01788744 -0.00029291862 -0.0075815897
000110 66 64 83 bd 68 c2 ed bc da 68 14 3d f3 4b 3b 3c
       -0.06415634 -0.029023364 0.036232807 0.011431682
000120 2e 52 d8 bd 49 96 c3 ba 45 6e 27 3c 88 78 17 bd
       -0.105625495 -0.0014922108 0.010219161 -0.036980182
000130 87 6e 03 bc 3f 31 02 3d 39 ca 95 3b 34 b6 13 bd
       -0.008021957 0.031785246 0.004571226 -0.036062434
000140 15 75 fc 3c 48 54 ba bc bd ce a1 3a 84 62 ad bb
       0.030817548 -0.022745267 0.0012344938 -0.005291285
000150 07 69 34 bd e3 1c e7 bc ab 8c 06 3d 7c 31 2e bd
       -0.044045474 -0.028212016 0.032848995 -0.04252766
000160 fa fc 58 bc 9d 7e 42 bc 46 7a 82 3c 18 c1 ac bc
       -0.013243908 -0.011871007 0.015927445 -0.021088168
000170 30 2d 55 bd 4b ba 8d 3d f6 e2 02 bc 28 26 6b 3d
       -0.052045047 0.06920298 -0.007988682 0.057409436
000180 9c 04 36 bc f0 48 00 bd f9 cf af bd 3a 54 57 3d
       -0.011109497 -0.03131956 -0.085845895 0.05257056
000190 a5 e2 92 3c 39 2c c8 3c fe 36 91 3d 1d 1b dd 3c
       0.017930338 0.02443515 0.07090567 0.026990468
0001a0 49 6f 97 3c 0e 64 90 bb 5d 3a f3 bc 34 87 87 bc
       0.018485682 -0.0044064587 -0.029690916 -0.016543962
0001b0 46 f0 23 3c 45 1c b2 3c 10 0a 97 bb b7 dc ee bc
       0.010006016 0.021741996 -0.004609354 -0.02915798
0001c0 7b d7 0c be 92 73 e7 bb e9 45 81 bb a4 87 9b bc
       -0.13754074 -0.0070633376 -0.0039451015 -0.018985577
0001d0 8c 92 05 bb 86 97 7d bc b8 c2 53 3d 31 a6 ec 3b
       -0.0020381538 -0.0154780205 0.05169937 0.00722196
0001e0 4a 84 16 3d 86 fd 91 be 44 ce 60 bd 1e 2b de 3d
       0.036747254 -0.28513736 -0.05488421 0.10848068
0001f0 e2 a6 17 bd 25 7c 35 3d da a4 0f bc 19 9c 2d bd
       -0.037024386 0.044307847 -0.008767331 -0.042385194
000200 ba 15 95 bc dd 12 06 be 78 f1 9f bd 93 f9 af bd
       -0.018198837 -0.13093133 -0.078097284 -0.085925244
000210 4b 50 27 be 2b 87 3e bc 75 59 88 3d e4 d2 7c 3d
       -0.16339223 -0.011628906 0.066576876 0.06172456
000220 91 51 2c bc 12 a7 05 bd 12 fd e0 bd c2 b1 0b 3d
       -0.010517494 -0.032630034 -0.10985769 0.03410507
000230 73 d9 e5 3b ba fa 15 be 9b 13 8b be 34 ba 88 bd
       0.0070144474 -0.14646426 -0.27163395 -0.066761404
000240 c1 17 14 be 3e dc 28 be a4 83 23 be ab 7f 6b 3d
       -0.14462186 -0.16490266 -0.15968186 0.0574948
000250 08 a2 fd bd e3 0b 37 3d dd 80 76 bd 00 9c c3 bd
       -0.12384421 0.04468907 -0.060181487 -0.09551239
000260 54 52 03 be 92 c8 14 3c f8 e0 ea 3d 57 fa ef 3c
       -0.12824374 0.009081023 0.11468691 0.029294176
000270 86 f3 fe 3d e7 fb 10 3e 6a ee 28 be 58 a8 41 be
       0.12448792 0.14158593 -0.16497198 -0.18911874
000280 39 58 c3 3d f4 50 0f be 0f d3 24 bd 67 23 b5 bd
       0.095383115 -0.13995725 -0.040240344 -0.08844643
000290 aa 50 81 3d 56 3a 39 bc ba ef 95 bd ed 1d fe 3c
       0.063142136 -0.011305412 -0.07321115 0.03102013
0002a0 66 d9 a4 bd 79 fc 36 3d 79 36 17 bc 97 1f ad 3d
       -0.08049278 0.04467437 -0.009229296 0.08453291
0002b0 f6 46 e2 bd 28 9c a9 bd 45 79 bf bd b3 b5 d6 3b
       -0.11048691 -0.082817376 -0.09349302 0.006552422
0002c0 ab 2c 84 3c 7f 21 1b bd 72 2d 1c 3d 84 94 c7 3d
       0.01613458 -0.03787374 0.038129278 0.09745124
0002d0 0e 34 8d bc 81 3f 16 be 0d 56 58 3d 3b 10 fb bb
       -0.017236736 -0.14672662 0.05281644 -0.007661847
0002e0 ac bd fd bc 8b 4d 96 3d 5d a1 a1 bd 5d d1 05 be
       -0.030974232 0.07339009 -0.07892106 -0.13068147
0002f0 1d 45 39 ba e9 08 57 be f5 03 0c be c9 e8 af 3c
       -0.00070674886 -0.20999493 -0.13673384 0.021473305
000300 ba 2a d7 3d 88 6a 16 3d 3c b1 a5 bc 6f 0b 17 3d
       0.10506196 0.03672269 -0.020226113 0.03687614
000310 58 f4 2c bb 2e e5 a4 bd 02 c2 70 bd 90 d1 21 bd
       -0.0026390757 -0.08051525 -0.05877877 -0.039506495
000320 37 a0 19 bd 3a f5 4d be e6 83 90 bd 89 93 6a bd
       -0.03750631 -0.20113078 -0.07056408 -0.057269607
000330 ef d9 78 3b d1 c1 16 bd 91 60 9f 3d 9f 63 9b 3b
       0.0037971695 -0.03680593 0.077820905 0.0047421004
000340 12 99 3f bb 54 a2 86 3b 36 b7 31 bc 8c f8 f1 bc
       -0.0029235524 0.0041087065 -0.010846904 -0.029537462
000350 40 3a 0c bd ca de a4 bc a4 40 58 bd 30 91 42 bd
       -0.03423524 -0.020125765 -0.05279602 -0.047501743
000360 2b 58 f4 bc df 95 e8 3c 0c f7 dd 3c d5 9e 88 3c
       -0.029827198 0.028391777 0.02709534 0.0166773
000370 16 9f 10 3d 74 03 1c bd de 2f 27 be 1f b8 fe bd
       0.035307966 -0.03808923 -0.16326854 -0.12437462
000380 b1 67 01 3d 47 f2 13 bd 7a 86 0f bc a0 02 dd 3d
       0.03159303 -0.036119726 -0.008760089 0.10791516
000390 26 5d c4 bd b9 37 fa ba 17 2b 9c 3d 42 68 82 3b
       -0.09588079 -0.0019090093 0.07625406 0.0039797137
0003a0 00 81 9f 3c 60 ca 4d 3b 7f 18 09 bd bf a6 98 bc
       0.019470692 0.0031401142 -0.033470627 -0.018634198
0003b0 a1 c1 18 3d 61 e6 f4 3c 70 7f e0 bc ce 8b 4c bc
       0.037294034 0.02989501 -0.027404517 -0.012484504
0003c0 03 88 e8 bc e4 67 29 be ed e7 f8 bd dc 4a c7 bd
       -0.028385168 -0.16543537 -0.12153611 -0.09731075
0003d0 7e 99 0e 3d 1f 5f 38 be be 7c b4 3d 6d d6 a2 3d
       0.03481435 -0.18005036 0.08812855 0.07951055
0003e0 b1 0e ed bb 07 56 e4 3d 1d f0 13 3d 6b d0 73 bd
       -0.0072344174 0.11149221 0.03611766 -0.059524935
0003f0 1f 6f 8e 3b fa 97 86 bc 2b ee 54 bc 3e 41 a3 bc
       0.0043467428 -0.01642989 -0.012996237 -0.01992857

fc1.bias f4 [44]
000000 1e 80 bc bd ae af 51 bc 98 4e 56 bd 6f fc 76 bd
       -0.09204124 -0.012798233 -0.052321047 -0.060299333
000010 bf 2e 13 bd 6f a2 30 bd 0b 2c 06 bd ff 45 b1 bc
       -0.035933252 -0.04312366 -0.032756846 -0.021639822
000020 c7 1e a4 bc f8 07 64 bb 1c 66 0f bd 4b d4 46 bd
       -0.020034207 -0.0034794789 -0.03500949 -0.048542302
000030 9f 58 3e bd 2a 31 5a 3c bc 70 8e bd 03 f4 d7 bc
       -0.046471234 0.013317386 -0.06955096 -0.026361471
000040 65 43 6d 3b af 54 6c bb 29 83 b9 bc 38 5f c7 bc
       0.00362035 -0.0036061218 -0.02264555 -0.024337396
000050 8a 6b 8b bd 26 88 cc 3c f9 4f 5c bd 39 63 01 bd
       -0.06807621 0.024967264 -0.053787205 -0.031588767
000060 17 f9 1c bd 96 31 55 bc 9b 08 32 bd 6c 9a 7e bc
       -0.038323488 -0.0130123105 -0.043465238 -0.015539747
000070 8d bf c8 bc 65 20 c0 bd f2 d7 9d bd 4f da f2 bc
       -0.024505401 -0.09381179 -0.07707204 -0.029645113
000080 6f c9 d2 bc 9b 44 a9 bd 09 b7 8d bd c8 59 dd bc
       -0.025730817 -0.082650386 -0.06919677 -0.02702035
000090 ff cc de bc 80 d8 b1 bb 66 17 92 3c 69 7f d1 ba
       -0.02719736 -0.00542742 0.017833423 -0.0015983406
0000a0 61 1b 1a bd 02 6e 1c 3c 0f 65 a2 3c 38 9b e5 3c
       -0.037623767 0.009547712 0.01982358 0.028028116

fc2.weight f4 [16, 44]
000000 21 98 90 be 08 45 7e 3e 4c 49 c1 be a1 61 92 3e
       -0.28241065 0.24831021 -0.37751234 0.2859011
000010 1a d4 95 3e df 31 8b 3e 0d 51 c4 3e 73 a8 92 3e
       0.29263383 0.27186486 0.38343087 0.28644142
000020 58 85 12 be 33 75 4c 3e 5a 64 c1 be 1d 94 0e 3e
       -0.14308679 0.19966583 -0.37771875 0.13923688
000030 e3 e5 ed be e0 1f 3f 3e 51 75 91 be 7f a4 66 3e
       -0.46464452 0.18664503 -0.28409818 0.22523688
000040 07 7f 3f 3e 8e 5b 86 3e 5a e5 a1 be e3 0e d2 be
       0.18700801 0.26241726 -0.31620294 -0.41026983
000050 37 ac 91 3e cb 1d 5e 3e 3f fd a0 be 3e d5 5c 3e
       0.28451702 0.21691053 -0.3144321 0.2156572
000060 ca cb 6d 3e 66 bb bd be 18 4f 4e 3e 73 9c 2c 3e
       0.2322227 -0.37057036 0.2014736 0.16856556
000070 7f 71 ac be 03 c3 e6 be ca dc 96 be b5 c3 7b be
       -0.3368034 -0.45070657 -0.29465324 -0.24586375
000080 b2 67 2c be d7 eb e7 3e 4b 44 ed be 7e fb 82 be
       -0.16836432 0.4529712 -0.46341166 -0.25582498
000090 68 69 f1 3d 6c ec 81 3e ff 16 4b 3e 40 b9 71 3e
       0.11787683 0.25375688 0.19832991 0.23605824
0000a0 6f fa 93 3e f9 f0 49 3e ab 0c 53 3e 78 99 45 3e
       0.28902003 0.1972083 0.20610301 0.19296825
0000b0 84 1d 95 3e 27 47 93 be 83 27 29 3e 86 ad e5 be
       0.2912408 -0.28765222 0.16518979 -0.4485895
0000c0 3d 6d af be e4 67 96 be a5 fd c7 be e0 aa cb be
       -0.3426303 -0.29376137 -0.39060703 -0.39778805
0000d0 21 02 72 3e f1 c2 aa be d2 3c 0e 3e b3 00 d8 be
       0.23633625 -0.33351853 0.13890389 -0.42188033
0000e0 61 df f6 3d 20 3c e5 be b2 94 0a 3e 5b 8c 95 be
       0.12054325 -0.44772434 0.13533285 -0.29208645
0000f0 bf 8a cc be 57 f6 9f be 4a 70 2c 3e 86 af 23 3e
       -0.39949605 -0.3124263 0.1683971 0.15984926
000100 4b cc 75 be 82 18 cc be bd 16 33 3e 62 56 f2 be
       -0.24003713 -0.39862448 0.17489143 -0.4733153
000110 b0 18 a9 be d1 5f 67 3e 31 fb 8c be 7a 97 9d be
       -0.33026648 0.22595145 -0.27535394 -0.3077963
000120 1f a5 88 3e 30 37 99 3e c3 40 2c 3e 23 ea 32 3e
       0.26688477 0.29924917 0.1682158 0.17472129
000130 68 2b 4e 3e 0b 95 9a be cf df 59 3e 51 e8 1a 3e
       0.20133746 -0.30191836 0.21276782 0.15127684
000140 c5 c7 e4 be 04 f5 8a be d3 d8 bf be d0 d1 d9 be
       -0.44683662 -0.27140057 -0.3747011 -0.42542887
000150 ab ac 58 be 1f 4d bb be 87 a6 c0 be 3f 3f b3 be
       -0.21159618 -0.36582276 -0.3762705 -0.3500919
000160 62 e9 b9 be 66 c0 cc 3e 36 eb 90 be 2e 54 bd 3e
       -0.3631087 0.39990538 -0.28304452 0.36978287
000170 4c d0 9b 3e c8 d1 91 3e 0b 97 8a 3e 80 d3 86 3e
       0.30432355 0.28480363 0.27068362 0.26333237
000180 94 3c d9 bd 1d 00 7e 3e 4d 2e 98 be 10 47 73 3e
       -0.106072575 0.2480473 -0.29722825 0.23757577
000190 2f 10 87 be 70 e8 61 3e f0 35 93 be 3f 8c 8c 3e
       -0.26379535 0.22061324 -0.2875209 0.2745075
0001a0 79 0e 81 3e f0 86 9d 3e 89 99 a3 be 54 7d a3 be
       0.25206354 0.30767012 -0.31953076 -0.31931555
0001b0 d7 82 b0 3e e6 72 3e 3e ba 3e 92 be 34 f5 53 3e
       0.34474823 0.18598518 -0.28563482 0.20699006
0001c0 81 73 a3 3e fa ad c0 be b5 46 6d 3e 50 5d 30 3e
       0.3192406 -0.37632734 0.23171504 0.17223096
0001d0 91 80 a4 be 9f 4f a7 be 8f b4 ac be 74 d9 96 be
       -0.32129338 -0.32677934 -0.33731505 -0.2946278
0001e0 7f e6 36 be 28 68 e3 3e f6 81 bc be c6 fe 6b be
       -0.17861365 0.44415402 -0.36817902 -0.23046407
0001f0 22 e0 86 3e 92 fe 56 3e 12 f5 63 3e 53 50 46 3e
       0.26342875 0.20995548 0.22261456 0.19366579
000200 cc 7e b1 3e 7c 66 4f 3e 79 45 80 3e 84 4c 2f 3e
       0.3466705 0.20253938 0.25053003 0.17119032
000210 2e 1b c8 be 56 16 9b 3e 11 2d cb be aa c3 8e 3e
       -0.39083236 0.30290478 -0.3968282 0.27883655
000220 75 5e 52 3e c8 96 5e 3e 18 45 7d 3e d5 bd 5c 3e
       0.20543845 0.21737206 0.24733388 0.2155679
000230 a2 41 0f be e7 ba 67 3e 78 ac ce be dc bf 38 3e
       -0.1398988 0.22629891 -0.40365958 0.18041939
000240 8b 30 ce be bb 80 05 3e 91 45 8a be ec 2d 87 3e
       -0.4027141 0.13037388 -0.270062 0.26402223
000250 c6 a5 0d 3e 71 4a 79 3e 53 69 8e be 97 71 ef be
       0.13832769 0.24344803 -0.2781473 -0.4676635
000260 96 f5 8d 3e 48 4f 12 3e d3 0b b3 be e8 19 63 3e
       0.2772643 0.14288056 -0.3496996 0.22177851
000270 f7 ac 31 3e 76 70 c9 be f5 3a 28 3e 8d bb 3a 3e
       0.17351137 -0.39343613 0.1642874 0.18235607
000280 95 36 99 be 4b 3d b0 be ab fd 98 be a5 4f 90 be
       -0.29924455 -0.34421763 -0.29881033 -0.28185764
000290 a1 32 89 be 9b 12 8a 3e 6a 4e f6 be cf bc c1 be
       -0.2679644 0.2696732 -0.481067 -0.37839362
0002a0 e7 ff 6a 3e 6c 01 57 3e c0 7a 07 3e 8c 81 41 3e
       0.22949181 0.20996636 0.13230419 0.18897074
0002b0 0f a2 b0 3e 38 44 1f 3e c1 d0 48 3e 53 db 0e 3e
       0.3449864 0.15553367 0.19610883 0.13950853
0002c0 c3 d6 8e 3e 32 f9 ac be 8d d5 70 3e e7 c4 f6 be
       0.27898225 -0.3378387 0.23518963 -0.481971
0002d0 08 59 d8 be 4b 01 81 be 53 44 c1 be cf 03 be be
       -0.42255425 -0.251963 -0.3774744 -0.3711228
0002e0 d2 af 40 3e 37 2c 02 bf a8 4f 0c 3e 8a 5c b3 be
       0.1881707 -0.50848716 0.13702261 -0.3503154
0002f0 6b 20 6b 3e 5f a9 c9 be b0 95 cc 3d 48 2b 81 be
       0.22961585 -0.39387032 0.09989488 -0.25228333
000300 36 e7 a3 be 27 b2 c8 be dc 5a 83 3e b3 36 62 3e
       -0.32012337 -0.3919842 0.25655258 0.22091179
000310 07 cd 43 be 4b 0d b4 be cf fd 43 3e 62 0a 02 bf
       -0.1912118 -0.35166392 0.19139789 -0.5079709
000320 f4 8f c1 be 9b 81 9b 3e e1 40 9a be ef 15 cf be
       -0.3780514 0.3037232 -0.30127624 -0.40446422
000330 86 4b 90 3e c1 d3 af 3e 13 b6 9b 3e d3 0d 99 3e
       0.2818262 0.34341243 0.3041235 0.2989336
000340 2d 80 29 3e e4 49 8f be 85 75 b3 3e 05 50 7d 3e
       0.16552801 -0.27986062 0.35050598 0.24737556
000350 e5 23 d2 be dd 59 5f be 4c 5b 94 be 8d ce cd be
       -0.4104301 -0.21811624 -0.28975904 -0.40196648
000360 d8 ca 1b be bd 72 a0 be 1b 25 99 be c6 45 a3 be
       -0.15214097 -0.31337538 -0.29911122 -0.3188917
000370 40 17 c5 be 43 fd 80 3e 1b 3a a5 be 62 17 8d 3e
       -0.384943 0.25193223 -0.32270893 0.27556902
000380 30 76 41 3e 26 b5 80 3e 57 cc 9f 3e 02 32 8d 3e
       0.18892741 0.25138205 0.31210586 0.27577215
000390 63 68 22 be c9 23 55 3e eb c6 e3 be 29 79 83 3e
       -0.15860133 0.20814432 -0.444877 0.25678375
0003a0 89 b7 a0 be 3a 14 3f 3e 26 07 9e be bf 1a 4b 3e
       -0.31390026 0.1866006 -0.3086483 0.19834422
0003b0 26 20 58 3e 5d 2c 78 3e 93 24 c0 be ac d9 bf be
       0.21106014 0.24235673 -0.37527904 -0.37470758
0003c0 35 33 b6 3e c6 a5 05 3e e6 f4 bb be 19 f7 2d 3e
       0.35585943 0.13051519 -0.3671028 0.16988792
0003d0 86 56 1e 3e 82 f0 e1 be d6 32 47 3e 44 6c e3 3d
       0.15462694 -0.44128805 0.19452986 0.111046344
0003e0 a0 a7 9b be a6 c8 dc be 8a 30 9f be 3f 5d a2 be
       -0.30401325 -0.43121833 -0.3109172 -0.31711766
0003f0 6d f5 57 be fa bc b0 3e d9 bb e1 be 70 98 af be
       -0.21089716 0.34519178 -0.4408863 -0.34295988

fc2.bias f4 [16]
000000 26 9f 89 3d fa 43 fb 3d 1b 74 6e 3d ee b0 95 3d
       0.06719808 0.12268825 0.058216196 0.07309137
000010 fe 80 01 3e 92 6c 90 3d 2f 63 91 3d 8e 0a 4b 3d
       0.12646863 0.07051958 0.07098996 0.049570613
000020 54 df e1 3d 6d e4 8b 3d f8 27 07 3e 8d 55 7e 3d
       0.110289246 0.06830678 0.1319884 0.062093306
000030 ed e9 0e 3e 78 80 f8 3d 19 92 15 3e 57 e4 90 3d
       0.13956423 0.121338785 0.14606513 0.07074802

fc3.weight f4 [1, 16]
000000 4b 11 25 bf 83 6a 38 3f 5a 47 14 bf 0b ec 38 bf
       -0.6447951 0.72037524 -0.57921374 -0.72235173
000010 8c 47 1a 3f 47 4a 35 bf af e0 1a bf a3 cf 1e bf
       0.6026542 -0.70816463 -0.6049909 -0.6203558
000020 db 62 54 3f 21 36 4a bf 64 32 26 3f 3d 7a 1d bf
       0.8296334 -0.78988844 0.6492064 -0.61514646
000030 e1 ea 2c 3f 7c ce 3c 3f d4 16 2d 3f 72 94 2c bf
       0.67545897 0.7375257 0.6761296 -0.6741401
