model/cross_validation/hp_nested_cv/checkpoint/c001_c003_128_4_0.01_64_0.3.pt (torch, 219607 bytes, 5 tensors)

fc1.weight f4 [128, 420]
0.31332752 0.72459203 -0.27827573 0.97533655 -1.4650875 0.2584399 -2.105379 -0.69359744
-0.8877903 0.2530414 -0.16273649 0.09989911 -0.277245 -0.7736979 -2.13108 -0.6629717
-1.5057143 0.5529571 0.40538818 0.36770046 -0.8322325 1.4210567 -0.97652423 -0.33667907
0.26445287 0.8463005 0.5403511 -0.12906541 -2.5085325 -0.32019898 -0.83010024 -0.0049672723
-1.7803414 -0.9627917 -0.031077195 -1.4862049 -0.4709645 -0.8365104 1.0281976 0.8582193
-1.3059865 2.231401 1.0610873 -1.0672109 -1.636393 -1.7070855 -0.6933965 -0.58875734
1.3962804 -1.0557059 -1.0234109 -1.2888808 -2.9738557 0.883673 -0.13495678 -0.6435771
-0.48004487 -0.10412051 2.1145556 1.6652775 0.034624945 0.851118 -0.44793978 0.870912
0.99316245 -2.4807398 -0.09388469 0.44172227 -1.6345562 -0.10796418 3.216331 -0.25659898
-2.8778586 -1.5561749 0.15282589 -0.584745 -2.7920785 0.31073067 -2.0597205 -0.32212403
0.41946834 -0.23249839 -1.1618949 -0.11458073 -0.17075686 -0.7886769 -2.1907196 0.42907244
1.0969015 -0.08773428 1.0397987 1.9600804 -2.5092008 -0.051729575 -0.9196018 -1.1204957
-1.9563773 -0.73303825 0.5611585 -1.3915848 0.5125355 1.767101 -0.48442623 -0.9786883
0.16759205 -2.3001997 -0.09529056 -1.4597045 -0.36152446 -0.7790111 -1.6832615 0.9853178
-7.475869 1.3934306 -2.560846 1.3998785 -0.6084428 2.1826 1.0429847 -0.0031279852
1.2378943 -8.22811 -7.68218 -1.5744365 -3.5466754 -1.2503538 1.3841413 0.25124234
-1.311632 -0.70071286 2.4838076 -3.5764089 -12.22735 -0.010089177 1.498558 2.0069897
0.51148033 -1.7851334 -2.2704926 1.2050827 -1.6800478 -6.2395096 -6.3590665 6.2075143
-7.448547 -6.5981956 6.2304444 -3.0822878 -8.972685 -1.715227 -7.2136974 -0.6057
5.6071844 -4.8981047 -2.4776955 -8.473709 -5.9263067 -6.4907317 -6.001164 -2.5813334
2.0265832 -6.233096 -0.8364 -1.440871 0.4937895 -0.98826844 1.6740712 2.0274494
-0.09441435 -3.1567116 0.48643094 -0.65805346 -8.4296465 -0.9692718 -0.0436012 1.2009847
0.17449518 0.25866073 1.1631987 0.19816932 -1.2489668 -4.3978257 -1.3563238 -1.3330133
-3.105139 1.5433613 -0.38572344 0.06486039 1.8945324 -3.1521912 -4.6133866 -2.3732452
2.3707302 1.779197 1.6492939 -0.33390793 -2.1148434 -1.2156379 -2.3536396 -1.2914394
-1.8652123 -7.8029685 0.8216977 -1.0665026 -0.5219365 0.6213534 1.9522353 -0.22864111
-2.2688057 -4.061484 -1.9149402 -0.5270815 1.8069077 0.4426998 -0.6782881 0.28588456
0.3015582 1.5105156 -2.9898386 -0.5288835 0.87143314 -6.847432 0.045305725 -5.2073617
2.4806314 1.5420749 -0.7220404 2.7428634 -1.5669758 -2.145329 -0.040479183 -0.5754395
0.515406 1.4942397 -0.050647717 -2.5443103 -0.7379619 -1.824741 -1.1729089 -3.6518958
0.12683316 -7.1392226 -3.3687577 -1.2910576 -3.1600268 -1.8189815 -0.94760126 3.093646
-2.3221815 0.1300995 -2.5517714 -0.563838 1.1318113 0.9105764 0.36445376 -2.2009554
00000000: 776c a03e dd7e 393f 287a 8ebe a8af 793f
00000010: fd87 bbbf 3c52 843e 88be 06c0 9a8f 31bf
00000020: 3a46 63bf a48e 813e 65a4 26be e897 cc3d
00000030: 0ef3 8dbe 1111 46bf 9d63 08c0 83b8 29bf
00000040: 3fbb c0bf 998e 0d3f 0a8f cf3e 3c43 bc3e
00000050: 300d 55bf 30e5 b53f 7efd 79bf 3361 acbe
00000060: 5e66 873e 26a7 583f 7354 0a3f b929 04be
00000070: cc8b 20c0 1ff1 a3be 7381 54bf 80c4 a2bb
00000080: 3ae2 e3bf 8479 76bf 9a95 febc f63b bebf
00000090: 4222 f1be 8c25 56bf fb9b 833f 43b4 5b3f
000000a0: 912a a7bf 46cf 0e40 b5d1 873f 5e9a 88bf
000000b0: 5375 d1bf c781 dabf 6f82 31bf cdb8 16bf
000000c0: 51b9 b23f 5f21 87bf 21ff 82bf 0cfa a4bf
000000d0: a753 3ec0 6538 623f 1c32 0abe 78c1 24bf
000000e0: 71c8 f5be 223d d5bd e154 0740 d027 d53f
000000f0: e3d2 0d3d dfe2 593f 5d58 e5be 17f4 5e3f
00000100: e53f 7e3f 71c4 1ec0 9e46 c0bd 6c29 e23e
00000110: 2339 d1bf 531c ddbd 5ed8 4d40 f160 83be
00000120: d62e 38c0 bd30 c7bf 647e 1c3e d9b1 15bf
00000130: 6ab1 32c0 1718 9f3e 76d2 03c0 71ed a4be
00000140: 8ec4 d63e 0f14 6ebe f9b8 94bf 4da9 eabd
00000150: e3da 2ebe bbe6 49bf c034 0cc0 62af db3e
00000160: 4567 8c3f 08ae b3bd 2018 853f eae3 fa3f
00000170: bf96 20c0 64e2 53bd 066b 6bbf 676c 8fbf
00000180: 926a fabf 65a8 3bbf 15a8 0f3f 731f b2bf
00000190: 8735 033f 5e30 e23f b706 f8be 518b 7abf
000001a0: 409d 2b3e 7936 13c0 b227 c3bd 99d7 babf
000001b0: bc19 b9be 456d 47bf 1d75 d7bf ca3d 7c3f
000001c0: 523a efc0 ef5b b23f e7e4 23c0 382f b33f
000001d0: e8c2 1bbf b8af 0b40 8680 853f e2fe 4cbb
000001e0: 5273 9e3f 57a6 03c1 6bd4 f5c0 2387 c9bf
000001f0: bbfc 62c0 980b a0bf 8b2b b13f d6a2 803e
00000200: 8fe3 a7bf eb61 33bf b4f6 1e40 e2e3 64c0
00000210: 3aa3 43c1 134d 25bc c0d0 bf3f 8572 0040
00000220: 60f0 023f 407f e4bf c04f 11c0 2640 9a3f
00000230: ce0b d7bf 10aa c7c0 797d cbc0 f5a3 c640
00000240: 7f5a eec0 6b24 d3c0 cd5f c740 3444 45c0
00000250: 1e90 0fc1 8f8c dbbf 9cd6 e6c0 280f 1bbf
00000260: 0e6e b340 46bd 9cc0 9092 1ec0 5094 07c1
00000270: 4ea4 bdc0 13b4 cfc0 8909 c0c0 9134 25c0
00000280: 8ab3 0140 8675 c7c0 4f1e 56bf 766e b8bf
00000290: fad1 fc3e 29ff 7cbf f747 d63f bbc1 0140
000002a0: 505c c1bd 9007 4ac0 7a0d f93e 3176 28bf
000002b0: d5df 06c1 3222 78bf 2c97 32bd deb9 993f
000002c0: ddae 323e 2e6f 843e b2e3 943f e6ec 4a3e
000002d0: 25de 9fbf fdba 8cc0 059c adbf 2ea0 aabf
000002e0: 99ba 46c0 dd8c c53f 8b7d c5be 86d5 843d
000002f0: 0a80 f23f 80bd 49c0 dda0 93c0 40e3 17c0
00000300: 0bba 1740 babc e33f 101c d33f fbf5 aabe
00000310: 9859 07c0 069a 9bbf 08a2 16c0 e34d a5bf
00000320: 47bf eebf ebb1 f9c0 c85a 523f 2883 88bf
00000330: a19d 05bf 0411 1f3f d9e2 f93f e520 6abe
00000340: 1d34 11c0 adf7 81c0 c31c f5bf d0ee 06bf
00000350: c048 e73f 8ca9 e23e 4aa4 2dbf 765f 923e
00000360: d665 9a3e 9358 c13f 8459 3fc0 e964 07bf
00000370: 3e16 5f3f 2a1e dbc0 7f92 393d b5a2 a6c0
00000380: aac2 1e40 b662 c53f a4d7 38bf 138b 2f40
00000390: aa92 c8bf 124d 09c0 80cd 25bd 0150 13bf
000003a0: a6f1 033f 3f43 bf3f fb73 4fbd fbd5 22c0
000003b0: 12eb 3cbf 1d91 e9bf e121 96bf a9b8 69c0
000003c0: 8de0 013e 8374 e4c0 ba99 57c0 6041 a5bf
000003d0: e13d 4ac0 63d4 e8bf ff95 72bf 4cfe 4540
000003e0: 9f9e 14c0 ce38 053e 3950 23c0 b057 10bf
000003f0: 31df 903f 891b 693f af99 ba3e 74dc 0cc0

fc1.bias f4 [128]
-2.439102 -3.5586114 0.7529939 -1.9670565 -2.3155167 -1.7410964 -5.5367117 -1.5621706
-4.4724092 -2.8336203 -8.550014 -2.4452512 -1.8318189 -1.2938969 -5.658517 -2.2092648
-4.0423884 -4.0623736 -1.9118298 -1.8105125 -2.2367234 -1.4406203 -1.9401107 -3.6794271
-2.3776102 -1.8284581 -5.3364115 -3.2020278 -4.771892 -1.0727012 -1.3407006 -1.5127691
-2.6682656 -1.9138261 -1.1208664 -3.080648 -0.85666156 -6.4414763 -6.3917027 -9.187708
-4.256096 -2.9876633 -1.8719816 -2.437753 -1.4439572 -2.0657647 1.1589588 -2.1745496
-0.7536572 -1.3892457 -4.8520975 -2.1191452 -2.4772038 -2.7474382 -1.4148924 -6.2038736
-3.3826556 -5.3269324 -1.1260188 -1.3405336 -4.960497 -0.109848246 -4.633479 -5.0012784
-1.6276872 -1.961169 -1.878941 -2.2728984 -4.560453 -4.9713826 -0.47062495 0.6869191
1.4276065 -3.710009 -2.9612267 -2.3221748 -2.4458797 -5.0032334 -2.9384925 -3.4031594
-1.3679785 -5.871118 -1.7601047 -2.354556 -0.7309135 -2.4567556 -2.795605 -3.5111248
-1.9065852 -2.0110452 -1.9495991 3.4147415 -4.354358 -0.87350476 -4.24863 -2.3646317
-3.628544 -6.317377 -1.260336 -1.3682125 -3.506585 -0.008803526 -2.669443 -3.7531717
-8.116023 -1.9279658 -6.924267 3.1231391 -2.7818515 -2.6368618 -1.5316 -3.7702527
-1.1206259 -3.8002112 -3.6146276 -1.487958 -3.2961745 -2.1653128 -5.027214 -4.8061523
-1.238004 -0.7282428 -2.8057704 -5.322377 -2.1007612 -1.9687563 -1.5109721 -2.1129444
00000000: 3f1a 1cc0 4ac0 63c0 35c4 403f 82c8 fbbf
00000010: 6d31 14c0 3fdc debf be2c b1c0 35f5 c7bf
00000020: fa1d 8fc0 095a 35c0 dbcc 08c1 ff7e 1cc0
00000030: 0b79 eabf 6a9e a5bf 9212 b5c0 9864 0dc0
00000040: 3f5b 81c0 f7fe 81c0 d7b6 f4bf e0be e7bf
00000050: 7a26 0fc0 3f66 b8bf 8c55 f8bf bc7b 6bc0
00000060: c42a 18c0 ea0a eabf e2c3 aac0 06ee 4cc0
00000070: 57b3 98c0 464e 89bf 149c abbf 6ba2 c1bf
00000080: ddc4 2ac0 41f8 f4bf 8d78 8fbf 5629 45c0
00000090: 2c4e 5bbf 9320 cec0 d488 ccc0 da00 13c1
000000a0: f031 88c0 e035 3fc0 189d efbf 2504 1cc0
000000b0: 97d3 b8bf 7d35 04c0 c358 943f d22b 0bc0
000000c0: aeef 40bf ced2 b1bf 6244 9bc0 13a0 07c0
000000d0: 828a 1ec0 07d6 2fc0 321b b5bf 2286 c6c0
000000e0: 6e7d 58c0 3b76 aac0 6221 90bf 9b96 abbf
000000f0: 64bc 9ec0 1ef8 e0bd 7645 94c0 790a a0c0
00000100: 0e58 d0bf 9607 fbbf 2481 f0bf 2b77 11c0
00000110: 3bef 91c0 9115 9fc0 c1f5 f0be eed9 2f3f
00000120: cfbb b63f ca70 6dc0 bd84 3dc0 839e 14c0
00000130: 4b89 1cc0 7d1a a0c0 4310 3cc0 5dcd 59c0
00000140: eb19 afbf 33e0 bbc0 1c4b e1bf 0cb1 16c0
00000150: 261d 3bbf 7c3b 1dc0 31eb 32c0 45b6 60c0
00000160: fc0a f4bf f7b4 00c0 778c f9bf 208b 5a40
00000170: e756 8bc0 029e 5fbf c7f4 87c0 2056 17c0
00000180: 113a 68c0 f427 cac0 b152 a1bf 9621 afbf
00000190: e36b 60c0 aa3c 10bc 27d8 2ac0 f733 70c0
000001a0: 3bdb 01c1 95c7 f6bf 9893 ddc0 83e1 4740
000001b0: db09 32c0 58c2 28c0 780b c4bf d24b 71c0
000001c0: ab70 8fbf a936 73c0 0f56 67c0 6875 bebf
000001d0: 86f4 52c0 7c94 0ac0 f0de a0c0 00cc 99c0
000001e0: ea76 9ebf 1f6e 3abf be91 33c0 ea50 aac0
000001f0: df72 06c0 3500 fcbf 8967 c1bf 7b3a 07c0

fc2.weight f4 [4, 128]
-0.47673506 0.45165417 -2.0533001 -1.2978456 0.2303135 -1.0209998 0.9113246 1.1438252
0.59972787 0.35865012 -0.5471296 0.42536622 0.17640442 0.39658535 -0.99304837 0.26880637
-0.5374451 -0.37663573 0.5303892 0.44124115 -1.0115601 -0.18192126 0.29862267 0.48629603
0.4114334 0.15654404 -0.7223176 0.12964629 0.5707593 0.4233532 -0.75474286 -0.19712467
-1.4557346 -0.795386 -0.52815515 0.50540894 -0.79751927 0.9266973 0.28182754 -0.7202069
-1.578637 0.56409085 0.66147673 -0.49747595 -0.73327196 -0.13319378 -0.7801241 -1.103471
-1.1384059 -0.5335363 -0.58301854 -0.44801778 -0.44437793 0.5071117 -0.83487254 0.3933521
-0.7984804 -1.1575723 0.4096886 -0.23317978 -0.97912943 -0.03788896 0.6971754 0.9665886
0.20539479 0.4315684 0.39441013 -0.69870716 0.6776681 -1.6531949 -0.59415114 -1.740364
-2.6200228 0.6522066 0.4876173 0.26461253 -0.64697903 0.623089 0.66812474 -0.62865716
0.56156707 -0.6646931 0.34365052 -0.3941809 0.2632576 0.36570746 -0.6983463 0.66526324
-0.7280491 -2.0831091 -0.43796763 -0.6462541 0.459931 -0.7059231 -0.6863389 -1.8228346
-1.1576128 0.39290446 0.26918748 0.30178165 -1.732497 -0.96159613 0.35649508 0.47396454
0.61430013 0.4489861 0.54491407 -1.2110105 0.652758 -0.74243236 0.21690543 0.5335084
-0.8119047 0.85217303 0.43260288 0.4855543 0.66610193 -0.38757175 0.51581746 -1.0047182
-1.295663 -0.6121942 -0.65005714 0.62849754 -0.62535524 -0.34158474 0.2774095 0.3882115
0.27454466 -0.9818424 -0.9642204 0.1196339 -0.5884271 0.25903472 -0.4421642 -0.8621691
-0.54802257 -0.8465625 0.4046567 -0.4680615 -0.5463379 -1.8027712 0.67544436 -0.2715759
0.36046025 0.24953964 -0.6462802 -0.6237517 0.45833206 0.37398577 -0.66971207 -0.34532285
-1.1016611 -0.38761097 0.7296249 -0.3262113 -0.4404718 -0.6184436 0.59625643 0.34461474
0.63672686 0.41892022 0.26185182 -1.067509 0.37691265 -0.8160312 -1.109436 0.8940429
0.7065978 -0.64623886 -0.72923195 0.104487434 0.1970188 0.4509896 -1.9021819 0.4195051
0.2904015 0.037793662 0.2642358 0.15394093 0.42142525 -0.8577598 0.24238911 -0.4911075
0.3574163 0.83618915 -0.9636664 0.44797558 0.6524045 -0.110135086 -1.0331187 -0.71340394
-0.5902757 -0.9126034 -0.7633207 0.40399796 -1.2935352 1.6602955 0.16558889 -2.01892
-1.8612777 -0.7805853 -0.58152056 -0.36732432 0.3201773 -0.2915713 -0.8331646 1.1134948
-0.4921933 0.64198464 -0.7856729 0.48993692 0.077756844 -0.40141383 0.23137586 -1.2086514
0.32241255 1.4723688 0.37954754 -2.2762437 -0.641028 0.46937534 0.6793195 1.0583347
1.1680183 -0.6962816 -0.52222574 -0.34599534 0.48533592 0.45193085 -1.0908924 -0.8113839
-0.61084443 -0.7403415 -0.5831125 -4.0558553 -0.7689374 0.5932079 -0.70017004 -1.2123756
0.2440937 -1.2673994 -0.61782336 -0.511525 -0.8492292 0.3799993 -0.5565506 0.58149165
0.45379966 0.3409975 0.27799806 -0.37113553 0.27219507 0.46910474 -0.665662 -1.2977165
00000000: 9e16 f4be 373f e73e 4569 03c0 ce1f a6bf
00000010: 4dd7 6b3e 1fb0 82bf 924c 693f dd68 923f
00000020: c487 193f fda0 b73e af10 0cbf 9ac9 d93e
00000030: 5ca3 343e 3c0d cb3e 6b38 7ebf fda0 893e
00000040: 0196 09bf 66d6 c0be 96c7 073f 5cea e13e
00000050: cd7a 81bf 9149 3abe 12e5 983e cbfb f83e
00000060: 66a7 d23e 154d 203e cee9 38bf ffc1 043e
00000070: 481d 123f c0c1 d83e d436 41bf 0ddb 49be
00000080: 8355 babf 6b9e 4bbf 2d35 07bf 7b62 013f
00000090: 392a 4cbf 093c 6d3f b34b 903e 7b5f 38bf
000000a0: c710 cabf 4268 103f 8a56 293f 2bb5 febe
000000b0: b6b7 3bbf f363 08be 37b6 47bf 8a3e 8dbf
000000c0: 49b7 91bf d695 08bf b440 15bf 9662 e5be
000000d0: 8185 e3be 13d2 013f 35ba 55bf 7265 c93e
000000e0: 3669 4cbf 542b 94bf b4c2 d13e aec6 6ebe
000000f0: 3aa8 7abf 7431 1bbd 167a 323f 5a72 773f
00000100: 0353 523e 89f6 dc3e 20f0 c93e 79de 32bf
00000110: a87b 2d3f e49b d3bf 4a1a 18bf 3fc4 debf
00000120: 74ae 27c0 03f7 263f faa8 f93e 4b7b 873e
00000130: 6ba0 25bf c382 1f3f 390a 2b3f adef 20bf
00000140: dcc2 0f3f 5429 2abf f6f2 af3e 14d2 c9be
00000150: b3c9 863e 023e bb3e d3c6 32bf b14e 2a3f
00000160: 6d61 3abf a951 05c0 4b3d e0be e970 25bf
00000170: 137c eb3e 60b7 34bf e8b3 2fbf a552 e9bf
00000180: a82c 94bf c62a c93e f1d2 893e 2083 9a3e
00000190: 76c2 ddbf 2a2b 76bf 8686 b63e 7bab f23e
000001a0: c642 1d3f 82e1 e53e 7d7f 0b3f 6402 9bbf
000001b0: 261b 273f 0c10 3ebf 751c 5e3e 0294 083f
000001c0: fdd8 4fbf 0328 5a3f 207e dd3e 939a f83e
000001d0: a885 2a3f ce6f c6be 9d0c 043f 9b9a 80bf
000001e0: 49d8 a5bf c2b8 1cbf 256a 26bf 37e5 203f
000001f0: 4817 20bf 32e4 aebe 9e08 8e3e a8c3 c63e
00000200: 1e91 8c3e 065a 7bbf 26d7 76bf 9e02 f53d
00000210: 29a3 16bf 33a0 843e 5963 e2be 1db7 5cbf
00000220: 354b 0cbf 52b8 58bf 2a2f cf3e c2a5 efbe
00000230: cddc 0bbf 35c1 e6bf ece9 2c3f ff0b 8bbe
00000240: 3f8e b83e 5287 7f3e 9f72 25bf 31ae 1fbf
00000250: 80aa ea3e 107b bf3e 4072 2bbf 28ce b0be
00000260: 3b03 8dbf f274 c6be b3c8 3a3f 2b05 a7be
00000270: 8585 e1be 5252 1ebf 43a4 183f 5871 b03e
00000280: 8800 233f b67c d63e 7111 863e 23a4 88bf
00000290: b2fa c03e 6ce7 50bf 0002 8ebf ffdf 643f
000002a0: 98e3 343f e96f 25bf f2ae 3abf 82fd d53d
000002b0: 4cbf 493e 1ce8 e63e b27a f3bf 5fc9 d63e
000002c0: 81af 943e 87cd 1a3d ea49 873e b1a2 1d3e
000002d0: 0dc5 d73e 2596 5bbf da34 783e 7172 fbbe
000002e0: 45ff b63e 7e10 563f d7b2 76bf 0e5d e53e
000002f0: fb03 273f 818e e1bd 3c3d 84bf a4a1 36bf
00000300: 4f1c 17bf 60a0 69bf fc68 43bf d2d8 ce3e
00000310: 9092 a5bf 9084 d43f 2290 293e fc35 01c0
00000320: 593e eebf 70d4 47bf 88de 14bf ef11 bcbe
00000330: 47ee a33e d548 95be 464a 55bf ff86 8e3f
00000340: c300 fcbe 1b59 243f dc21 49bf 03d9 fa3e
00000350: fb3e 9f3d 1d86 cdbe cbed 6c3e 17b5 9abf
00000360: 4213 a53e 9576 bc3f 0e54 c23e faad 11c0
00000370: 691a 24bf f751 f03e e2e7 2d3f 8377 873f
00000380: a081 953f 833f 32bf 96b0 05bf 4d26 b1be
00000390: f37d f83e 7b63 e73e 5da2 8bbf dbb6 4fbf
000003a0: 4d60 1cbf 0587 3dbf dc46 15bf 91c9 81c0
000003b0: 15d9 44bf 79dc 173f 583e 33bf 202f 9bbf
000003c0: b3f3 793e 253a a2bf ac29 1ebf 4df3 02bf
000003d0: 1667 59bf 458f c23e 1a7a 0ebf a3dc 143f
000003e0: 6e58 e83e 3997 ae3e c355 8e3e 7a05 bebe
000003f0: 275d 8b3e 7f2e f03e d368 2abf 931b a6bf

fc2.bias f4 [4]
0.8332511 1.7559903 0.5235079 2.0193837
00000000: f24f 553f 4ac4 e03f 9d04 063f 953d 0140

fc3.weight f4 [1, 4]
-0.08350211 0.062156826 -0.05420469 0.056656387
00000000: 2703 abbd 2898 7e3d bd05 5ebd 8710 683d
