model/cross_validation/hp_nested_cv/checkpoint/c002_c003_128_32_1e-05_32_0.3.pt (torch, 234071 bytes, 5 tensors)

fc1.weight f4 [128, 420]
000000 cb 71 1c 3b 8c 9a ed 3c ea 57 28 3c e9 bb 1a bd
       0.0023871537 0.029004358 0.010274867 -0.03777686
000010 e3 d5 ec bb 8a a0 0a bd c3 d6 94 3c 77 93 14 3c
       -0.0072276457 -0.03384451 0.018168813 0.0090683615
000020 42 f5 69 3c f6 e2 be 3c 16 d9 84 bb 97 e3 da 39
       0.014279665 0.023301583 -0.004054199 0.00041749768
000030 80 55 d1 3c 25 1b e6 3c 76 53 6b 3b ac a6 55 3c
       0.025553465 0.028089115 0.00359079 0.013040226
000040 00 48 60 3a ee 5d 72 bb ea 76 3d bd 52 a6 2c bd
       0.0008555651 -0.0036982256 -0.046255983 -0.042150803
000050 d6 83 44 bc 3f 21 0c bd f9 bc 63 bd ea ed df bc
       -0.011994323 -0.034211393 -0.05560014 -0.027335126
000060 47 51 7a bb ac 95 2e bc cf c5 a6 bb 6e 15 0d 3c
       -0.0038195418 -0.010655802 -0.0050894986 0.008611066
000070 c8 68 c5 3c 1c 25 c8 3c c5 1d 0f 3d 72 7f 96 bc
       0.024097815 0.024431758 0.0349405 -0.018371318
000080 e1 e2 f7 bc 03 53 ed bc c0 99 15 3c 56 a6 e6 bb
       -0.030259551 -0.028970247 0.009130895 -0.0070388718
000090 7f e4 05 bb 28 63 ce 3c ea e5 ab 3c ac 31 d6 bb
       -0.0020430384 0.025193766 0.020983655 -0.006536683
0000a0 00 ab fc 3b a4 4b 69 bb 08 cb 46 bd 5e 81 4b bd
       0.0077108145 -0.0035598064 -0.04853347 -0.04968392
0000b0 ba cb 06 bd 92 1b 01 3a da aa a2 3c 34 4b a5 bc
       -0.032909133 0.0004925068 0.019856859 -0.020177461
0000c0 e2 67 a0 3c 2d 47 27 3c c6 af ae bc f6 c9 6c 3d
       0.019580785 0.010209841 -0.02132405 0.057809792
0000d0 af 92 05 3c 8b 21 39 bd 4d 81 b6 3c 9f 23 32 3b
       0.008152648 -0.045198005 0.022278452 0.0027181876
0000e0 60 4a f6 3c c6 b8 be bc 07 7d 41 bd 1c d4 98 3c
       0.030064762 -0.023281466 -0.047238376 0.01865583
0000f0 35 a7 54 bd a4 56 4c bd c5 3b 07 bc 29 de bf 3c
       -0.051917274 -0.049887314 -0.008253996 0.023421364
000100 f3 74 0d bd 4a 79 99 bc 38 4a 4f bc 04 f3 33 3d
       -0.03453536 -0.018734593 -0.0126519725 0.04393293
000110 db e4 f7 3c 81 1b 96 bc 5c 98 41 bd f1 99 e7 39
       0.030260494 -0.018323662 -0.04726444 0.0004417445
000120 e6 0f 24 bd ce 8e 06 3c 30 d9 e2 3c 1d 31 19 3c
       -0.040054224 0.008212758 0.027691454 0.009350088
000130 e7 cd 91 bc 45 f4 90 3c f1 ba 89 3d b1 2b 5f 3d
       -0.017798377 0.017694602 0.06725109 0.054485027
000140 df 0a f8 3c f3 2c 72 3c c9 f5 26 3c ab fe 8d 3c
       0.030278621 0.014781225 0.010190436 0.01733335
000150 64 a0 88 bc e5 03 9e 3c ab 98 13 3d 9f 77 fb 3b
       -0.016678043 0.019288966 0.036034267 0.007674172
000160 f8 18 e7 bc 25 f4 1e 3c 2d 6e 76 3d 62 a4 c1 bc
       -0.028210148 0.009701763 0.060163666 -0.023637954
000170 aa 43 8e bd e8 29 c8 bc bc 71 9c ba 79 57 d1 3c
       -0.069465 -0.024434045 -0.0011935751 0.025554406
000180 0f 68 06 3d 1c b3 03 3d 41 87 14 3b 4e b7 44 3c
       0.03281408 0.032153234 0.0022663625 0.012006594
000190 be 32 95 3b 8f 3b 27 3c 04 bd 4f 3d 9f 98 17 bc
       0.004553168 0.010207071 0.05071737 -0.009252696
0001a0 20 a2 bb 3c 12 5d 7f bc 8c ca dc bc b8 e9 b5 bc
       0.022904456 -0.015586155 -0.02695205 -0.022206172
0001b0 d2 d1 d3 3a c1 93 c9 3c 29 58 28 bc 2c bd 81 bb
       0.0016160554 0.024606587 -0.010274925 -0.0039593186
0001c0 56 97 6e bd 78 9b 3b 3c a2 e2 69 bc f6 72 a1 bc
       -0.058249794 0.011450641 -0.014275225 -0.019708138
0001d0 53 dd 8f bc 0d 63 c6 bc 9c e9 7b ba 81 92 ce 3c
       -0.01756159 -0.024217153 -0.00096097006 0.025216343
0001e0 65 10 44 3d b9 d9 82 bd 48 55 bc 3c 20 52 6a 3d
       0.047867198 -0.063891836 0.022989884 0.057207227
0001f0 67 ba 40 bc d5 1e d5 bc 0a f9 ae 3b 20 9e c4 3b
       -0.011763192 -0.026015678 0.0053397464 0.0060002953
000200 57 bb ab bc 53 cd 81 bd 22 80 3f bc 25 b6 49 3d
       -0.020963354 -0.063379906 -0.011688264 0.049245972
000210 ea 1f 22 be 81 d4 98 3b eb 68 16 3d 73 36 d4 3c
       -0.15832487 0.0046640043 0.03672115 0.02590487
000220 02 76 fb bb a9 de 25 bd 26 92 93 bd a3 df 17 3d
       -0.0076739797 -0.04049555 -0.0720561 0.03707851
000230 89 1b 0c 3d eb 28 49 be 63 93 db bd ec 83 59 bc
       0.034205947 -0.19644515 -0.10721471 -0.0132760815
000240 a7 7b 3e bd a3 5b 62 bd 87 b8 db bc 5e 85 26 bb
       -0.046504643 -0.055263173 -0.026821388 -0.0025409083
000250 60 64 a9 bd 72 ef 44 bd f9 9b d0 bd 43 ee 72 bd
       -0.08271098 -0.048079915 -0.101859994 -0.059309255
000260 2d 01 2e bb d2 c1 3a bd 7a ef 6f 3d a4 53 2e 3a
       -0.0026550994 -0.045594998 0.058577992 0.00066500367
000270 ea 7c d3 3b 30 ad 59 3d a6 48 90 bd 27 dc f2 ba
       0.0064541 0.05314368 -0.070451066 -0.0018528745
000280 6d 7c d0 3c ca d3 99 bd cf c0 52 bd 0f 4c 74 bd
       0.025449956 -0.07511099 -0.051453408 -0.059642848
000290 0c 11 3d 3d ca 24 f3 bb cb 5e 8d 3c 14 50 0b bb
       0.046158835 -0.007420157 0.017257115 -0.0021257447
0002a0 54 b9 22 ba b9 d4 9a bb d2 02 b7 3c c0 47 5a 3d
       -0.00062074256 -0.0047250655 0.022340212 0.053291082
0002b0 e6 ef 87 bd c7 9f 07 bc 1f 8f 40 bd e4 21 ee ba
       -0.06637554 -0.00827784 -0.04701149 -0.0018168059
0002c0 9a 73 be 3b a7 d4 5b 3a 28 b4 42 bc 92 35 6f 3d
       0.0058121206 0.00083858747 -0.011883773 0.058400698
0002d0 52 09 36 bd 1d 2c e9 bd f9 fc cf 3c 35 b6 86 bb
       -0.044442482 -0.11385367 0.025389181 -0.0041110762
0002e0 09 e6 82 3c 56 55 01 bd 21 f0 56 bb 2f 29 17 bd
       0.01597883 -0.031575523 -0.0032796937 -0.03690451
0002f0 be e1 ab bc 34 ef 34 3c d9 c1 a2 bc 7c 5f 05 3d
       -0.020981666 0.011043359 -0.019867824 0.032561764
000300 66 0a 09 3d d8 e9 92 bb 8d 66 ae bd 30 86 5f bb
       0.033457182 -0.0044834428 -0.08515654 -0.0034107082
000310 5d 35 b9 3b 1e 93 a8 3a f0 4d e4 bc 7d 68 dd 3c
       0.0056521134 0.0012861227 -0.027869195 0.027027363
000320 70 5c bf bc cc ac 49 bd 6e ee cd bd b0 43 81 bd
       -0.023359507 -0.049237058 -0.100552425 -0.063117385
000330 9b 48 3b bc ca 67 39 bd ca 5b 6a 3c 3b 94 9a 3c
       -0.011430885 -0.045264997 0.014304111 0.01886951
000340 35 e6 5b bb 9f d7 07 bc de 5d 13 bd 47 96 69 bb
       -0.0033553962 -0.008291154 -0.03597819 -0.003564255
000350 28 e0 62 3d 9f cf ac bb 85 30 2b 3d d4 3a fb bc
       0.055389553 -0.005273774 0.04179432 -0.0306677
000360 42 b3 9c bd 21 16 8d 3c 1e 9c 28 3b 2a 69 7f bd
       -0.07651378 0.017222466 0.0025727819 -0.06235615
000370 f9 12 9d 3c 31 6a e2 bd ce ef 6f bc f7 8a 84 bd
       0.019174086 -0.11055411 -0.014644576 -0.06471818
000380 e2 17 f1 3c 41 39 0e 3c 6c 8b d4 bc a8 f6 ac 3b
       0.029430334 0.008680643 -0.025945388 0.005278427
000390 1b de ad 3c 0f ea b5 bc 31 4d c5 bb 2d b7 9d bd
       0.021224072 -0.022206334 -0.006021165 -0.07700954
0003a0 9a 70 e9 3c 32 5d d3 bc d9 a8 6e 3d f4 06 c1 3b
       0.028496075 -0.025801275 0.058266494 0.0058907215
0003b0 41 e4 0d 3c 75 33 72 bc f8 fa c0 bd b5 26 6d bb
       0.008660377 -0.014782776 -0.094228685 -0.0036186401
0003c0 7a c6 97 bc cf 3f 49 bd 98 35 81 bd d7 06 48 bd
       -0.018527258 -0.04913312 -0.0630905 -0.048834648
0003d0 de 7c 1f 3d bb a5 ee ba 4e 94 3d 3d de 67 fc 3c
       0.038937442 -0.001820735 0.046284012 0.030811246
0003e0 4c a5 b3 bc 33 36 d9 3c 45 11 6b bc 88 5c c5 bc
       -0.021929406 0.026515102 -0.014347379 -0.024091974
0003f0 ed 32 6c 3c 8c b8 29 3c d6 a2 2c bc 88 6b 2f 3d
       0.0144164385 0.010358941 -0.01053687 0.04282716

fc1.bias f4 [128]
000000 41 b7 86 bc bc 03 9e 3c c3 af 56 bd 03 d0 c9 3c
       -0.016444804 0.01928889 -0.052413713 0.02463532
000010 04 05 2b bd c1 c0 e8 bc 01 d4 3f bd d0 de a8 3b
       -0.04175283 -0.028412225 -0.046833042 0.0051535144
000020 cb 9c c0 bc a2 45 86 3c 98 32 8d 3c 4d c9 76 bb
       -0.023512265 0.016390625 0.017236039 -0.0037656606
000030 92 a6 23 bd e9 e6 04 bd ad 55 c4 bc be 75 76 bd
       -0.039953776 -0.032446776 -0.023966635 -0.06017088
000040 09 b6 ec 3a 1b c3 82 bc 9e 9f 7b 3b af 42 89 bc
       0.0018059622 -0.015962174 0.00383947 -0.01675543
000050 94 d0 93 bc 66 30 4e bd 26 43 34 bc 31 1e 93 bc
       -0.018043794 -0.050339125 -0.011002338 -0.017958732
000060 3f df 3e bd a3 9b 1f bb 97 60 2b 3c 21 4b 10 bc
       -0.046599623 -0.0024354241 0.0104600405 -0.008806975
000070 0c a2 29 bd 20 39 65 bc 9f 5f 1f bd 92 1b 3f bd
       -0.041414306 -0.01399067 -0.03890955 -0.046657152
000080 2e ac a8 3c 44 de 18 bd af d6 45 bc 04 57 3b bd
       0.020589914 -0.037321344 -0.01207511 -0.04573728
000090 47 57 46 bc 23 07 18 bd 50 30 ee 39 91 0e 2b 3c
       -0.0121057695 -0.03711618 0.00045430893 0.010440485
0000a0 9d 8d a4 3c ad 1d 95 bc 64 40 88 3c 5f 56 83 bc
       0.020087058 -0.018202627 0.016632266 -0.016032396
0000b0 9e 79 cb bc 49 76 2a 3b 60 05 04 3d 81 9b 3d bd
       -0.024838265 0.0026010445 0.03223169 -0.04629088
0000c0 13 d1 e7 3b b0 71 1d b9 5e a5 b5 bc 18 6e ab 3c
       0.007074484 -0.00015015039 -0.02217358 0.02092652
0000d0 68 c6 0d bd 61 b9 8e bb df f1 54 bd aa 8d a9 bc
       -0.034613043 -0.004355595 -0.05198848 -0.020697434
0000e0 ac fe ec bc 1e e0 de 3b d8 86 18 bd 3d 79 92 3b
       -0.02893003 0.006801619 -0.037237972 0.004470019
0000f0 b7 6c 46 3c 8c cf a1 3c 3f 35 76 bd 43 3e 0c bd
       0.012110881 0.019752286 -0.060109373 -0.034239065
000100 83 33 bf bb c4 3d 5c 3c 62 9b 94 bc fa 9b b9 3b
       -0.005834998 0.01344246 -0.018140499 0.005664346
000110 34 4d 9c bc a0 ec 8c 3a 83 bc 1a bd 94 6a 4c bd
       -0.019079782 0.0010751672 -0.037777435 -0.04990633
000120 f1 09 fd bc 10 2b cf bc a8 2a 84 bc 1a 85 85 bc
       -0.03088853 -0.025289088 -0.016133621 -0.01629882
000130 2a c7 1f bd ce 34 21 bc ed e8 04 bd 8f 86 27 bd
       -0.039008297 -0.00983925 -0.032448698 -0.04089981
000140 d8 74 6f bd 14 0a c9 3c 89 66 16 bd 7b 63 1b bc
       -0.05846104 0.024540938 -0.03671888 -0.009484167
000150 bc 16 1d bd cd 59 c3 bc b5 f7 e0 bc b3 14 64 3c
       -0.03835176 -0.023846531 -0.027461866 0.013920951
000160 7c f1 1d bd d5 e8 2e bc 23 84 49 3c c6 05 f0 bb
       -0.038560376 -0.010675629 0.01229957 -0.007324907
000170 60 71 a4 3c 07 a6 ca bc aa 62 bc bc 29 55 7c 3a
       0.020073593 -0.024737371 -0.022996265 0.0009625727
000180 e4 2c 1d bd ff c6 20 3c 71 85 11 bd f1 68 19 bd
       -0.03837289 0.009813069 -0.03552765 -0.037453596
000190 61 f3 c2 bc d9 23 d9 ba 53 3c 59 bd 0a 6a 8c bb
       -0.023797693 -0.001656647 -0.053036045 -0.004285102
0001a0 ef d6 42 bb 15 1e b1 bc 2d e0 84 bd ce ec 78 bd
       -0.0029730161 -0.02162079 -0.06488071 -0.06077271
0001b0 56 55 cd bc 7d 1c bc 3b ab 53 9b 3c aa 92 44 bd
       -0.025065105 0.0057407008 0.018960794 -0.047991432
0001c0 be fb 71 bd ea 38 98 bc 79 0c 51 bd 28 81 09 bd
       -0.05907797 -0.018581826 -0.051037285 -0.03357044
0001d0 69 59 7a bd 3e 5b 92 bb 75 38 8b bc 4b 49 0e bb
       -0.061120424 -0.0044664433 -0.016994694 -0.0021711166
0001e0 fc 46 1f bd 17 6c f0 bc 8c f4 67 3c ce 6e fa bc
       -0.038886055 -0.029348416 0.014157426 -0.030570414
0001f0 6c 7b 45 bd 43 97 3f 3c da 6d fe 3b 96 75 0a bd
       -0.048213407 0.011693778 0.00776456 -0.033803545

fc2.weight f4 [32, 128]
000000 58 23 cf 3d 1d d1 ff bc 0b 34 51 3e ee 39 6a 3d
       0.10114163 -0.031227643 0.20430009 0.057184152
000010 4f 85 8a 3b 91 8f 93 bc 94 33 08 be 62 84 0b 3e
       0.0042273174 -0.018012794 -0.13300925 0.13624719
000020 72 b9 d4 bd e5 a9 f3 3d c5 77 c5 bd 27 b8 00 3d
       -0.103869334 0.11897639 -0.09641985 0.03142562
000030 98 73 d6 bd d7 cc 07 3e 74 94 1c 3e e0 5f c8 3d
       -0.104712665 0.13261734 0.15291005 0.09783912
000040 af b8 a5 3d 3a a4 a3 3d f3 9e 7a 3d af d3 15 be
       0.08091866 0.07990308 0.061186742 -0.14631532
000050 dc f5 81 bd 26 dd a9 bd fc e0 14 be 1f 9d af bc
       -0.06345722 -0.08294134 -0.1453895 -0.021437226
000060 4c 9d 00 3e 08 15 04 be fa b8 dc 3c f0 5e a4 bd
       0.12560004 -0.12898648 0.026943672 -0.080259204
000070 c9 1b ee bc b5 d2 bf bd 99 33 97 3d c1 23 75 3d
       -0.029065983 -0.09366361 0.07382888 0.05984855
000080 8c 71 98 bd 9a 7e 2d 3e 80 14 20 be a3 41 b2 bd
       -0.07443532 0.16942826 -0.1563282 -0.087039255
000090 a5 5d 52 3d 00 d3 8e 3d c6 a3 dd bd f6 8f d7 3d
       0.051358838 0.06973839 -0.10822253 0.10525505
0000a0 f4 28 1e bd db 62 d6 3d d8 c6 ef 3d 9f 65 25 bd
       -0.038613275 0.10468074 0.11707848 -0.040380117
0000b0 64 2c 1a 3e 16 ac f1 3d 27 d5 b9 bc a0 17 17 bc
       0.15055996 0.11800401 -0.022684647 -0.009221941
0000c0 c1 6e 12 bd 29 79 ad bd 11 49 26 be 0d 4b 0d be
       -0.035750154 -0.08470375 -0.1623881 -0.13798161
0000d0 03 7a 15 3e 6c 20 06 3e 37 45 e1 3d 3d 16 2c 3d
       0.14597325 0.13098305 0.1099953 0.042013396
0000e0 e8 d9 87 bd bd 88 f2 bd 07 21 48 3d 73 97 21 3d
       -0.06633359 -0.11842487 0.048859622 0.039451074
0000f0 3a 19 34 be 0d c5 b4 bd c9 17 de bd c2 ee 8c 3d
       -0.17587748 -0.08826647 -0.108443804 0.06881477
000100 34 1a 0a be 3d 0b 4a 3e ba 6a 11 3e 51 f2 bc bd
       -0.13486558 0.1973085 0.14200869 -0.09225906
000110 23 90 0a be a9 4f 4f 3d c3 a8 61 bd a2 89 12 3e
       -0.13531546 0.05061308 -0.055092584 0.14310315
000120 ca 17 58 bd 11 89 c5 3d d3 99 14 3e c2 16 0f 3e
       -0.052757062 0.09645284 0.14511804 0.13973525
000130 4c 84 4d 3d 6e 92 b5 bd 92 68 38 be ab e6 98 3d
       0.050174996 -0.0886582 -0.1800864 0.074658714
000140 e1 54 18 3e 0f 8e fd 3d 6e 87 d4 bd 74 be 66 3d
       0.14876129 0.12380611 -0.10377394 0.056333974
000150 ab 15 20 3e db a4 df 3d b9 c7 03 be dc c0 05 3d
       0.15633266 0.109201156 -0.12869157 0.03265463
000160 29 74 8e 3d 27 8e b3 bd 67 5c ce 3d 42 2f 87 3d
       0.069557495 -0.08767348 0.10076218 0.066008106
000170 f5 f9 2f 3e e6 e5 c1 3d a2 98 bd 3d b6 d6 f3 bd
       0.17185195 0.09467678 0.09257628 -0.11906187
000180 05 39 0b 3e b0 cf ee 3d 6b 77 d9 3d 8d a2 03 bd
       0.1359597 0.11660707 0.1061848 -0.032137442
000190 e7 2c 0b 3e 6e e3 df bd 3f e3 0d 3e 01 9a 04 3d
       0.13591348 -0.10932051 0.13856219 0.032373432
0001a0 93 6f 9a 3d 88 fb be bc e0 e6 21 3d ae 27 fd bd
       0.07540812 -0.023313299 0.03952682 -0.12361084
0001b0 34 92 4f 3d f2 4e f1 bc a0 83 34 bd 0a b4 fa 3d
       0.05067654 -0.02945659 -0.04407084 0.12241371
0001c0 ea c1 60 bd 90 af aa bd f5 92 18 3e 7d 9c 84 3d
       -0.05487243 -0.08334267 0.1489981 0.0647516
0001d0 7a fe 2e 3e e6 8b 8a 3d 30 39 ca bd db 97 0d 3e
       0.17089263 0.06764965 -0.09874189 0.1382746
0001e0 60 a3 f4 3d f3 e4 c1 bd 3f 05 02 3e dc db 71 bd
       0.11945224 -0.09467497 0.12697314 -0.059047565
0001f0 9d 56 e7 bd 74 44 47 bd 99 cd 7e 3d 44 ef 0f be
       -0.11295817 -0.048649266 0.062207792 -0.14056116
000200 9a fd 99 3d c5 9c c2 bd 1d fb 00 3e eb 5e 02 3e
       0.07519074 -0.09502558 0.12595792 0.12731521
000210 ac 2c 84 3c c7 ca 66 3c 74 93 92 bd 7b c1 d8 3d
       0.016134582 0.014086432 -0.07157031 0.105837785
000220 c8 78 29 be d4 af 14 3e 01 5e 8e bd 0e 62 b1 3d
       -0.1654998 0.14520198 -0.069515236 0.086612806
000230 1a d1 06 bd 75 b1 22 3e a1 7d 39 3e 3b 1c 76 3d
       -0.03291426 0.15888007 0.1811433 0.060085516
000240 23 7c f4 3d 11 4c 18 3d be 9e ca 3d 03 a3 27 be
       0.1193774 0.037181918 0.09893559 -0.16370778
000250 ca dd fd 3b 22 3f 04 bd 39 c8 90 bd ec 82 76 bd
       0.0077473866 -0.03228677 -0.070694394 -0.06018345
000260 89 f7 4b 3e 46 30 d1 bd 0b 9f b2 3d f7 91 10 be
       0.19918646 -0.102142856 0.08721741 -0.14118181
000270 44 a9 a7 bd 71 7f c3 bd 0f fd c7 3d 7f ce d3 3d
       -0.08186582 -0.09545792 0.09765064 0.103421204
000280 c8 70 ac bd f1 85 39 3d d5 3d ea bd b7 9c 95 bc
       -0.08419949 0.045293752 -0.11437575 -0.018263204
000290 e6 ef a8 3d 5b 9b a1 3d fa 03 ca bd fc 90 7e 3d
       0.08248882 0.0789096 -0.0986404 0.062149987
0002a0 53 32 ab bd 46 1c e8 3d 35 30 ae 3d bc 7f 9e bd
       -0.08359208 0.11333518 0.085052885 -0.07739207
0002b0 4e 33 ba 3d a2 36 ad 3d 8f 13 f4 bd 04 a6 e4 bc
       0.09091817 0.08457686 -0.11917793 -0.027911194
0002c0 fb 54 4e bd 89 ea 08 be d7 54 1e be 55 d9 09 bd
       -0.050374012 -0.13370718 -0.15462051 -0.03365453
0002d0 e4 9d 84 3d a9 14 28 3d 1e 18 c4 3d 0e 2c 91 3d
       0.06475428 0.041035328 0.095749125 0.07088481
0002e0 5a 1d da bd 43 34 07 bd 81 c1 a5 3d dd f8 58 3d
       -0.106501296 -0.033008825 0.080935486 0.05297171
0002f0 3b da 9d bd ad d4 d3 bd b9 4a cb bd 6e 7d ac 3d
       -0.0770764 -0.10343299 -0.099263616 0.08422361
000300 bf 1d f7 bd b8 c1 b0 3d 95 85 cb 3d ca 30 23 be
       -0.120662205 0.08630699 0.09937588 -0.1593658
000310 e9 8d c9 bd 05 2f 06 3d 2f 5c c4 3c 20 ff 1c 3e
       -0.0984152 0.032759685 0.023969738 0.15331697
000320 b2 b6 a2 bd 08 36 1e 3e d6 d5 29 3e cb 06 02 3d
       -0.079450026 0.15450299 0.16585478 0.03174476
000330 2d 25 34 3e c4 b8 43 bd f0 8e 02 be 75 34 ca 3d
       0.17592306 -0.047783628 -0.12749839 0.09873287
000340 57 cd 03 3e 2d 26 10 3e 26 c2 ae bb e8 b2 b0 3d
       0.128713 0.14077063 -0.005333203 0.08627874
000350 8c 08 0d 3e c2 3a d4 3d ed aa 01 be 71 4b 41 3d
       0.13772792 0.1036277 -0.1266286 0.047191087
000360 3e 01 93 3d d1 b7 91 bd dd b2 81 3d 4b 3f 89 3d
       0.07177971 -0.07115138 0.063329436 0.06701525
000370 73 ea 6b 3d 81 8c a1 3d fd 22 79 3d 4a 2d ea bd
       0.057596635 0.07888127 0.060824383 -0.114344195
000380 5c 50 f1 3d 35 ff 6b 3d b5 38 17 3e 31 67 64 bd
       0.117829055 0.05761643 0.14767726 -0.055762473
000390 22 30 67 3d a9 0f cf bd cb 63 a3 3d 87 cc a2 3d
       0.056442387 -0.10110409 0.079780184 0.07949167
0003a0 33 49 4a 3d bc b6 a0 bc 9f 29 b0 3d df 2a a9 bd
       0.049386214 -0.019618385 0.086016886 -0.0826013
0003b0 86 04 7a 3d 00 83 62 3c 6a 87 ff bd ca fb 97 3d
       0.06103947 0.013825178 -0.12477 0.07421072
0003c0 a5 65 97 bd 8b 31 9f bd 36 9d 03 3e 7a 7c 18 3e
       -0.07392434 -0.077731214 0.1285294 0.14891234
0003d0 fe 58 33 3d be bf e8 3d 4b 06 b4 bd 66 44 86 3d
       0.04378604 0.11364697 -0.08790263 0.06556015
0003e0 40 dc bb 3d a9 52 ad bd e1 fc f6 3d 07 95 a6 bc
       0.09172869 -0.08463032 0.120599516 -0.020334734
0003f0 82 27 53 bc 22 66 6f bd f4 a3 1d 3e f8 8b a4 bd
       -0.012887837 -0.05844701 0.15394574 -0.080345094

fc2.bias f4 [32]
000000 4d 46 3e 3d 22 97 e1 3c 2c ee 86 3d 5b a8 08 3e
       0.046453763 0.027537886 0.065883964 0.13345473
000010 63 3b 7c 3d e8 4e 51 3d 93 c6 1b 3d d1 98 5a 3d
       0.061580073 0.05110064 0.038031172 0.053368393
000020 31 cc b5 3d 2d 83 f7 3d 2e 05 30 3d 6f 46 eb 3d
       0.08876837 0.12085567 0.04297369 0.114880435
000030 20 ac 75 3d 35 5e 01 3e ea 1c b7 3d 7e 1a 12 3d
       0.059978604 0.12633593 0.08941062 0.035669796
000040 7b 34 c9 3d 43 73 2b 3d e9 d0 52 3d fe 8d a7 3d
       0.09824463 0.04185797 0.051468764 0.0818138
000050 73 b8 4a 3d 7a a4 97 3d 73 b1 ad 3d c2 ff 50 3d
       0.04949231 0.07404418 0.084811114 0.05102516
000060 9d a2 b6 3d d2 c9 8e 3d 9b 54 7e 3d 29 0b ca 3d
       0.08917735 0.06972088 0.062092405 0.0986541
000070 56 12 b0 3d 8b 2d a0 3c 33 86 c0 3d fb f0 5c 3d
       0.08597247 0.019552967 0.094005965 0.053940754

fc3.weight f4 [1, 32]
000000 84 23 b2 3e bc 48 c4 3e 91 83 ba 3e 4c e1 cf be
       0.3479272 0.38336742 0.36428502 -0.40601575
000010 04 ae ae be 88 69 b5 3e 99 a6 b4 3e e4 33 a9 3e
       -0.34117138 0.35432076 0.35283354 0.33047402
000020 8d d7 ba 3e 20 8a c9 be bd 41 c1 3e 96 34 cc be
       0.36492577 -0.39363194 0.37745467 -0.3988387
000030 d4 9e bd be c5 13 d2 be f5 1d b4 be 4e a9 94 3e
       -0.3703524 -0.41030708 -0.35179105 0.2903542
000040 8f 9f b5 be 27 5a e0 be d3 53 d0 be 84 30 bb be
       -0.35473296 -0.4381878 -0.40688953 -0.36560452
000050 93 2b c2 be 21 42 db 3e 0a 0a e2 be 2a 8d c1 be
       -0.3792387 0.4282389 -0.44148284 -0.37803012
000060 c3 3d b8 be 92 ff c4 be 6e bb 95 3e 6f ea cc be
       -0.3598462 -0.38476235 0.2924456 -0.4002261
000070 7a b1 ba 3e df cc c6 3e df 2b d2 be 00 04 bc 3e
       0.3646353 0.3882818 -0.41049096 0.36721802
