model/cross_validation/hp_nested_cv/checkpoint/c002_c003_128_16_0.001_64_0.1.pt (torch, 225751 bytes, 5 tensors)

fc1.weight f4 [128, 420]
00000000: 0485 3cbd 118f 8f3e d006 8bbe d904 073e
00000010: f4bd 853c 3776 d43c 997c 2d3e b4e0 2d3d
00000020: 49c4 1abe 847a edbc a060 8dbd 1368 403c
00000030: 2040 73be e7b1 dc3d 7c2f 20be e6e6 523d
00000040: 5407 aabd cdf8 63bd 215a 813d 06ee 413e
00000050: 3051 e8bb 61cf 743d 47f4 37be b14e 243e
00000060: 9c0d 143d d02b e7bd cf92 8dbd 724c 513e
00000070: 44d1 483e aa73 02bd 2f80 92bd 02af d8bd
00000080: b99c 463e 7f25 9a3d c246 90bd dd12 79be
00000090: 4658 333c 26e6 27be 3f30 dd3d b986 a8bd
000000a0: 9261 40be c051 9ebd 3903 0f3d fa7c d6bd
000000b0: ecc9 8d3d 29ef 353d 6e28 9e3c e494 883d
000000c0: fe7d bf3d c03b 363d 80e6 25bd 9d57 dc3c
000000d0: 5c5f 743d 4a3f c03e ca8b 18be 9071 24bd
000000e0: e708 f9bd 229b 4cbe 9d1e 363e 62f2 08bd
000000f0: 011f c9bc a0a6 3f3d fa90 a3be 5b5d 2fbe
00000100: c6af d43d 121f 123e a9c8 e63d a3b6 cebc
00000110: aaf5 54be 599f 1fbe 25bb 603e 9f26 c1bd
00000120: 81bc 8a3e 4ca1 99bd c625 7bbe f627 0abd
00000130: 920e 293e 7aac 30be 7918 493e e3f4 d13d
00000140: c518 f6ba 1139 203d b2a1 27be 33a4 923d
00000150: 40b3 8d3d 825e 0cbe e0f8 ffbd bb38 e43d
00000160: 3bd1 003a 6734 c1bc bc4c ccbe 8580 f7bd
00000170: e6ec 1a3e e028 c6bc 1a0d 9d3d f449 27bd
00000180: bb50 6ebd c57b 1c3e f68d bbbe 669d fc3d
00000190: d494 3f3c 452b 15be fc9e d0bd caab a2be
000001a0: 37b5 e7bd 48c0 673d 2b3b 16bd 013a af3d
000001b0: 4905 773e a7c5 1fbe 7425 afbc 9e57 b3bd
000001c0: cb83 9e3e d7c8 61bd 2b37 5cbc f5d4 44be
000001d0: 2a18 073e 0254 6f3e 97de 6ebe f601 19be
000001e0: 2297 aebe 959c 083f 9bfb 66bf 334c 3bbe
000001f0: e537 f3ba 6364 12bf a7d4 2e3e 7455 e53d
00000200: 7214 86bd ef18 a73e 4cbe d63e dcf1 d4be
00000210: c431 163f 50be 98b9 32fa ed3d ed1b f23d
00000220: 22eb 5a3d 401c 19bc 67bf 793e ee7c b3bd
00000230: 9142 da3d 357f 5d3f 4354 7fbd b2f2 d33d
00000240: 1a60 e03d 368e aa3d 395e ae3e 14d5 f3bd
00000250: 2ffe c23e 91be b8be 7136 183e 26ee 823e
00000260: 100f 52bf 16b0 b3bd 1a3d d43d 40fe 8cbd
00000270: 8ad6 0bbb 56cd 8dbe b711 763e 9ea7 8bbd
00000280: b60b a3bc 3662 bb3e 0f78 17bf c2c8 c8be
00000290: dfc1 64bd 546d a9be 9746 a23d 9891 e2bc
000002a0: 6ff2 583e f9af 0c3e 95b1 513c 82bc edbd
000002b0: 25db a6be 5faf bc3c e2a2 293f 291b d93c
000002c0: b05b 33be 11b2 3abd c274 2c3e 5bc3 633e
000002d0: db8c 27bd 5e97 593f 7b5a 1ebf 4649 bcbe
000002e0: 9973 013e cdea 59be 3e23 173e 7a76 b4be
000002f0: 0627 b63d 7f4a 2c3e c34f 203e 63d8 2f3e
00000300: 8ec9 40be 5459 a53d 63e4 703e 3813 ecbd
00000310: 21f6 ee3d 064f 043e 8176 38be eb5b 253e
00000320: 7322 393e 1248 3a3f fb27 12bf be1d 8ebe
00000330: 1149 d9bd b625 26be 5680 583d f307 54be
00000340: 9472 4d3d ff3c 25bd 678c e83b c8da 093e
00000350: def4 96be 3ae6 55bd 8806 543e 0ad7 e13d
00000360: e27b 503e 6ec4 e0bc 437d 2a3e 849c ed3d
00000370: f063 d03d 2c7d 153e 01c9 3abe b57a 5ebe
00000380: 18c1 a23c 977c 24be 786c 94bd 8df5 06be
00000390: 1ba1 243e 7bcc 213e 2436 dbbd a14f 8c3d
000003a0: ba98 de3d 4b3b 8bbe 522f aa3e 274d c83d
000003b0: b001 73be 1f1b f8bc 1219 8b3d b407 8ebd
000003c0: 003f 753d 8e4a d43e c609 81be 7fd5 d6be
000003d0: 0cd5 a33d 5fdc c63e 7931 433e ebe9 11bf
000003e0: 727a b0bc e6bd 9fbd bef9 073d 0a90 0a3d
000003f0: 0eeb 3c3c 0afa b93b 6166 ba3d 3262 393e
-0.04602529 0.28038839 -0.27153635 0.13185443 0.016325928 0.025935275 0.16942061 0.04245062
-0.1511394 -0.028989084 -0.069031954 0.011743563 -0.2375493 0.1077612 -0.15643114 0.051489733
-0.08302179 -0.055657197 0.06316019 0.18938455 -0.0070897564 0.059768084 -0.17964278 0.16045643
0.03614579 -0.112876534 -0.06912767 0.20439318 0.19611079 -0.031848587 -0.07153355 -0.10580255
0.19395722 0.07526683 -0.07044746 -0.24323602 0.010946339 -0.16396388 0.10800218 -0.08228821
-0.1878722 -0.07730436 0.034915183 -0.10473056 0.06923279 0.044417534 0.019306388 0.06669024
0.09350203 0.044490576 -0.040503025 0.026897246 0.059661254 0.37548286 -0.14897075 -0.040147364
-0.12159901 -0.19981053 0.17785116 -0.03343428 -0.024550917 0.046789765 -0.31946546 -0.17125456
0.103850886 0.14269665 0.11268742 -0.025233572 -0.20796838 -0.1558813 0.2194639 -0.094311945
0.27096942 -0.07501468 -0.24526128 -0.033729516 0.16509464 -0.17253295 0.19638242 0.102517866
-0.0018775692 0.039116923 -0.16370276 0.07160225 0.06918955 -0.13707927 -0.12498641 0.11143633
0.000491399 -0.023584558 -0.39902294 -0.1208506 0.15129432 -0.024189413 0.076685145 -0.04084201
-0.05818246 0.1528159 -0.36631745 0.12334709 0.011693198 -0.14567287 -0.10186574 -0.3177169
-0.11313861 0.056579858 -0.03667752 0.08555985 0.2412311 -0.15602742 -0.021380164 -0.08756946
0.30959925 -0.055123176 -0.013440887 -0.19221862 0.13192812 0.2337189 -0.23327099 -0.14942154
-0.3409968 0.53363925 -0.9022767 -0.18290786 -0.0018556087 -0.5718443 0.17073308 0.111979395
-0.065468684 0.3263621 0.4194206 -0.41590774 0.58669686 -0.00029133493 0.116199866 0.11821733
0.053446896 -0.009345114 0.2438942 -0.08764063 0.10657228 0.8652223 -0.062336218 0.10349025
0.1095583 0.08327906 0.3405626 -0.11905876 0.38084552 -0.3608289 0.14864518 0.25572318
-0.82054234 -0.0877382 0.10363217 -0.06884432 -0.0021337592 -0.2769572 0.24030195 -0.0681908
-0.019903045 0.36598366 -0.5916757 -0.39215666 -0.055848952 -0.33091223 0.0792362 -0.027657315
0.21186231 0.13739003 0.0127986865 -0.11608221 -0.3258907 0.023032842 0.66264164 0.026502209
-0.17515445 -0.045579974 0.16841415 0.22242491 -0.040905815 0.84996593 -0.6185681 -0.36774653
0.12641753 -0.21280976 0.14759538 -0.3524664 0.08894162 0.16825293 0.15655427 0.17172389
-0.18826887 0.080736786 0.23524623 -0.11527103 0.11668039 0.1292077 -0.18013956 0.16148345
0.18079548 0.7276622 -0.57092255 -0.27757066 -0.106096394 -0.16225323 0.052856766 -0.20706157
0.0501581 -0.040341374 0.0070968154 0.13462365 -0.29483694 -0.052221514 0.20705616 0.110273436
0.20359758 -0.027437415 0.16649346 0.116021186 0.101753116 0.1459853 -0.1824074 -0.21726497
0.019867465 -0.16063152 -0.07247251 -0.13179608 0.16077082 0.1580066 -0.10703686 0.068511255
0.10868974 -0.27193674 0.33239228 0.09780341 -0.23731112 -0.03028637 0.06791891 -0.06935063
0.059874535 0.4146313 -0.2520277 -0.4195976 0.0799962 0.38840005 0.19061841 -0.56997555
-0.021542761 -0.07799892 0.033197157 0.033828773 0.011530651 0.005675559 0.091015585 0.18103865

fc1.bias f4 [128]
00000000: f89a 0dbe e0ce 3bbe f052 0ebe d69c 60be
00000010: f13c 41be ccc5 15be 060f d6bd 4d0c a4bd
00000020: d31e 33be 34c1 47be 2f15 81bd 63a7 0bbe
00000030: 389a 2fbe 3a74 2abe 5457 2abb d65c e3bd
00000040: 11ed dfbe 277f 01be dc4f 09be e3bd 85be
00000050: aa96 85be ad00 19be 6198 46be d87f 69be
00000060: f349 0abe 48e6 02be 1085 2bbe d85e e9bd
00000070: 33cf 9d3d 1e7d 8bbd 0194 8cbe 9868 3abe
00000080: 2aa2 66be d0ca 69be 8d22 67be 6fdf 31be
00000090: 0a8c 9bbe c5f1 00be 34bc a0bd 21f2 fbbd
000000a0: 8f21 bbbd b908 78bd d3aa 84bd 0b15 17be
000000b0: 4015 28be d11f 08be f3ee b5bd 6551 c0bd
000000c0: a2b8 73be fec2 0cbe 5dd4 e7bd 16a9 acbd
000000d0: c3fd 14be 1898 19be d257 95be d75b 8abd
000000e0: 30ab cbbd c0e0 bcbe 44cd d8bd 9c1a 47be
000000f0: 3e69 15be 4afd 13be 6471 3bbe a5ca f9bd
00000100: 8870 2dbe 3f7f e3bd 158b 90be 81a7 3dbe
00000110: 0efc 34be bdaf 1fbe 3ecf 36be 4b58 d0bd
00000120: feda 92be 8311 16be b0e1 d6bd 8086 20be
00000130: 34b6 c6bd 13b6 02be 43c3 88be 8f78 c2bd
00000140: fcb8 84bc e70d 5bbe 5796 44be e1f7 53be
00000150: d8ed 27be 6b68 96bd cb4a c4bd 51ab 80bd
00000160: e5be 1fbe 2a00 67bd 82c7 52be 205c 3ebe
00000170: a95d 25be daee efbd 2dcc 2dbe 7876 d0bd
00000180: be65 e8bd ef40 dfbd ebe8 39be ad82 75be
00000190: 4d7a 00be 6c7b b9bd d1a7 d7bd dbaa 45be
000001a0: c561 24be e010 bbbd 85d1 50be 4e1b 33be
000001b0: 8b63 2ebe bc7f 0dbe bf66 32be dc46 96be
000001c0: d0cc 43be 8e54 d1bd b5ce 0cbe ed79 f0bd
000001d0: ab95 4cbe 3a4f 16be 54f4 86bd a757 44be
000001e0: 91a5 02be 40f6 f8bd 3b59 c2be 5345 a2bd
000001f0: 16dc cdbd cf7c 3abe 1814 14be 6cfc b7be
-0.13828647 -0.18340635 -0.13898826 -0.21934828 -0.18870904 -0.14626235 -0.10452084 -0.08010159
-0.17492227 -0.19507295 -0.063028686 -0.13638072 -0.17148674 -0.166459 -0.0025991993 -0.111016914
-0.43735555 -0.12646161 -0.1340937 -0.26121435 -0.2609151 -0.14941664 -0.19394065 -0.22802675
-0.13504772 -0.12783158 -0.16749978 -0.11395043 0.07705536 -0.068109736 -0.27456668 -0.18203962
-0.22522798 -0.22831273 -0.22571774 -0.1737039 -0.3038028 -0.12592228 -0.07848397 -0.12302042
-0.0913726 -0.060555194 -0.06477895 -0.14754121 -0.16414356 -0.13293387 -0.088834666 -0.09390525
-0.238009 -0.13746259 -0.11319802 -0.08430688 -0.14549927 -0.14999425 -0.29168564 -0.06755798
-0.09944761 -0.3689022 -0.10586026 -0.19443744 -0.14590928 -0.14452091 -0.18304974 -0.121968545
-0.16937459 -0.11108255 -0.2823111 -0.18520929 -0.17674276 -0.15594383 -0.17852494 -0.101730905
-0.28682703 -0.14655118 -0.10492265 -0.15676308 -0.09702721 -0.12764768 -0.26711473 -0.09495651
-0.016201489 -0.21392022 -0.19197975 -0.20700027 -0.16399324 -0.07344135 -0.09584578 -0.06282676
-0.15600164 -0.05639664 -0.20583919 -0.1858983 -0.1614901 -0.11715479 -0.16972418 -0.10178846
-0.11347531 -0.10901057 -0.18155257 -0.2397563 -0.12546654 -0.09056744 -0.10530055 -0.19303457
-0.16052921 -0.09134078 -0.20392425 -0.17490885 -0.1703016 -0.13818258 -0.17422007 -0.29350936
-0.19121099 -0.10221206 -0.13750727 -0.117420055 -0.19978969 -0.1467866 -0.06589571 -0.19174062
-0.12758471 -0.121563435 -0.37958702 -0.07923379 -0.10051744 -0.18211673 -0.1446079 -0.3593477

fc2.weight f4 [16, 128]
00000000: e961 c53d e762 46be 9043 3abe e8f1 4b3e
00000010: a8be 3ebe 4b8a 073e 1992 13be 58f5 86be
00000020: 68c4 273e ebfb 35be 55f1 e1be bbb5 043e
00000030: 603a 243e 77cf 0a3e 7601 62be c19c 5ebe
00000040: 9bff 59bd 8fe3 0c3e 2d1f a6be 25e6 533e
00000050: f7a8 d83d 06d1 033e 2947 7b3e c649 263e
00000060: 7817 6c3e 8236 2bbe a370 803d 626b 61be
00000070: 074b 2f3d 1bee 5dbe 0e85 873e 9b0b 1bbe
00000080: 7921 2e3e 9b97 49be 0350 ee3d 85b0 dd3d
00000090: 14d0 86bd 2420 96be 8cc6 95bd 8b71 59be
000000a0: f245 1b3e 670c aabe 8b2f 313e 0354 69be
000000b0: 5dec fabd 3770 62be 5a2e eb3d e89b fabd
000000c0: 3b4b 763e b40c a9be d763 9fbe 4000 0a3e
000000d0: 83ae 93be a132 2dbe de48 ecbd ba43 0cbe
000000e0: ef0d ccbe 120e 59bd d205 5abe b079 53be
000000f0: 88fb 67be e2d2 88be ea23 0f3e 73a3 d2be
00000100: 6fbd 79be 7161 6bbe c4cf 163e 21c1 2f3e
00000110: 1041 473e 1fbe 85be 0b7d bbbd f401 51be
00000120: 7f9a 9c3e b16e 32be 76e7 8fbe 11f9 a3be
00000130: 9ce1 8bbe 98a0 0b3e 4ce7 32be 327b 12be
00000140: 5d05 613e e975 92be abc8 263e 6884 51be
00000150: 6a42 373e 386a 69be 0f32 0dbe 31d2 9ebe
00000160: 0df9 eb3d 4320 35be 0f91 3fbe 16a3 3d3e
00000170: 0d22 57be 4607 87be 99b5 cd3d 8126 81be
00000180: e237 e1be a06a 7e3e 22b8 95be 3993 00bf
00000190: b613 783e 95f5 97be efef 073e ba6e fa3d
000001a0: 7081 8cbe cee7 453e 330e 433e cae2 513e
000001b0: 1b27 783e f753 1e3e 69a4 24be c5d8 74be
000001c0: 7945 1b3e a896 0fbe aa4a afbd 8bc0 ebbd
000001d0: e7ea 5d3e 7b33 d1be f4af 93be f519 ee3d
000001e0: 694d 253e 0939 14bc 789b ae3d e18e 82be
000001f0: ceb8 f53d 11db 203e a4e6 91be 687d 223e
00000200: 20a5 7abe 890e 193e 341a 2d3e c089 2ebe
00000210: e788 d93d 8a5f f3be 854a 833c 167d af3d
00000220: ab91 81be c367 c13d 36d0 c63d 1f47 a8be
00000230: 4b1d 9abe 41a8 bebe 822f c33e 0a7a a73d
00000240: b6a0 673e 11ca 68be 83a9 843e 85eb c7be
00000250: b9c5 d5be 5ee3 a4be b5bc 89be 2397 0ebe
00000260: ef44 81be 2ac4 af3d 693a b0be 3647 333e
00000270: 0750 debe cbc0 0c3e 3150 b2be 3e48 2d3e
00000280: 92a8 13be c9dd 803e fcd5 50be be4d 8fbe
00000290: 5250 083e 1a13 193e 8069 223e 6ac7 103e
000002a0: b5ed 97be 2cdd 6e3e 822b 93be 5dd6 333e
000002b0: 07c9 193e 7c1e 023e 23c3 66be b258 fd3d
000002c0: cd88 97be 37f7 843d c6ce 083e 7cd2 9abe
000002d0: 758c 133e 3ec3 c93d ed34 503e 72e2 1e3e
000002e0: deb7 2d3e e43b 583e 0824 1e3e 1657 1a3e
000002f0: b49d aa3d e6c0 033e 010e 8ebe 6fb0 1a3e
00000300: 7be6 b33e 88a1 7c3e efa2 1dbe 21a8 99be
00000310: 4539 8cbe dca0 e33d d3b1 1e3e a570 cc3d
00000320: 7dd4 8dbe 0a7e c03d 57ff 913e 9562 c93d
00000330: 24c3 fd3d a146 4dbe 5ff5 773e 2c8d 3e3e
00000340: 5bc0 d1be c24d 5b3e 8adf 43be 8d97 3e3e
00000350: c060 1cbe 9923 673e ba51 283e fdf1 683d
00000360: 2530 5fbe 3ffd a73d 28f3 7f3e d493 c4be
00000370: b158 613e 4ef1 553e 2c03 a4be 217b b63d
00000380: 1842 f93d 4c6c 46be a47c 983d 580f c63e
00000390: ddd3 b2be 36ec 753d 9bb9 90be 1f48 8cbe
000003a0: e470 003e 76f6 77be 19bc 12be cee1 ecbe
000003b0: d1d8 bbbe 3320 adbe 92d7 6d3d 8b8b 5d3e
000003c0: b72b 82be c96b 063e 4c29 193e e23f 2b3e
000003d0: 939c 20bf 5add 963e 15e0 4e3e 77e0 cabe
000003e0: d033 86be 9d9d 83be a72e 04bd 2d5a fe3d
000003f0: 8a64 78be 031e b8be 45a6 0c3e 6af7 3abe
0.096378155 -0.19373666 -0.18189836 0.19916499 -0.18627417 0.13236348 -0.144112 -0.26359057
0.16383517 -0.1777188 -0.44129434 0.1295995 0.16037893 0.13555704 -0.2207087 -0.21739484
-0.05322228 0.13758682 -0.3244566 0.20693262 0.105791025 0.12872705 0.24538864 0.1623908
0.23055828 -0.16720012 0.06271484 -0.2201362 0.04279616 -0.21672861 0.264687 -0.15141146
0.17004956 -0.19686739 0.11636355 0.10824684 -0.065826565 -0.29321396 -0.073132604 -0.2123472
0.15163401 -0.33212587 0.17303292 -0.22785954 -0.12252114 -0.22113119 0.1148345 -0.12236768
0.24052136 -0.33017504 -0.3113086 0.13476658 -0.2884408 -0.16913845 -0.11537336 -0.1369771
-0.3985438 -0.052991934 -0.21291283 -0.20651889 -0.22654545 -0.2672339 0.13978544 -0.41140327
-0.2438867 -0.2298639 0.14727694 0.17163517 0.19458413 -0.26121613 -0.091547094 -0.20410901
0.3058662 -0.17425038 -0.28106278 -0.3202596 -0.27320564 0.1363548 -0.17471045 -0.14304808
0.21974702 -0.28605583 0.16287486 -0.20460665 0.17896429 -0.22794425 -0.13788627 -0.31019738
0.11522112 -0.17688088 -0.18707679 0.18519244 -0.21009083 -0.26372737 0.10044403 -0.2522469
-0.43987948 0.24845362 -0.29242045 -0.50224644 0.24226269 -0.29679552 0.13275121 0.12228151
-0.27442503 0.19326708 0.19048385 0.2049667 0.24233668 0.15461718 -0.16078342 -0.23910816
0.1516322 -0.14022315 -0.08559163 -0.11511334 0.2167164 -0.4085959 -0.2884518 0.11626045
0.16142811 -0.009046801 0.08525747 -0.25499633 0.11998139 0.15708567 -0.28496277 0.15868151
-0.24477053 0.14946951 0.16904527 -0.17044735 0.10621815 -0.47533828 0.016026745 0.0856878
-0.25306448 0.09443619 0.09707682 -0.3286676 -0.30100474 -0.37237743 0.38122183 0.08177574
0.226199 -0.22733332 0.25910577 -0.39046875 -0.41752413 -0.32204717 -0.26901785 -0.13924842
-0.25247905 0.08582337 -0.34419563 0.17507634 -0.4342043 0.1374542 -0.34826806 0.1692209
-0.14419773 0.2516921 -0.20394129 -0.27989 0.1331189 0.14948693 0.15860558 0.1413857
-0.29673544 0.23326558 -0.2874413 0.17562242 0.15018092 0.12706941 -0.22535376 0.12370433
-0.29596558 0.06492465 0.13360128 -0.30238712 0.14409049 0.098516926 0.2033269 0.1551607
0.16964671 0.21116596 0.15443432 0.15072283 0.08330861 0.12866554 -0.2774506 0.15106367
0.3513678 0.24670994 -0.15394185 -0.30011085 -0.27387443 0.11114666 0.15497522 0.09982423
-0.27701178 0.0939904 0.2851512 0.09833256 0.12390736 -0.20046474 0.24214695 0.1860854
-0.40967068 0.21416381 -0.19128242 0.186125 -0.15271282 0.22572173 0.16437426 0.056871403
-0.2179571 0.082026 0.249951 -0.38394034 0.2200649 0.20892832 -0.3203367 0.08910204
0.121708095 -0.1937725 0.07445648 0.3868358 -0.34927264 0.06003972 -0.28266606 -0.27398774
0.12543064 -0.24215111 -0.14329566 -0.46266025 -0.36688855 -0.3381363 0.058066912 0.21635263
-0.25423977 0.13127054 0.1495716 0.16723588 -0.62738913 0.29465753 0.20202668 -0.39624378
-0.26211405 -0.25706187 -0.032271054 0.124195434 -0.24257103 -0.35960397 0.13735302 -0.18258443

fc2.bias f4 [16]
00000000: 163c 793e 2d56 2e3e 1170 f53d 780c e43d
00000010: efff 8f3e 297f 223e 562e f63d 671c a53e
00000020: 4ff1 943e 40a6 763e b54e fa3d 6eac 993e
00000030: 2b5b 113e 671e 873e a350 8d3e df0c 273e
0.24339327 0.17025061 0.119842656 0.11135191 0.2812495 0.1586882 0.12020557 0.32248232
0.29090354 0.24086857 0.122220434 0.30014366 0.14194934 0.26390383 0.27600583 0.16313504

fc3.weight f4 [1, 16]
00000000: e8be 9dbe f315 4e3e a6be 593e 0238 543e
00000010: 5b7d 97be 9370 583e 54d8 523e 18a7 94be
00000020: c212 afbe 0579 ccbe c856 523e cbb3 8fbe
00000030: d099 413e 34b1 b0be 35f7 94be 3f9e 793e
-0.30809712 0.2012556 0.21264133 0.2072449 -0.29587826 0.21136694 0.20590335 -0.29033732
-0.34194 -0.3993608 0.20540917 -0.2806686 0.18906331 -0.34510195 -0.29094854 0.24376772
