model/cross_validation/hp_nested_cv/checkpoint/c002_c000_128_8_0.001_32_0.3.pt (torch, 221655 bytes, 5 tensors)

fc1.weight f4 [128, 420]
0.31117165 -0.06628126 0.08762133 -0.11175236 -0.23375298 -0.33562398 -0.122592 -0.39916041
0.15616731 -0.19795157 -0.2556425 0.2718531 -0.11654866 -0.21239583 -0.29683822 -0.14539978
-0.38084826 0.30733496 -0.018069293 -0.26706204 0.05720421 -0.23077512 0.00676126 0.02830711
0.16390365 -0.07886743 0.08420652 -0.66026306 -0.14964767 -0.033378977 -0.080493614 0.1272653
-0.13034682 -0.032432485 -0.24635904 -0.0068467953 -0.3543934 0.040684294 0.0037698627 -0.14795835
0.03381324 -0.38344094 0.3961536 0.13756417 -0.017177917 -0.014786162 0.1090929 -0.086384155
-0.318029 0.03701182 -0.4461541 -0.50379556 0.020170597 0.1687751 -0.28711605 -0.47171858
-0.2978073 0.26105064 -0.14645962 -0.52100086 0.0369367 -0.0048440313 -0.2607693 -0.05184631
0.005329837 -0.036422443 0.093255594 -0.46439508 -0.015563311 -0.28162643 0.24101278 -0.07347544
0.1882247 -0.5920812 -0.022877447 -0.12374485 0.25065908 -0.28224114 -0.1023307 -0.18639812
-0.09692013 -0.342246 -0.08083116 -0.10976506 -0.12744144 0.023430783 0.45678407 -0.09427904
0.12626025 -0.23362806 -0.68069357 0.1092419 0.2755585 -0.19677709 -0.2474286 -0.21122241
0.042251963 -0.034178767 -0.18893796 -0.29756337 -0.0057816436 -0.30267584 -0.1251807 0.050873734
0.23700035 -0.22303283 -0.08372878 -0.033529032 -0.119053796 0.06471128 -0.1373953 0.11659236
-0.16376829 -0.0063582184 0.021032013 -0.25878853 -0.1665161 -0.18131298 0.062092274 -0.34867704
0.29235235 -1.3621923 -0.28951526 0.27709338 -0.055584516 0.225314 0.13428496 -0.0786635
-0.18058799 -0.18590221 -0.61560494 -0.13322525 -1.1439153 0.24680793 -0.18200386 0.19550626
-0.016989166 -0.5990312 -0.2498331 -0.5248065 -0.33515915 -0.76938856 -0.65309185 1.2039853
-1.2924258 -1.2902677 -0.11825997 0.0843441 -0.64228714 -0.14697498 -0.46342406 -0.9676756
-0.77634573 -0.0652657 -0.40247056 -0.5667191 -0.3133999 -0.07105604 -0.5425359 0.666137
0.41320997 -1.0960655 -0.8857933 -0.19832784 0.10115832 0.0597834 0.019920275 0.4962485
-0.40345883 -0.25468275 -0.044853672 -0.4996334 -0.6997821 0.14029959 -0.53905183 -0.12646246
0.46416005 -0.06363157 -0.031979337 -0.19626725 -0.1159681 -0.76940924 0.24691492 0.22787637
-0.36693162 -0.31195405 0.02194165 -0.3864787 0.061544728 -0.29636624 -0.30018324 -0.06051406
-0.19158003 -0.06968763 -0.17432216 0.16943535 -0.09019522 -0.02294748 -0.43248487 -0.11813901
-0.29198512 -0.0046839262 0.12503552 -0.15988305 0.19705795 0.16993126 0.048117243 -0.041047767
0.23009908 0.13946316 -0.01772803 -0.30656686 -0.24008775 -0.5209638 -0.29168516 -0.6273792
-0.0868933 -0.024446053 -0.17951314 -0.06834683 0.15097797 -0.6511071 -0.5238088 -0.08493159
0.43576258 -0.32299754 0.03684491 0.3875103 -0.17960462 -0.08021417 -0.018822651 0.06834949
0.03509943 -0.08242827 -0.6482567 -0.31023866 -0.098991565 0.1601918 -0.75734615 -0.7055409
0.27395234 -0.67526555 -0.4771453 0.032223597 -0.091979116 -0.6642955 0.561417 -0.36385658
-0.19960527 -0.3080734 -0.58875585 -0.36887148 0.074139 0.24011417 -0.025229992 -0.28507757
00000000: e451 9f3e 78be 87bd d072 b33d 6cde e4bd
00000010: f15c 6fbe e8d6 abbe 8411 fbbd c15e ccbe
00000020: 53ea 1f3e d1b3 4abe 93e3 82be 5430 8b3e
00000030: 10b1 eebd 4b7e 59be 2efb 97be aee3 14be
00000040: 8bfe c2be 025b 9d3e 0e06 94bc 5bbc 88be
00000050: f64e 6a3d 5050 6cbe 8f8d dd3b 50e4 e73c
00000060: 5cd6 273e 3f85 a1bd 7874 ac3d 0007 29bf
00000070: 3d3d 19be 65b8 08bd d6d9 a4bd d651 023e
00000080: a379 05be edd7 04bd 8b45 7cbe 155b e0bb
00000090: 0d73 b5be 93a4 263d cd0f 773b 6582 17be
000000a0: c07f 0a3d 5f52 c4be a5d4 ca3e 9fdd 0c3e
000000b0: b4b8 8cbc a941 72bc 196c df3d 2dea b0bd
000000c0: b2d4 a2be b599 173d 4f6e e4be bff8 00bf
000000d0: cf3c a53c 61d3 2c3e e000 93be 1985 f1be
000000e0: 337a 98be 6ea8 853e 83f9 15be 5060 05bf
000000f0: f04a 173d aeba 9ebb 8e83 85be cc5c 54bd
00000100: eaa5 ae3b b32f 15bd cafc be3d 31c5 edbe
00000110: 42fd 7ebc 5731 90be 0ecc 763e 4b7a 96bd
00000120: fabd 403e a292 17bf 7c69 bbbc f16d fdbd
00000130: 6356 803e e981 90be c292 d1bd 26df 3ebe
00000140: 107e c6bd de3a afbe cf8a a5bd 81cc e0bd
00000150: 0280 02be eaf1 bf3c 9adf e93e 5f15 c1bd
00000160: 5e4a 013e 323c 6fbe ef41 2ebf 38ba df3d
00000170: 0116 8d3e ef7f 49be ec5d 7dbe b04a 58be
00000180: 6510 2d3d 09ff 0bbd f478 41be 3a5a 98be
00000190: f173 bdbb 54f8 9abe 5f2f 00be fa60 503d
000001a0: 38b0 723e b862 64be ff79 abbd bd55 09bd
000001b0: 7ad2 f3bd 5987 843d 5bb1 0cbe fac7 ee3d
000001c0: e0b2 27be 9a58 d0bb 544b ac3c ee7f 84be
000001d0: 3283 2abe 1caa 39be 7854 7e3d cc85 b2be
000001e0: 35af 953e 515c aebf 583b 94be 2fdf 8d3e
000001f0: 97ac 63bd b7b8 663e ff81 093e 541a a1bd
00000200: 0fec 38be 265d 3ebe 4998 1dbf 336c 08be
00000210: d16b 92bf 38bb 7c3e 385f 3abe cb32 483e
00000220: dd2c 8bbc 1c5a 19bf 40d4 7fbe b859 06bf
00000230: fb99 abbe a6f6 44bf 0731 27bf 311c 9a3f
00000240: 356e a5bf 7e27 a5bf 4832 f2bd 99bc ac3d
00000250: ee6c 24bf 9c80 16be eb45 edbe 97b9 77bf
00000260: 98be 46bf 06aa 85bd 9f10 cebe 8114 11bf
00000270: f475 a0be d485 91bd a2e3 0abf f487 2a3f
00000280: 4290 d33e e04b 8cbf 5ac3 62bf 7416 4bbe
00000290: 182c cf3d 70df 743d d82f a33c 4914 fe3e
000002a0: 2892 cebe c765 82be 7cb8 37bd f3cf ffbe
000002b0: eb24 33bf b2aa 0f3e 4dff 09bf 607f 01be
000002c0: 63a6 ed3e 4551 82bd c4fc 02bd 48fa 48be
000002d0: af80 edbd 01f8 44bf 44d7 7c3e 6c58 693e
000002e0: 76de bbbe 71b8 9fbe fabe b33c 89e0 c5be
000002f0: 5316 7c3d 51bd 97be 9eb1 99be 97dd 77bd
00000300: 8e2d 44be 63b8 8ebd 8281 32be 7680 2d3e
00000310: 46b8 b8bd 5bfc bbbc a86e ddbe def2 f1bd
00000320: 137f 95be 9f7b 99bb 5009 003e 62b8 23be
00000330: 8fc9 493e 7602 2e3e 9616 453d b421 28bd
00000340: 189f 6b3e 6ecf 0e3e 603a 91bc 55f6 9cbe
00000350: 90d9 75be e25d 05bf c257 95be ec9b 20bf
00000360: 1df5 b1bd 1743 c8bc 4bd2 37be 6cf9 8bbd
00000370: f899 1a3e f4ae 26bf 5518 06bf 9df0 adbd
00000380: 461c df3e ef5f a5be b0ea 163d c067 c63e
00000390: 46ea 37be 5447 a4bd f631 9abc d1fa 8b3d
000003a0: 6bc4 0f3d 27d0 a8bd 27f4 25bf 9ad7 9ebe
000003b0: 17bc cabd 5209 243e 70e1 41bf 549e 34bf
000003c0: 7b43 8c3e 34de 2cbf 644c f4be e4fc 033d
000003d0: 8c5f bcbd 450f 2abf 06b9 0f3f 694b babe
000003e0: 5365 4cbe ccbb 9dbe b4b8 16bf b9dc bcbe
000003f0: 30d6 973d 7de0 753e 21af cebc b0f5 91be

fc1.bias f4 [128]
0.025005924 -0.12745704 -0.10390902 -0.3459251 -0.033310343 -0.09901915 0.08106564 -0.2587332
-0.020173555 -0.60890317 -0.37414348 -0.6199805 -0.6148043 -0.4634619 -0.3574794 -0.5529155
-0.06307506 -0.0014054085 0.068682946 0.082797766 -0.031230532 -0.51881504 -0.005869903 -0.37333372
0.04193277 -0.3212114 -0.5137434 -0.3317532 -0.4577858 -0.05751402 -0.7484265 -0.55259204
-0.4023959 -0.3354734 -0.46059084 -0.16989215 -0.62442875 -0.21830568 -0.333238 -0.68572664
-0.4141934 -0.4093936 -0.8371464 -0.25695148 -0.008259916 -0.59738904 -0.355897 -0.05747152
-0.5351983 -0.90453607 -0.100587316 -0.4353614 -0.0113937855 -0.46358877 -0.26223597 -0.10037874
-0.35399267 -0.08054742 -0.011417319 -0.124396615 0.16787076 -0.42759058 -1.023746 -0.5001122
0.001037059 -0.48421007 -0.1296294 -0.541315 -0.5101097 -0.35667253 -0.6882283 -0.52387476
-0.4338928 -0.26641417 0.020963917 -0.121559605 -0.11618695 -0.2607837 -0.38396573 -0.13821961
-0.3022407 0.019898018 -0.53143495 -0.21474864 -0.12441202 0.24632722 -0.12344759 -0.23029993
-0.12134381 -0.5276928 0.01086897 -0.5923876 -0.20882623 -0.26626813 -0.13476638 -0.14209828
-0.13032478 -0.40820572 -0.40928584 -0.40929592 -0.12554224 -0.82172036 -0.14515464 -0.15250877
0.17673807 -0.4998959 -0.15393333 0.07381537 -0.089581855 -0.1431288 0.002547437 -0.023914155
-0.4192377 0.17482165 0.056414902 0.07054607 -0.34978804 -0.1376395 -0.5748215 -0.34369054
-0.89407796 -0.2875541 -0.43729016 -0.08548117 0.07851184 -0.3050364 -0.92922217 -0.5600877
00000000: 39d9 cc3c 1984 02be 41ce d4bd 181d b1be
00000010: 6d70 08bd 8dca cabd be05 a63d ae78 84be
00000020: 0343 a5bc 14e1 1bbf bc8f bfbe 0bb7 1ebf
00000030: d163 1dbf e14a edbe 8a07 b7be df8b 0dbf
00000040: 7f2d 81bd af35 b8ba a5a9 8c3d e091 a93d
00000050: 2cd7 ffbc 10d1 04bf 5158 c0bb 9925 bfbe
00000060: b2c1 2b3d d275 a4be b084 03bf 8edb a9be
00000070: e662 eabe d293 6bbd e198 3fbf ac76 0dbf
00000080: d606 cebe 2bc3 abbe 90d2 ebbe 35f8 2dbe
00000090: 90da 1fbf 868b 5fbe 2c9e aabe c88b 2fbf
000000a0: 2811 d4be 0a9c d1be 3a4f 56bf 258f 83be
000000b0: 9954 07bc 7dee 18bf 2238 b6be 4267 6bbd
000000c0: c102 09bf ad8f 67bf b900 cebd b0e7 debe
000000d0: 00ad 3abc 825b edbe cb43 86be 5e93 cdbd
000000e0: 873e b5be 0cf6 a4bd b50f 3bbc a7c3 febd
000000f0: 50e6 2b3e 27ed dabe 1c0a 83bf 5a07 00bf
00000100: eded 873a 62ea f7be 92bd 04be 9f93 0abf
00000110: 8d96 02bf c89d b6be bb2f 30bf a81c 06bf
00000120: 3227 debe 7067 88be 85bc ab3c 3ef4 f8bd
00000130: 6cf3 edbd 7185 85be 2897 c4be 7189 0dbe
00000140: 4bbf 9abe 2b01 a33c 1f0c 08bf 11e7 5bbe
00000150: bbcb febd 343d 7c3e 17d2 fcbd bfd3 6bbe
00000160: 1a83 f8bd e016 07bf c413 323c b7a6 17bf
00000170: 8bd6 55be 4c54 88be 3300 0abe 3682 11be
00000180: dc73 05be 5700 d1be ea8d d1be 3c8f d1be
00000190: 258e 00be 445c 52bf 6ba3 14be 422b 1cbe
000001a0: d3fa 343e 5bf2 ffbe b3a0 1dbe 832c 973d
000001b0: b176 b7bd 5b90 12be e7f2 263b 9ee7 c3bc
000001c0: 53a6 d6be 7204 333e 5013 673d 757a 903d
000001d0: 6b17 b3be 5ef1 0cbe 8027 13bf 35f8 afbe
000001e0: 4be2 64bf 4a3a 93be 7fe4 dfbe c010 afbd
000001f0: d1ca a03d bb2d 9cbe 81e1 6dbf e861 0fbf

fc2.weight f4 [8, 128]
-0.51348466 -0.42780423 -0.27817926 0.18751684 -0.43982333 -0.46598238 -0.24127942 0.26887208
-0.35754067 0.19442262 0.221465 0.1559377 0.1981417 0.17160757 0.24941224 0.28444394
-0.17869563 -0.3476515 -0.43064344 -0.38622242 -0.3846123 0.25306568 -0.19306079 0.20552126
-0.3415637 0.31797156 -0.23511268 -0.2662233 0.22551072 -0.32837775 0.29464787 0.2737506
0.20913577 -0.30780885 0.1968017 -0.3994458 0.2978322 -0.19853345 0.120415285 0.36096233
0.22492334 0.28828818 0.3258732 -0.36070916 -0.49646285 -0.34968618 0.7601703 -0.31271428
0.48620972 0.16840914 -0.36206052 0.236616 -0.3385447 0.24088228 0.18636395 -0.28369644
-0.12572268 -0.47921354 -0.5617144 -0.32006922 -0.5389595 0.19903283 0.19193311 0.29477584
-0.35756764 0.313012 -0.37220892 0.2147611 0.29240522 0.28389215 0.16607049 0.25869778
0.23850547 -0.39984536 -0.24675007 -0.2964501 -0.3690274 0.2504081 0.22608504 -0.2992455
-0.29601657 -0.17520228 0.07229804 0.12340798 -0.42359638 -0.29490322 -0.37771127 -0.2527945
-0.32199144 0.37179065 -0.45117477 0.21556196 -0.32192588 -0.3250453 0.14889409 -0.20979147
-0.40303278 0.24405514 -0.19469051 0.24809435 -0.31974235 0.18725303 -0.41962686 0.105061226
-0.4243302 0.17530127 0.25514665 -0.18643594 -0.1445392 -0.40738216 -0.22064552 -0.3274211
0.16293184 -0.47238955 -0.38472423 -0.22938819 -0.38718712 -0.503809 0.27553952 -0.113449074
-0.121070325 0.20268628 0.2939816 -0.45908904 -0.52402896 0.11984645 0.1477908 -0.20554309
0.23235203 0.43105233 0.19871773 -0.3830734 0.23532361 0.32022774 0.2891046 -0.2646762
0.21652569 -0.41098282 -0.36482903 -0.3727655 -0.43476304 -0.37188977 -0.60561156 -0.7524963
0.20257246 0.22613825 0.39613295 0.16614361 0.21535255 -0.354718 0.24244489 -0.4181876
0.23093933 -0.6231423 0.23797074 0.37190375 -0.31574264 0.24283606 -0.18859552 -0.40176868
-0.37491587 0.44732744 -0.5902138 0.33963087 -0.48977432 0.30845344 -0.3274027 -0.4161558
-0.3927862 -0.44396642 -0.4167494 0.3895241 0.2690361 0.3195213 -0.74941456 0.21720889
-0.551186 -0.13711414 0.28278625 -0.40249062 0.20536056 -0.38273126 -0.45674086 0.193465
0.3024487 0.19952068 0.26182714 0.190721 0.5567093 -0.45772624 -0.12913842 -0.40996844
0.21161082 -0.40509295 0.2158423 -0.3731702 -0.38294497 -0.39514223 -0.36450866 -0.3036367
-0.2544027 0.3742289 0.20936663 0.32123116 0.3041069 -0.29600728 -0.36965635 0.36580375
0.19479111 0.22167285 -0.4484494 -0.44064596 0.23820044 0.21458833 0.25768748 0.29642338
0.21041334 -0.415846 0.32566983 -0.23181637 0.27835348 0.33448273 -0.3933024 0.19206202
0.28195858 -0.15228517 0.2640138 -0.4815128 0.21329632 -0.13163432 0.36458802 -0.3985974
0.30993608 -0.5754935 -0.6489348 0.20623177 0.15153518 0.27662072 0.24232852 0.33586785
-0.48121977 0.27765086 0.18321298 0.19283648 0.44149092 0.24373591 -0.43272066 0.30766067
0.20843646 -0.42862284 -0.6111085 0.24680284 0.2602562 -0.43524903 -0.074651234 0.2640589
00000000: bb73 03bf 2809 dbbe 836d 8ebe 6a04 403e
00000010: 8630 e1be 3e95 eebe f411 77be 9aa9 893e
00000020: 920f b7be b916 473e b9c7 623e 22ae 1f3e
00000030: a8e5 4a3e e5b9 2f3e ec65 7f3e a3a2 913e
00000040: fdfb 36be 61ff b1be 4c7d dcbe f2be c5be
00000050: e7eb c4be d391 813e bab1 45be 2a74 523e
00000060: 70e1 aebe 2bcd a23e 61c1 70be 6c4e 88be
00000070: 48ec 663e 2121 a8be 16dc 963e 0a29 8c3e
00000080: b027 563e 1f99 9dbe 6386 493e 2984 ccbe
00000090: 767d 983e 5a4c 4bbe 4a9c f63d 0ed0 b83e
000000a0: 4e52 663e 829a 933e dad8 a63e dfae b8be
000000b0: 6130 febe 110a b3be 859a 423f 161c a0be
000000c0: 7bf0 f83e 7273 2c3e ff5f b9be 774b 723e
000000d0: bb55 adbe d8a9 763e 31d6 3e3e a940 91be
000000e0: 72bd 00be 7a5b f5be 84cc 0fbf 1de0 a3be
000000f0: 40f9 09bf 43cf 4b3e 1d8a 443e dcec 963e
00000100: 1b13 b7be 1c43 a03e 2b92 bebe 55ea 5b3e
00000110: 23b6 953e 505a 913e 620e 2a3e 0974 843e
00000120: c73a 743e 88b8 ccbe 0dac 7cbe 4fc8 97be
00000130: 29f1 bcbe 7e35 803e d682 673e b536 99be
00000140: 7c8f 97be 3a68 33be ff10 943d 53bd fc3d
00000150: a0e1 d8be 8efd 96be 5f63 c1be 486e 81be
00000160: 10dc a4be 585b be3e 6100 e7be 46bc 5c3e
00000170: 78d3 a4be 566c a6be b177 183e 93d3 56be
00000180: 505a cebe 97e9 793e f35c 47be 720c 7e3e
00000190: 45b5 a3be 42bf 3f3e 55d9 d6be 572a d73d
000001a0: cf41 d9be 2d82 333e 95a2 823e 10e9 3ebe
000001b0: 1602 14be 6594 d0be e6f0 61be bda3 a7be
000001c0: 9bd7 263e 0bdd f1be 93fa c4be bde4 6abe
000001d0: 643d c6be a0f9 00bf 8413 8d3e fd57 e8bd
000001e0: b8f3 f7bd fe8c 4f3e c284 963e b80d ebbe
000001f0: c326 06bf 0e72 f53d 7956 173e e379 52be
00000200: b1ed 6d3e e4b2 dc3e a97c 4b3e 3222 c4be
00000210: acf8 703e e4f4 a33e 8505 943e a483 87be
00000220: e9b8 5d3e 576c d2be dfca babe 1fdb bebe
00000230: 4399 debe 5668 bebe 5c09 1bbf 99a3 40bf
00000240: 286f 4f3e c990 673e f0d1 ca3e 8d21 2a3e
00000250: 6185 5c3e 999d b5be 7943 783e af1c d6be
00000260: 5c7b 6c3e 4186 1fbf 9aae 733e 2b6a be3e
00000270: 05a9 a1be 04aa 783e 2f1f 41be a0b4 cdbe
00000280: f9f4 bfbe 1a08 e53e 4018 17bf 19e4 ad3e
00000290: b3c3 fabe 9ced 9d3e 54a1 a7be 5f12 d5be
000002a0: 461b c9be 914f e3be 2d60 d5be b46f c73e
000002b0: 1abf 893e 4c98 a33e a2d9 3fbf 026c 5e3e
000002c0: 871a 0dbf a667 0cbe 5cc9 903e 4013 cebe
000002d0: 0a4a 523e 5af5 c3be f0d9 e9be b01b 463e
000002e0: 8eda 9a3e 264f 4c3e 350e 863e 5e4c 433e
000002f0: 8084 0e3f 185b eabe dd3c 04be 62e7 d1be
00000300: 82b0 583e 5868 cfbe c405 5d3e 2a10 bfbe
00000310: 5d11 c4be 1550 cabe e1a0 babe 4576 9bbe
00000320: 1241 82be ee9a bf3e 3564 563e 6978 a43e
00000330: e6b3 9b3e 448e 97be 9943 bdbe a14a bb3e
00000340: 5277 473e 35fe 623e 299b e5be 599c e1be
00000350: d1ea 733e 0bbd 5b3e 9def 833e cec4 973e
00000360: 9876 573e c4e9 d4be 32be a63e 4561 6dbe
00000370: 5984 8e3e 5241 ab3e ef5e c9be e8ab 443e
00000380: e05c 903e a5f0 1bbe d12c 873e d988 f6be
00000390: 5a6a 5a3e 26cb 06be 48ab ba3e f514 ccbe
000003a0: f1af 9e3e 8b53 13bf 9720 26bf 6c2e 533e
000003b0: 0a2c 1b3e 3ba1 8d3e f824 783e dff6 ab3e
000003c0: 7062 f6be 4128 8e3e 2f9c 3b3e ed76 453e
000003d0: 190b e23e e895 793e 908d ddbe b385 9d3e
000003e0: 5e70 553e 7474 dbbe 9b71 1cbf e2b9 7c3e
000003f0: 4d40 853e f6d8 debe bfe2 98bd ba32 873e

fc2.bias f4 [8]
0.47696486 0.1524931 0.47505382 0.44028538 0.4634497 0.5194537 0.1410275 0.1391471
00000000: bd34 f43e 2727 1c3e 413a f33e 166d e13e
00000010: 4749 ed3e ebfa 043f 8369 103e 947c 0e3e

fc3.weight f4 [1, 8]
-0.28772748 0.22089626 -0.24461801 -0.24158281 -0.26123363 -0.23950428 0.24425872 0.24791801
00000000: 0451 93be a132 623e 257d 7abe 7c61 77be
00000010: 6ac0 85be 9c40 75be f51e 7a3e 38de 7d3e
