model/cross_validation/hp_nested_cv/checkpoint/c002_c001_64_32_0.001_32_0.2.pt (torch, 118103 bytes, 5 tensors)

fc1.weight f4 [64, 420]
0.017656239 -0.17703652 0.14415175 -0.0235568 -0.3685149 -0.08756628 -0.19931088 -0.047033638
0.25820056 0.13318054 -0.7590892 0.03182474 0.36302343 0.08074658 0.07743146 0.041354988
-0.3452864 -0.050945908 0.33292517 -0.16782375 -0.051214997 -0.23557469 -0.15664358 0.012697106
0.31676656 0.11046529 0.004449473 -0.12716636 -0.22689097 -0.044923797 0.20416385 -0.15535837
-0.061539523 -0.30756417 -0.13825926 0.097100094 0.21361196 0.10498461 0.100691654 -0.33267254
-0.0063642743 0.027015362 -0.04396038 -0.08249023 -0.07557056 -0.039247546 -0.1987379 -0.33595583
0.12186827 -0.322584 0.0042446866 0.0930496 0.5430807 -0.1992344 -0.105101675 0.26305878
-0.058740754 -0.037778202 -0.31645644 -0.50760627 0.029336981 -0.17817786 0.04504176 -0.11725696
-0.018955763 0.11528205 0.0071079317 -0.10634452 -0.4349616 0.05184505 -0.2716629 -0.20666052
0.5676508 0.106006965 -0.27417457 -0.110963956 0.009832676 -0.04923435 -0.013271369 0.43537974
-0.35886356 -0.086819 -0.062048342 -0.053665377 -0.30243745 -0.09520196 0.08944156 0.28918204
0.04906736 -0.09998904 0.107271045 0.099631295 0.13413244 -0.005419859 -0.19560878 -0.10981296
0.19456452 0.19932134 -0.07452551 0.109803215 -0.17484011 -0.3909776 0.031981904 0.010339613
-0.05240862 -0.07325672 -0.72943383 -0.06217705 0.36946768 -0.27464354 -0.024670376 -0.13313176
0.44692713 0.33336917 -0.19395365 -0.09404413 0.08008845 0.15102032 -0.35551322 0.13485357
0.07956846 1.0661064 -1.3503652 -1.0251633 -0.6186113 0.44829553 0.022412205 -0.056218576
0.599669 0.05685367 0.0069598337 -0.5778099 0.45788604 0.020374356 0.5013644 -0.41337338
0.09866581 -0.07996073 0.68722975 -0.6457269 0.15600435 1.7398404 -0.63567936 -0.86433244
0.44837245 0.8540832 0.78742886 -0.052177366 -0.45376858 -0.36260056 -0.53190637 0.29971287
-0.69331914 -0.939835 0.2337697 0.089307606 0.058439 0.32808006 0.62374556 0.28018677
0.16674787 1.0230289 -0.8566232 0.27847153 -0.38606474 0.30495593 0.47841838 -0.27801132
-0.32583112 -0.108084045 -0.43598396 -0.23659602 -0.21274702 0.1357655 0.38499802 0.12823881
0.118908465 0.058852084 -0.13911596 -0.39269185 0.27812934 0.50013345 -0.9024625 -0.35339457
-0.63132006 -0.14859816 0.39360192 -0.23931189 0.52501184 0.0096932 0.047570378 -0.08021866
-0.08139306 0.16250372 0.9174 0.0070205457 -0.16746429 0.21165475 -0.52794737 -0.56514454
-0.23240447 1.2194239 0.15453228 -0.12184862 -0.29143903 -0.3212283 0.10600945 -0.6972362
0.45911655 -0.1831038 -0.04714681 0.17616951 -0.93703544 0.15006387 1.0573342 0.04646531
-0.42237967 -0.54648256 -0.45452973 0.24968287 -0.06367841 0.835409 0.4895311 -0.12528555
-0.76769984 0.20270629 0.3552201 -0.6553363 0.6803235 -0.3470312 0.033215337 0.17950574
-0.5600626 0.17919365 0.473773 0.20529364 -0.1827368 -0.50387126 -0.23725282 -0.041615944
0.19849132 1.134801 -0.13825066 0.20240246 -1.1691926 0.30573225 0.32249516 -0.32937092
0.6116884 -0.35753664 -0.15691744 0.11063309 -0.5257933 0.062230114 0.48166215 0.28484175
00000000: d1a3 903c 1049 35be 849c 133e 31fa c0bc
00000010: fcad bcbe f355 b3bd 2718 4cbe 58a6 40bd
00000020: dd32 843e 7b60 083e ab53 42bf a95a 023d
00000030: 35de b93e 775e a53d 6394 9e3d d963 293d
00000040: 61c9 b0be a8ac 50bd 2b75 aa3e fdd9 2bbe
00000050: d1c6 51bd 7e3a 71be 2d67 20be 8607 503c
00000060: 3a2f a23e a03b e23d e3cc 913b e637 02be
00000070: 1b56 68be 0402 38bd 5410 513e 4416 1fbe
00000080: de10 7cbd 0d79 9dbe d693 0dbe 6adc c63d
00000090: 18bd 5a3e 2c02 d73d 6d37 ce3d 0e54 aabe
000000a0: 678b d0bb 524f dd3c cd0f 34bd a3f0 a8bd
000000b0: bdc4 9abd 09c2 20bd f381 4bbe 6702 acbe
000000c0: 1296 f93d bb29 a5be 0317 8b3b ca90 be3d
000000d0: 5607 0b3f 1a04 4cbe 8c3f d7bd a4af 863e
000000e0: 259a 70bd 51bd 1abd 9406 a2be 7cf2 01bf
000000f0: 1c54 f03c 4274 36be b57d 383d 6b24 f0bd
00000100: 1e49 9bbc ff18 ec3d a7e9 e83b 28cb d9bd
00000110: 49b3 debe 7a5b 543d 6617 8bbe d19e 53be
00000120: 9051 113f 2e1a d93d 9c60 8cbe 1241 e3bd
00000130: 3b19 213c f5a9 49bd 2870 59bc 18ea de3e
00000140: f7bc b7be 29ce b1bd 6726 7ebd 3ad0 5bbd
00000150: 15d9 9abe 3ff9 c2bd 232d b73d ab0f 943e
00000160: dbfa 483d 0ec7 ccbd ecb0 db3d 7e0b cc3d
00000170: 045a 093e 1399 b1bb ab4d 48be 9ee5 e0bd
00000180: ec3b 473e e51a 4c3e d5a0 98bd 82e0 e03d
00000190: 4909 33be 372e c8be 75ff 023d 7b67 293c
000001a0: 6caa 56bd 9f07 96bd 2dbc 3abf 5dad 7ebd
000001b0: de2a bd3e 149e 8cbe 8719 cabc b153 08be
000001c0: a2d3 e43e 5daf aa3e c99b 46be 359a c0bd
000001d0: 6a05 a43d 12a5 1a3e d405 b6be 0e17 0a3e
000001e0: caf4 a23d 2d76 883f c4d8 acbf 8d38 83bf
000001f0: 4f5d 1ebf fe86 e53e cd99 b73c 7345 66bd
00000200: e883 193f 65df 683d 510f e43b 59eb 13bf
00000210: 0a70 ea3e 1fe8 a63c 6b59 003f ada5 d3be
00000220: 4d11 ca3d 74c2 a3bd 4aee 2f3f 5c4e 25bf
00000230: 9bbf 1f3e 17b3 de3f e2bb 22bf e444 5dbf
00000240: 1391 e53e 32a5 5a3f f094 493f efb7 55bd
00000250: 5b54 e8be c8a6 b9be 042b 08bf f773 993e
00000260: 5d7d 31bf 0799 70bf 5361 6f3e e8e6 b63d
00000270: bc5d 6f3d 1cfa a73e caad 1f3f a474 8f3e
00000280: f4bf 2a3e 9cf2 823f a84b 5bbf d293 8e3e
00000290: 47aa c5be 2f23 9c3e 41f3 f43e 8057 8ebe
000002a0: 56d3 a6be 2b5b ddbd 4a39 dfbe 3a46 72be
000002b0: 5bda 59be 1c06 0b3e 761e c53e 0951 033e
000002c0: 4886 f33d e20e 713d 6a74 0ebe e80e c9be
000002d0: f866 8e3e bf08 003f c807 67bf 22f0 b4be
000002e0: 319e 21bf 1e2a 18be 3186 c93e 2d0e 75be
000002f0: 2d67 063f 3ad0 1e3c 28d9 423d ae49 a4bd
00000300: 68b1 a6bd 6067 263e bada 6a3f 9b0c e63b
00000310: c27b 2bbe 06bc 583e 8f27 07bf 50ad 10bf
00000320: 70fb 6dbe 1516 9c3f b63d 1e3e c58b f9bd
00000330: 7f37 95be 0978 a4be 7c1b d93d 127e 32bf
00000340: 5311 eb3e 907f 3bbe 031d 41bd c865 343e
00000350: 8ee1 6fbf 58aa 193e ba56 873f 6952 3e3d
00000360: 2642 d8be 48e6 0bbf 1fb8 e8be deac 7f3e
00000370: d469 82bd 5ddd 553f d2a3 fa3e db4a 00be
00000380: fa87 44bf 3d92 4f3e 69df b53e 1fc4 27bf
00000390: ae29 2e3f 13ae b1be ce0c 083d 5ad0 373e
000003a0: 4360 0fbf 8a7e 373e 6092 f23e 7f38 523e
000003b0: 5b1f 3bbe b5fd 00bf 67f2 72be 7b75 2abd
000003c0: 4f41 4b3e 2941 913f 9591 0dbe 9742 4f3e
000003d0: 1aa8 95bf f088 9c3e 161e a53e 4ea3 a8be
000003e0: 9c97 1c3f 0b0f b7be f7ae 20be 9a93 e23d
000003f0: 649a 06bf 01e5 7e3d 6c9c f63e c7d6 913e

fc1.bias f4 [64]
-0.24190804 -0.34964082 -0.3355444 -0.32526213 -0.2697924 -0.056584183 -0.08327 -0.2763558
-0.3216255 -0.21441661 -0.21301946 -0.11563666 -0.13794415 -0.038732324 -0.095708005 -0.49850947
-0.22070879 -0.29288828 -0.20244582 -0.1893914 -0.07998657 -0.1411857 -0.96354276 -0.25383073
-0.13075282 -0.13647892 -0.31076634 -0.07781066 -0.2927549 -0.5176742 -0.35265413 -0.16745642
-0.41779995 -0.2873088 -0.31250316 -0.5386679 -0.17119898 -0.036509406 -0.29008788 -0.18520835
-0.22854629 -0.21163405 -0.46873873 -0.29219007 -0.3417728 -0.12074851 -0.30680716 -0.14958099
-0.054283943 -0.19740851 -0.217711 -0.16729127 -0.22072989 -0.2376409 -0.3522384 -0.21563147
-0.24135596 -0.15470634 -0.19315779 -0.066182464 -0.13689017 -0.119328186 -0.96454465 -0.23780434
00000000: beb6 77be 1f04 b3be 7acc abbe c288 a6be
00000010: 3b22 8abe d1c4 67bd 7689 aabd 827e 8dbe
00000020: 19ac a4be 0790 5bbe c621 5abe ead2 ecbd
00000030: 3b41 0dbe c9a5 1ebd 8f02 c4bd a23c ffbe
00000040: 7c01 62be 74f5 95be f54d 4fbe d2ef 41be
00000050: 00d0 a3bd fc92 10be bdaa 76bf 1af6 81be
00000060: 11e4 05be 21c1 0bbe c41c 9fbe 325b 9fbd
00000070: f8e3 95be 4c86 04bf 158f b4be b279 2bbe
00000080: e0e9 d5be 241a 93be 6a00 a0be 24e6 09bf
00000090: c94e 2fbe e38a 15bd 6686 94be 42a7 3dbe
000000a0: 0a08 6abe 99b6 58be 86fe efbe f099 95be
000000b0: d8fc aebe ff4a f7bd d415 9dbe c22b 19be
000000c0: d758 5ebd 7525 4abe a2ef 5ebe 674e 2bbe
000000d0: 0407 62be 2358 73be 9758 b4be 7fce 5cbe
000000e0: 0426 77be 576b 1ebe 28cb 45be ac8a 87bd
000000f0: f02c 0cbe 5662 f4bd 66ec 76bf fb82 73be

fc2.weight f4 [32, 64]
0.39502135 0.14816895 0.2655236 0.06857848 0.20363887 -0.5736786 -0.35904405 -0.40506953
0.19488904 0.32739988 0.21795727 0.16804686 0.134735 0.26804715 0.15264069 0.39409843
0.36577317 -0.094905384 0.29158008 0.36219242 0.20999011 0.21883357 0.38121006 -0.32676986
0.13851237 -0.31372064 -0.37213048 -0.10336543 0.22247662 0.42623103 -0.34471592 0.18692356
0.46894306 -0.20486458 -0.62321633 -0.5725002 -0.31454185 0.13353519 0.17171195 -0.41996935
-0.39862937 -0.1690119 0.2188783 -0.26146236 -0.5729174 0.22795571 -0.39224142 -0.35478726
-0.16710849 -0.47530258 0.31742325 -0.44669288 -0.3868242 -0.27138165 0.1776994 -0.5692603
0.09401147 0.23146808 0.15726611 0.26978225 -0.28938004 -0.57324904 0.47754127 0.338331
0.25286916 0.2593777 0.24008614 0.1672284 0.096234076 -0.72150326 -0.8663346 -0.77302027
0.11791983 0.082021676 0.14232497 0.058610264 0.15139101 0.0821502 0.16333896 0.22095738
0.13118012 -0.49845037 0.23168473 0.2517902 0.15243913 0.32025328 0.24086939 -0.4587938
0.06619983 -0.4258972 -0.23052852 -0.4253848 0.2046523 0.34270072 -0.38710228 0.08418472
0.13803215 -0.3791321 -0.8307953 -0.8794182 -0.60845023 0.23354176 0.16604894 -0.6762517
-0.33796343 -0.60021776 0.18847176 -0.21346459 -0.6709155 0.22489752 -0.32642886 -0.37149572
-0.9454748 -0.65969515 0.09368677 -0.73451644 -0.76818985 -0.3355395 0.19218661 -0.44183442
0.08070031 0.13548508 0.06811965 0.084005885 -0.36316788 -0.68530494 0.25006652 0.124107115
0.26790023 0.34430507 0.23729894 0.252256 0.17397863 -0.7144504 -0.45452112 -0.56588256
0.17201336 0.1610673 0.18780056 0.118581034 0.18715242 0.15768932 0.25030303 0.21751061
0.34784022 -0.36602303 0.21352185 0.32334837 0.10895483 0.50557965 0.43029097 -0.3818435
0.22520052 -0.2809574 -0.12233198 -0.22296795 0.2099652 0.36367986 -0.52120394 0.13276522
0.22805834 -0.1849771 -0.7726489 -0.5104138 -0.42155948 0.12893698 0.31326962 -0.25558382
-0.34907013 -0.17733064 0.39736828 -0.25565875 -0.462885 0.24612264 -0.54425263 -0.3194894
-0.31941152 -0.24160416 0.18585534 -0.63321984 -0.5165851 -0.28314543 0.2309436 -0.20768282
0.28043696 0.2691677 0.2437177 0.2609129 -0.40974897 -0.18635926 0.43763578 0.19617218
0.14169063 0.2637064 0.39623642 0.20750746 0.32565284 -0.6133503 -0.66942644 -0.2998812
0.25706077 0.18013728 0.1499838 0.0057610017 0.22108157 0.0742613 0.11342846 0.084689274
0.15798163 -0.5539278 0.03347891 0.19937058 0.14244744 0.47952956 0.35520846 -0.5817812
0.08806001 -0.43314478 -0.38660827 -0.70189285 0.21335912 0.2898496 -0.56618947 0.10288762
0.3136257 -0.51713574 -0.4510746 -0.7633094 -0.6586802 0.14788802 0.15818395 -0.2850278
-0.33070374 -0.15038061 0.25715747 -0.4574508 -0.6646489 0.16451308 -0.49197164 -0.48945233
-0.9153392 -0.40753028 0.030813029 -0.61832505 -0.57455295 -0.50099546 0.21233001 -0.40977442
0.18924302 0.05425469 0.1721349 0.051749196 -0.38926932 -0.6349126 0.1675946 0.29157022
00000000: 3d40 ca3e 9ab9 173e b6f2 873e e072 8c3d
00000010: b586 503e 9adc 12bf 9fd4 b7be 4665 cfbe
00000020: fe90 473e f5a0 a73e 3130 5f3e 7a14 2c3e
00000030: f9f7 093e 7a3d 893e d74d 1c3e 45c7 c93e
00000040: 9f46 bb3e c15d c2bd fc49 953e 4971 b93e
00000050: a607 573e e815 603e f72d c33e 614e a7be
00000060: 30d6 0d3e fe9f a0be e387 bebe 41b1 d3bd
00000070: e9d0 633e f43a da3e 9b7e b0be e468 3f3e
00000080: 4e19 f03e 05c8 51be 1b8b 1fbf 608f 12bf
00000090: a10b a1be 73bd 083e 42d5 2f3e 3906 d7be
000000a0: 2619 ccbe 7511 2dbe a221 603e 65de 85be
000000b0: b7aa 12bf 396d 693e ded3 c8be ada6 b5be
000000c0: 7d1e 2bbe dc5a f3be 4d85 a23e eeb4 e4be
000000d0: d20d c6be 89f2 8abe d5f6 353e 0bbb 11bf
000000e0: 1689 c03d f805 6d3e 5e0a 213e e620 8a3e
000000f0: 9f29 94be 73c0 12bf 4a80 f43e b939 ad3e
00000100: 1178 813e 27cd 843e 24d9 753e ec3d 2b3e
00000110: 5f16 c53d 70b4 38bf 1bc8 5dbf a8e4 45bf
00000120: f47f f13d fbfa a73d a3bd 113e 5111 703d
00000130: 3f06 1b3e 5d3e a83d 5442 273e a742 623e
00000140: 1554 063e e334 ffbe c33e 6d3e a5ea 803e
00000150: 0119 1c3e 3df8 a33e 77a6 763e 05e7 eabe
00000160: c793 873d 330f dabe ab0f 6cbe 09cc d9be
00000170: 5f90 513e 7876 af3e 4532 c6be 0a69 ac3d
00000180: 4d58 0d3e 9a1d c2be 00af 54bf 8d21 61bf
00000190: 65c3 1bbf 9225 6f3e bc08 2a3e d51e 2dbf
000001a0: 8b09 adbe dfa7 19bf befe 403e 7696 5abe
000001b0: 1ec1 2bbf 894b 663e af21 a7be b034 bebe
000001c0: a30a 72bf c8e1 28bf d9de bf3d 4509 3cbf
000001d0: 17a8 44bf d5cb abbe 91cc 443e 1f38 e2be
000001e0: 3446 a53d 9abc 0a3e 5182 8b3d 470b ac3d
000001f0: 24f1 b9be 2570 2fbf b808 803e df2b fe3d
00000200: 382a 893e c148 b03e 7efe 723e b327 813e
00000210: 7427 323e 39e6 36bf feb6 e8be aedd 10bf
00000220: 4524 303e d4ee 243e ca4e 403e 9dda f23d
00000230: e2a4 3f3e 4f79 213e b827 803e 1abb 5e3e
00000240: 1d18 b23e 5f67 bbbe 79a5 5a3e eb8d a53e
00000250: b623 df3d ab6d 013f 194f dc3e fe80 c3be
00000260: f79a 663e a6d9 8fbe 3089 fabd b651 64be
00000270: 1e01 573e 3f34 ba3e 9f6d 05bf 9bf3 073e
00000280: 2088 693e a36a 3dbe 51cc 45bf 7baa 02bf
00000290: a5d6 d7be 0e08 043e e064 a03e e2db 82be
000002a0: 52b9 b2be 2a96 35be db73 cb3e b4e5 82be
000002b0: 43ff ecbe 9307 7c3e 2454 0bbf 1d94 a3be
000002c0: e889 a3be 1567 77be dd50 3e3e b21a 22bf
000002d0: ec3e 04bf 70f8 90be 7b7c 6c3e ceaa 54be
000002e0: 6f95 8f3e 59d0 893e 2291 793e 6096 853e
000002f0: 9eca d1be f6d4 3ebe cc11 e03e 5ce1 483e
00000300: 5917 113e 8604 873e 80df ca3e d67c 543e
00000310: f8bb a63e 8604 1dbf 885f 2bbf 078a 99be
00000320: 789d 833e e875 383e 5a95 193e c9c6 bc3b
00000330: 3563 623e 4f16 983d 2e4d e83d 9271 ad3d
00000340: f0c5 213e 36ce 0dbf 2e21 093d cd27 4c3e
00000350: bedd 113e e684 f53e e2dd b53e 9def 14bf
00000360: ce58 b43d 27c5 ddbe 85f1 c5be 40af 33bf
00000370: d07a 5a3e 2b67 943e cbf1 10bf bfb6 d23d
00000380: 8c93 a03e 0263 04bf 40f3 e6be 3f68 43bf
00000390: 449f 28bf f56f 173e f9fa 213e 2aef 91be
000003a0: 0052 a9be 60fd 19be 25aa 833e fe36 eabe
000003b0: 6e26 2abf 1e76 283e b5e3 fbbe 7f99 fabe
000003c0: ab53 6abf cfa7 d0be 9b6b fc3c 8d4a 1ebf
000003d0: e715 13bf 3d41 00bf 0a6d 593e f4cd d1be
000003e0: ecc8 413e 2a3a 5e3d 2244 303e f7f6 533d
000003f0: 4f4e c7be a289 22bf eb9d 2b3e b148 953e

fc2.bias f4 [32]
0.33159137 0.33413023 0.43391156 0.344052 0.57288224 0.51482505 0.5286595 0.49793336
0.43810973 0.55154055 0.4347394 0.38226023 0.5858674 0.37045214 0.47930548 0.423807
0.48089764 0.39343795 0.5138523 0.557483 0.3668462 0.4666568 0.47418034 0.49605128
0.41717625 0.51482254 0.45066968 0.5077706 0.4917655 0.39492995 0.57767034 0.38944298
00000000: 58c6 a93e 1e13 ab3e a829 de3e 9527 b03e
00000010: 69a8 123f 93cb 033f 3b56 073f 1ff1 fe3e
00000020: eb4f e03e c331 0d3f 2a96 de3e 9db7 c33e
00000030: 68fb 153f e7ab bd3e 8767 f53e 3bfd d83e
00000040: 3738 f63e b370 c93e d38b 033f 35b7 0e3f
00000050: 44d3 bb3e a4ed ee3e c4c7 f23e 6ffa fd3e
00000060: 2098 d53e 69cb 033f 2dbe e63e 41fd 013f
00000070: b0c8 fb3e 4234 ca3e 34e2 133f 1265 c73e

fc3.weight f4 [1, 32]
-0.08289569 -0.10998104 -0.0659769 -0.08506294 0.11001366 0.06599377 0.07379091 0.062221806
-0.06687945 0.068182044 0.09030663 -0.059730653 0.07649689 -0.0735152 0.1221541 0.07128589
0.11022963 -0.057800163 0.10128342 0.07351862 -0.08180457 -0.07332491 0.07123418 0.072395295
-0.06377583 0.07741852 -0.050231922 -0.108918354 -0.07947648 -0.069754384 0.077966735 -0.07221977
00000000: 37c5 a9bd bd3d e1bd e61e 87bd 7b35 aebd
00000010: d74e e13d be27 873d b01f 973d 4bdc 7e3d
00000020: 18f8 88bd 07a3 8b3d aff2 b83d 21a8 74bd
00000030: 67aa 9c3d 238f 96bd ee2b fa3d 56fe 913d
00000040: 12c0 e13d ddbf 6cbd af6d cf3d ee90 963d
00000050: 2889 a7bd 5f2b 96bd 3ae3 913d fc43 943d
00000060: e79c 82bd 9a8d 9e3d fdbf 4dbd 9610 dfbd
00000070: 91c4 a2bd 63db 8ebd 06ad 9f3d f5e7 93bd
