model/cross_validation/hp_nested_cv/checkpoint/c002_c003_64_32_0.0001_64_0.3.pt (torch, 118103 bytes, 5 tensors)

fc1.weight f4 [64, 420]
00000000: 94fc 04bc b795 8b3b 6ee0 d03b 0ad6 f6b7
00000010: 0d94 fc3c c744 4abc 455a af3c fc25 a1bb
00000020: 467a 60bb f3ad 19bd e135 96bc 9089 003c
00000030: 8010 45bd 3230 0fbd a7ac 36bd 9a2c d33c
00000040: 34d8 173c daad ba3b 3dc4 58bc 07de 53bc
00000050: 8d04 8dbc eb40 c03c e0d3 a3bb fd8a 8d3c
00000060: 0409 cfbc f1bf e4bb bb63 20bd 04d9 aabc
00000070: 6eb6 0fbb 5e41 8d3c 2099 843b 8767 36bd
00000080: bd46 9abc 513d 33bd b95c fc3c ff9e 81bc
00000090: 0a21 af3c 5b2a 283d 7f71 06bc 942c 3dbb
000000a0: dd37 4abd 3b8c b53c 8a45 993c d83f 973c
000000b0: 01d1 46bc 1d77 253d eeae 573c 6f9b 2c3d
000000c0: a905 6cbc 8ffe 923c b76b 4b3b a080 d3bb
000000d0: 5dc1 0bbc bd5a b7bb e29d 2dbc 33f9 9ebb
000000e0: 69dc 65bc fbbf 3b3d 7f45 aabc e824 0a3c
000000f0: 5cdd 103c e4a2 5a3d 5923 8c3b 9185 b2bc
00000100: 5c48 cfbc 1a13 46bd 65bb e8bc 2c46 abbc
00000110: f3ef e7bb 03e6 ed3c f6d8 093d 68b9 16bc
00000120: 1144 26bd 2e29 f53c 821c c4bc 76e8 d0bd
00000130: 398b 57bc ed73 8cbb 29b4 7c3c a2a8 9fbc
00000140: 0bad 3bbc 2ef1 bcbb 18a2 183c 5d90 e5bc
00000150: 653e 903a 7ac9 cdbc 02f8 7a3d affd 56bd
00000160: 2a52 30bd 5ae0 1ebd 831b 193d b328 123c
00000170: 2a94 16be 9696 a53c 9331 68bc ef67 d43c
00000180: 8281 4d3b 8ef3 15bc 4c32 943d d926 0e3d
00000190: bb51 d23c 1971 783d 01ee 943c 139a e9bc
000001a0: ce74 eb3b 6f91 c43b 58c6 7ebb 7526 17bd
000001b0: 83c5 c83b 3e1c e13c 4c10 713c 645c a636
000001c0: f100 e4bd 314f 71bb cedb 46bd c8ca b93c
000001d0: e67d 42bd 20f8 273d 89bd d3bb c3bf 2d3c
000001e0: cad6 023d 5a48 4ebe 91b6 46be 04c7 92bd
000001f0: fad9 003d 30e0 bdbd 8e6c f93c 48e9 d03c
00000200: d9f3 b13d 0331 863c 3554 4fbd fa58 6fbd
00000210: 4874 f1bd 154d 95bc 30aa 6e3d 8fe8 7f3d
00000220: 20fe 4b3d 5e1c 093d 9501 5cbd 33e7 b8bc
00000230: d62d 8c3c f3d0 d5bd ce16 59bd 5237 253d
00000240: b81a b0bd f0a6 e6bd 7527 84bd 3a31 0d3c
00000250: b4a1 4abe c757 ba3c a914 41bc 96ad 09be
00000260: c7d7 adbc 960a 4bbe 03f3 803d c983 ce3c
00000270: eaf1 06bd 2f33 3cbd 39c6 a2bd 8e99 133e
00000280: b8d2 d13c 0afc 18bd d162 af3a db5c 06be
00000290: 9fe2 183c f061 98bd 4a4f 0e3c 838b 6d3d
000002a0: 1a8b f3bd 62a8 5b3d 97be 633d 9cc3 9f3d
000002b0: 31bb 98bb 7946 aebc 0b57 4fbe 829d d23c
000002c0: 1e6a 663d 4539 aabc 7035 173d cfe0 d7bd
000002d0: f660 9fbc 4229 95be 1409 ce3d 6347 603d
000002e0: 219e 3abe 7f3d 943c ab0b b8bc 4b1d 29bd
000002f0: 24b0 383c ae67 13bd df88 35bd 93bf 033d
00000300: a3fa 703d 2903 d739 0c75 35bd 3fe3 95bc
00000310: 4c82 b43b 3444 83bd 2722 2a3c b87e afbc
00000320: cc62 c8bb b350 3ebe 398b 11bd 6af8 1dbd
00000330: 8888 92bd bfad 83bd 865e 0a3d 39a4 0e3d
00000340: a202 5d3d fc48 1f3c 5e3b 2ebd 22d0 1bbd
00000350: 3f78 fabd 9815 863c fa75 763d add7 1fbd
00000360: 9b13 5dbd c0e3 9a3d e6fb a33d d422 8a3d
00000370: de9a d0bc 986a 613b 6b1e 1dbd af78 abbd
00000380: cb2f c13c 8758 05be 4bf5 e6bb 7a2d 8b3d
00000390: 019f 50bd 051c 1cba 260e 3bbd 9d54 5d3c
000003a0: 4aed 7d3c 5b96 8fbd 497e 8dbd 7977 03bd
000003b0: e88f 53bb c870 de3d 7693 bebd 11fd a2bc
000003c0: 4c9b f33b 4795 0dbe 2f0e a0bd 51ef 8dbd
000003d0: 63ca e83c 697c d3bd 990f af3d 69f8 15bc
000003e0: f1d9 483c 803f fcbc 6b81 e33a e83a a53c
000003f0: 8f50 ecbc 359a ddbc 497a 1f3d 926d d3bc
-0.00811686 0.0042597908 0.0063744104 -2.9425155e-05 0.030832315 -0.012345499 0.021405349 -0.004917858
-0.0034252568 -0.037519407 -0.018336238 0.007845297 -0.04811144 -0.034958072 -0.044598248 0.025778104
0.009267855 0.0056969943 -0.013230381 -0.012931353 -0.017214084 0.023468455 -0.0049996227 0.017278189
-0.025272854 -0.006980889 -0.03915761 -0.020855434 -0.0021928805 0.017243084 0.0040465742 -0.044532325
-0.018832559 -0.043759648 0.030805932 -0.015822886 0.021378059 0.04105602 -0.0082057705 -0.0028865682
-0.04936968 0.022161594 0.018709917 0.01846306 -0.012134791 0.0403968 0.013164265 0.04214042
-0.014405646 0.017943649 0.0031039545 -0.0064545423 -0.008529988 -0.0055955336 -0.010596724 -0.004851484
-0.014029601 0.045837384 -0.020785091 0.008431651 0.008841839 0.053378 0.0042766747 -0.021792205
-0.025303058 -0.04835806 -0.02840967 -0.020907484 -0.0070781647 0.029040342 0.033654176 -0.009199478
-0.040592257 0.029926863 -0.023939375 -0.102005884 -0.013155752 -0.0042862804 0.015423813 -0.01948959
-0.011454831 -0.0057660555 0.00931599 -0.02802294 0.0011004923 -0.025120486 0.061271675 -0.052488025
-0.043047108 -0.038788177 0.037379753 0.008920836 -0.14704958 0.020213407 -0.014171976 0.025928466
0.003135771 -0.009152306 0.07236156 0.034705017 0.025673738 0.060654733 0.018179895 -0.028515851
0.007185555 0.0059987823 -0.0038875546 -0.03690191 0.006127061 0.027479287 0.014713358 4.957941e-06
-0.11132992 -0.0036820883 -0.048549466 0.022679701 -0.047483347 0.041008115 -0.0064618033 0.010604802
0.03194312 -0.20144787 -0.19405581 -0.071668655 0.03145788 -0.09271276 0.03044727 0.025501862
0.086890884 0.016380792 -0.050617415 -0.058434464 -0.11789757 -0.018225232 0.058267772 0.062477645
0.0498029 0.03347432 -0.053712446 -0.022571182 0.0171117 -0.104402445 -0.053000264 0.04033596
-0.08598846 -0.112623096 -0.06452838 0.008617694 -0.19788247 0.022746934 -0.011784711 -0.13445124
-0.021221055 -0.19828257 0.06296351 0.025209324 -0.03294555 -0.04594725 -0.07947964 0.14414045
0.025613174 -0.03734974 0.001338089 -0.13121359 0.009331374 -0.07440555 0.008685896 0.057994377
-0.11891766 0.05362738 0.055601683 0.078009814 -0.004660987 -0.021273838 -0.20248048 0.025709871
0.056253545 -0.020779261 0.036916196 -0.10540926 -0.019455414 -0.2913304 0.10060325 0.05475558
-0.18224384 0.01809573 -0.022466501 -0.0412877 0.011272464 -0.03598755 -0.044319984 0.03216512
0.058832776 0.0004101035 -0.044301078 -0.018296836 0.0055086967 -0.06409493 0.010384119 -0.021422729
-0.006115293 -0.18585472 -0.035533164 -0.038566984 -0.071549475 -0.06429624 0.03378155 0.034824584
0.05395759 0.009721991 -0.042537086 -0.038040288 -0.12229966 0.016367719 0.060171105 -0.039024044
-0.053973775 0.07562971 0.0800703 0.06744924 -0.025464471 0.003439581 -0.038359087 -0.08372628
0.02358236 -0.13022052 -0.007048284 0.06795783 -0.050932888 -0.0005955103 -0.04566779 0.013508943
0.015498469 -0.070111 -0.069088526 -0.03209636 -0.003228182 0.10861355 -0.0930547 -0.019896062
0.0074342843 -0.13826476 -0.07815205 -0.069304116 0.028416818 -0.10326464 0.08547897 -0.009153464
0.0122589925 -0.030791998 0.0017357295 0.02016969 -0.028847007 -0.02705107 0.03893498 -0.025809083

fc1.bias f4 [64]
00000000: ec7e 0ebd 7882 3cbd 6b4c 4dbd 2c98 97bc
00000010: 79c9 86bd 8c04 c9bc 9e49 5bbd d826 f3bc
00000020: 2bac 433c 628f a7bc ac36 9fbc 7fce 0abd
00000030: df40 06bd 733a a43b c5a7 b1bc 6d3a 6fbd
00000040: 5c18 9eba 1635 21ba 4bc5 72bd e551 aebc
00000050: 5c75 e7bc 7e20 9d3b fe1f 85bc a8be 4ebd
00000060: 0b40 613b eb15 a3bc 24ba 0cbd 30d5 cf3a
00000070: 91ca a1bd 2035 bebd b42c 65bc eb9d f2bc
00000080: 9178 49bc 7040 fcbb 51a3 b4bb 76e1 75bd
00000090: 72f3 01bd e3bd b7bb c95d 53bd 7abd b83b
000000a0: 2cdf dd38 37cb 54bd fcb0 ba3b 03a3 aabd
000000b0: f76b 88bd 5b36 3dbd a3d7 943c 1d66 93bc
000000c0: 7337 7fbd dd8d c8bc 33f2 9bbd 50c0 e3bc
000000d0: d869 5dbd fe02 3cbd c5fe 94bd aa10 64bd
000000e0: 1af4 82bd 07c4 92bd baa2 8ebd ea25 3dbd
000000f0: ad8f 57bd 363b 91bd daf3 38bd 4264 97bd
-0.03478901 -0.046022862 -0.050121706 -0.018505178 -0.065813966 -0.024538301 -0.053537004 -0.029681608
0.0119429035 -0.020454112 -0.01943525 -0.033888336 -0.03277671 0.0050118505 -0.021686444 -0.05840533
-0.0012061703 -0.0006149573 -0.059270184 -0.021279285 -0.028254203 0.004795133 -0.016250607 -0.050474793
0.0034370448 -0.019907912 -0.034357205 0.0015856382 -0.078999646 -0.092874765 -0.013987709 -0.029616317
-0.012296812 -0.0076981112 -0.005512633 -0.06002947 -0.03172631 -0.005607353 -0.051603112 0.0056378217
0.0001057967 -0.051951613 0.0056973677 -0.08331873 -0.06661218 -0.046194416 0.01816923 -0.017993027
-0.06230874 -0.024481708 -0.07614555 -0.027801663 -0.05405602 -0.04590129 -0.07275156 -0.055679955
-0.06394215 -0.071662955 -0.069646314 -0.046178736 -0.052627254 -0.07091372 -0.04515443 -0.073921695

fc2.weight f4 [32, 64]
00000000: 864b 4dbe c538 fd3d 9d0e b03d 24c5 83be
00000010: 8340 ed3d 5d9a 9bbe 0ab1 d63d 6a2f 2d3e
00000020: c549 6b3e 1324 2a3e d82d a73d 5117 bebe
00000030: 0a9c 41be dd14 d03d 7d22 75be 715b 743e
00000040: 1ade 4ebe 10b8 383e 49d1 79be 9ebe 493e
00000050: af99 8bbe f0e1 333e 9c80 8b3e 2a8a 183e
00000060: 8467 be3d db70 6a3e cbd0 65be 6edf 2dbe
00000070: 91a1 7abe ea51 91be e06b 32be f40e 24be
00000080: c201 303e 185c 713e 8cf9 71be 2c20 883e
00000090: 9efe 4cbe 7269 d93d 057c a6be 8a23 4d3e
000000a0: 74e7 8cbe 450b 9dbb fb31 2a3e ddae 45be
000000b0: 8d12 ff3d 887e 553e 0772 ae3d af4c 4ebe
000000c0: 247e 3abe 863e a03d 7a44 8fbe 505a b6be
000000d0: 398c 5c3e 5cab e93d 525e 97be 1960 7bbe
000000e0: 60ec c8bd 18d7 dabd fac1 b9be 895a 763e
000000f0: 9015 153e 39e7 99be 38df a43e 26bb 8ebe
00000100: e34b 3f3e c54f 63be 0d55 23be 6ab9 093e
00000110: 10d2 81be ef9c 0d3e dfe8 2cbe 7938 8abe
00000120: b16f 26be ae65 9abe b49b 36be 5a09 373e
00000130: 3074 233e d5bd 36be 843b 063e 8d0d 2bbe
00000140: b6bf 333e 7381 84be 6ebc 393e ea3b 57be
00000150: 9582 c73d a5ec 80be 2061 73be fd86 d8bd
00000160: 54f8 20be 644b 1cbe 8614 2a3e b8f0 2b3e
00000170: 836f 343e 35bc 163e 123f c33d 369f 5d3d
00000180: ad73 53be 9dc8 71be 9283 053e 8dd0 1ebe
00000190: 68ad f33d b8e0 4ebe f7f5 283e 63f2 5abe
000001a0: ae33 4d3d a1e4 033e c84d 58be c5fd 213e
000001b0: 8df9 2fbe db57 60be 3bcd 19be 5c8e 383e
000001c0: c5e8 263e 3420 8ebe 5350 053e b9aa 9b3c
000001d0: 1d93 76be e180 f8bd 6f6b 873d a1ab 8f3c
000001e0: 4f6e 683e e5a5 1c3e ec0e 4d3e c45d 75be
000001f0: 68bb 76be 8429 0b3e 8591 6dbe cb45 b73c
00000200: 204e fb3c ed84 48be 16e8 80be 6d3f 883b
00000210: 1455 9fbe c495 583e 2ce9 95be bad1 b1be
00000220: f0b1 9abe 0c95 abbe 9d8d a9be 9572 3d3e
00000230: a4a6 993d 1d65 8ebe 71a6 ea3d 999a 82be
00000240: eead ec3d 28e1 aebe f175 0a3d 8082 76be
00000250: af1f fb3d 4f2a 93be 98b9 b1be bf29 1ebe
00000260: 07c9 87be 74a3 6dbe 9f2f 4f3d f4c7 173d
00000270: 6046 4f3d c394 353c f290 293d 5528 fe3d
00000280: c4bf 00be bd98 d0be 4a06 c43d 085d 22be
00000290: 758a c63c 0c78 6fbe dcb7 db3d 396a a0be
000002a0: ca63 e93d 894b eb3d 76d3 8ebe c262 d33d
000002b0: c953 8dbe c542 8bbe 1960 90be c005 d13d
000002c0: 7f91 1f3e 0566 8ebe 657b 4d3d a01c 883d
000002d0: 609e 89be 6e3a 81be 38b3 6b3d 599b fb3d
000002e0: 9158 1e3e 2300 883d da02 cc3d 3afe 9bbe
000002f0: 4ce3 84be 25ce d73d 07a8 bebe 03fb c63d
00000300: b373 3e3e b14c 99be b70f 1dbe a23c 083e
00000310: a560 b2be 95e6 283e 34a7 82be 295c a7be
00000320: fc27 a2be 1276 78be d885 98be 5b35 a53d
00000330: 78c8 1f3e af74 6dbe 8d70 1c3e 666c 70be
00000340: 2ea2 3a3e 331e 6bbe 8402 f43d f0c6 8cbe
00000350: 7944 ef3d 8241 33be 0ae8 8bbe 4620 87be
00000360: 04a4 95be 6fd7 67be daa3 aa3d 0af4 2a3e
00000370: 814c fd3c 0b0e 513e 4e18 d93d 1900 293e
00000380: d514 87be fc56 aebe aceb d93d 5eed 42be
00000390: bc97 193e 7051 4bbe fef2 0c3e 8c76 87be
000003a0: 5dfb cc3d ca89 183e 8c31 d2be cf4d 1f3e
000003b0: 36f0 a7be 7445 8cbe 3f91 8bbe 2992 3c3d
000003c0: 9b52 6f3d 1c09 85be 1e1f 453e 7368 143e
000003d0: 4603 94be ab45 4dbe b415 253e 5f95 e93d
000003e0: 3c94 a43d a91e 543e 43a3 573e f595 30be
000003f0: 2fe9 82be a327 473c ecea aebe 09b0 1b3d
-0.20048341 0.123643436 0.08596537 -0.25736344 0.1158457 -0.30391207 0.10482986 0.16912618
0.2297736 0.16615324 0.08163041 -0.37127164 -0.1890718 0.10160229 -0.23938937 0.23863007
-0.20201913 0.18038964 -0.24396242 0.19701621 -0.2726569 0.17566657 0.2724656 0.14896455
0.09297088 0.22894613 -0.2244293 -0.16979763 -0.24475695 -0.28382808 -0.17423964 -0.16021329
0.1718817 0.23570287 -0.23630351 0.26587045 -0.20019004 0.10615815 -0.32516494 0.20033088
-0.27520335 -0.004792603 0.16620629 -0.19304986 0.1245471 0.20849049 0.08517843 -0.2014644
-0.18212181 0.078244254 -0.2798193 -0.35615778 0.21537866 0.11409637 -0.29564148 -0.24548377
-0.0981071 -0.10685557 -0.36280805 0.24057974 0.14559007 -0.3005922 0.32201552 -0.27877158
0.18681292 -0.22198398 -0.15950413 0.13449636 -0.25355577 0.13829397 -0.16885708 -0.2699621
-0.16253544 -0.301557 -0.17832834 0.17874661 0.15962291 -0.17845853 0.13108641 -0.16704388
0.175536 -0.25880012 0.18138286 -0.21018949 0.097417034 -0.25180545 -0.23767519 -0.10572622
-0.1571973 -0.15263134 0.16609392 0.16791046 0.17620663 0.14720233 0.09533514 0.054106914
-0.20649596 -0.23611684 0.13038471 -0.15509243 0.11898309 -0.20202911 0.16500078 -0.21381526
0.050098114 0.12880184 -0.21123421 0.15819462 -0.1718504 -0.21908514 -0.15019695 0.18023056
0.16299732 -0.27758944 0.13018923 0.019002305 -0.24079557 -0.12133957 0.06612288 0.017537894
0.2269833 0.15297659 0.20025223 -0.2396155 -0.24094927 0.13590056 -0.23200043 0.022372147
0.030676901 -0.19581957 -0.25177068 0.0041579516 -0.31119597 0.21150881 -0.2927946 -0.3473032
-0.3021388 -0.3351215 -0.33115855 0.18500741 0.07502487 -0.27811518 0.114575274 -0.25508574
0.11556612 -0.34156156 0.033803884 -0.2407322 0.122619025 -0.28743216 -0.3471191 -0.15445612
-0.2652056 -0.23206884 0.050582524 0.037055925 0.050604224 0.011082831 0.041397996 0.124100365
-0.12573153 -0.4074153 0.09571512 -0.15855801 0.024235943 -0.23385638 0.10728428 -0.3133104
0.113959864 0.114890166 -0.27895707 0.10321571 -0.27602986 -0.2719938 -0.28198317 0.10206175
0.15582846 -0.2781221 0.050166506 0.06646085 -0.26878643 -0.2523989 0.057543963 0.122854896
0.15463473 0.06640651 0.099614814 -0.30467397 -0.25954664 0.10537366 -0.3723757 0.097158454
0.18598823 -0.29941323 -0.15338026 0.1330438 -0.3483936 0.1649421 -0.2551819 -0.326875
-0.3167113 -0.2426379 -0.29789615 0.080668174 0.15603817 -0.23189043 0.1527731 -0.2347885
0.18225929 -0.22960739 0.11914542 -0.27495527 0.11682982 -0.17505458 -0.2732547 -0.2639181
-0.29226696 -0.22640775 0.083320335 0.16694656 0.030920269 0.20415513 0.10600339 0.16503944
-0.2638308 -0.3405074 0.10640654 -0.19035861 0.14999288 -0.19855285 0.13764569 -0.26457632
0.10008881 0.14896312 -0.41053426 0.15557025 -0.32800454 -0.2739674 -0.2725925 0.046037827
0.058428388 -0.25983512 0.19250152 0.14492969 -0.28908747 -0.20046107 0.1612156 0.114054434
0.08036086 0.20714821 0.21058373 -0.17244704 -0.2556853 0.012155446 -0.34163606 0.038009677

fc2.bias f4 [32]
00000000: 1919 a33d f180 873d fc95 b53d 4d58 ca3d
00000010: 5e71 ad3d ca33 ad3d ce7f c43d a7a2 953d
00000020: 4cc5 bb3d 5cc3 8f3d ce95 963d 6f7d 813d
00000030: ec09 953d 526e aa3d 4218 a53d 0d9c 873d
00000040: c8d7 bd3d 47af 973d e7df 873d 67d6 8a3d
00000050: fa93 983d 62dd c03d a276 8c3d 192d 9d3d
00000060: 0b21 6e3d 8e93 b63d 1ad8 c13d 07e7 8e3d
00000070: 183f 8d3d 918f 773d 53df 703d 61c4 a13d
0.079637714 0.066163905 0.08866498 0.09880123 0.08468889 0.084571436 0.09594689 0.07306414
0.09168491 0.07019684 0.07352792 0.06322753 0.07277283 0.08321823 0.080612674 0.06621561
0.09269673 0.074064784 0.06634503 0.06779175 0.07450099 0.094172254 0.06858565 0.07674617
0.05813698 0.089148626 0.09465046 0.06977659 0.068968 0.06043965 0.05880673 0.078987844

fc3.weight f4 [1, 32]
00000000: c0a0 05bf 04ef dd3e 4b03 0a3f 450b ce3e
00000010: a2f4 0c3f 3e82 003f 2bdb 0bbf 91a9 1fbf
00000020: ef94 1ebf a843 02bf 4147 e93e ab9e 12bf
00000030: fa9e fbbe 53af 043f e6dc 24bf bc81 fc3e
00000040: 1247 08bf 947d c33e 102c 003f 9824 f33e
00000050: b5f1 13bf 3e18 e13e 6d3f 07bf 2386 01bf
00000060: d9d6 03bf 227b 0e3f 75c2 ec3e 0204 da3e
00000070: d22b cc3e c38c f93e 825c f9be 6d83 25bf
-0.5219841 0.43346417 0.53911275 0.40242973 0.5506078 0.50198734 -0.546313 -0.6236811
-0.61946005 -0.50884485 0.45562175 -0.5727336 -0.49144727 0.51830024 -0.64399564 0.4931773
-0.53233445 0.38181746 0.50067234 0.47488856 -0.5779069 0.43963808 -0.52831155 -0.505953
-0.51499707 0.55656636 0.4624211 0.42581183 0.39877182 0.48740205 -0.4870339 -0.64653665
