model/cross_validation/hp_nested_cv/checkpoint/c002_c001_64_4_0.01_32_0.3.pt (torch, 110807 bytes, 5 tensors)

fc1.weight f4 [64, 420]
000000 fa 6f 90 c0 e7 4e e2 bf f2 80 22 3f 71 eb 82 bf
       -4.513669 -1.7680329 0.63478005 -1.0228101
000010 32 19 e5 bf 27 96 47 40 47 76 88 c0 a0 b4 71 c0
       -1.7898314 3.1185396 -4.264438 -3.7766495
000020 50 92 b5 bf 98 ff 05 c0 bc 04 ef be 00 54 b1 bf
       -1.4185276 -2.0937252 -0.466833 -1.385376
000030 6b 37 b6 bf 88 63 05 c0 ca d0 1f c0 21 4b f6 bf
       -1.4235662 -2.0842 -2.4971185 -1.9241678
000040 e2 76 9f c0 f0 f3 79 c0 eb 33 b0 bf 58 f1 44 c0
       -4.983262 -3.9055138 -1.3765844 -3.0772305
000050 4f b2 16 c0 b6 d8 da bf bd 39 0a 3f a8 4c 68 c0
       -2.354633 -1.7097385 0.5399435 -3.6296787
000060 5c 2d cf c0 09 9a a2 3f ff 3a 15 c0 15 58 16 c0
       -6.474287 1.2703258 -2.3317258 -2.349126
000070 cc a8 03 c0 6f 05 56 c0 12 9a 8b c0 7d 4a 72 c0
       -2.0571775 -3.3440816 -4.3625574 -3.7857964
000080 66 29 05 c0 34 64 da bf 15 68 f8 3f 96 d7 38 40
       -2.0806518 -1.706183 1.9406763 2.8881583
000090 f9 e4 80 c0 29 3b ee 3f 6e 43 32 3e fe aa f3 c0
       -4.027951 1.8611804 0.17408535 -7.614623
0000a0 8b 5f 91 bf 52 66 3b 3e fe 23 e3 c0 96 1f 60 c0
       -1.1357282 0.18300751 -7.0981436 -3.5019279
0000b0 55 0a 63 c0 43 12 83 c0 84 f5 8e c0 ca 28 ff c0
       -3.5475056 -4.095979 -4.46747 -7.973729
0000c0 38 6b e1 bf 57 f3 00 c0 0c 20 3d c0 5e 66 ce bf
       -1.7610846 -2.0148523 -2.955081 -1.612499
0000d0 ec 8c cd 40 b1 04 a9 3c d6 1f 22 c0 7f 98 7c c0
       6.4234524 0.02063212 -2.533193 -3.9468076
0000e0 04 7b 01 c0 45 9c e7 bf 8d 80 cd c0 df 49 31 40
       -2.0231333 -1.8094565 -6.421942 2.7701337
0000f0 69 86 b1 be 16 0a a8 c0 fe b5 78 40 88 d4 27 c0
       -0.3467286 -5.251231 3.886108 -2.6223469
000100 24 0c 2b bf fb ba 21 c0 c6 b9 b2 3f 20 15 0d c0
       -0.668154 -2.5270374 1.3962944 -2.2044144
000110 4a 1a 59 bf 3a 20 fb c0 d1 e3 ff bf 9e bf c4 c0
       -0.8480574 -7.847684 -1.9991399 -6.148391
000120 0e 1b ac 40 4d 53 8b c0 24 fb e1 c0 ee 46 f9 3f
       5.3783026 -4.3539186 -7.061907 1.9474771
000130 82 11 0d c1 4b b2 4f c0 c7 38 aa c0 33 f1 65 c0
       -8.816774 -3.2452571 -5.319431 -3.5928466
000140 c4 d2 12 c0 75 a2 71 c0 7b 34 e6 bc 27 1d 13 c0
       -2.294114 -3.7755406 -0.028101197 -2.2986543
000150 34 4a 20 3e c3 55 93 3e b0 12 e1 bf 80 d3 63 c0
       0.15653306 0.28776368 -1.7583828 -3.559784
000160 d4 03 96 bf 46 c4 c6 c0 d1 1d 31 c0 81 23 11 c0
       -1.1719918 -6.211459 -2.7674448 -2.267792
000170 79 e1 8b 3f dd b6 c5 c0 36 1f 10 c0 34 92 8c bf
       1.0928184 -6.178572 -2.251905 -1.0982118
000180 99 92 17 c0 91 73 e3 bf 78 04 8a c0 88 4b 29 be
       -2.3683226 -1.7769643 -4.3130455 -0.16532719
000190 18 d0 b4 c0 40 99 af c0 2e 4a 5d 3f f7 20 09 c1
       -5.650402 -5.4874573 0.86441314 -8.570548
0001a0 68 c0 99 c0 4b 65 0e c0 ca 7a a4 c0 6d 1c e8 c0
       -4.804737 -2.2249324 -5.139989 -7.25347
0001b0 0f 2d 0d c0 96 28 88 3e 46 63 9a c0 96 98 25 c0
       -2.2058752 0.26593465 -4.8246183 -2.587438
0001c0 8f a5 01 41 fa 25 19 3f f2 95 06 bf 46 59 b2 c0
       8.10292 0.5982357 -0.5257255 -5.5733976
0001d0 99 1b 99 c0 9c c0 3b c0 ae 59 d1 3f d6 36 d9 c0
       -4.784619 -2.933631 1.6355493 -6.787944
0001e0 93 e0 ef c0 01 ca ad 41 03 12 88 40 d7 9e 1c 41
       -7.496164 21.723635 4.2521987 9.788779
0001f0 b8 28 32 c1 c3 54 7f c0 33 76 e3 c0 cd 03 a1 c0
       -11.134941 -3.9895484 -7.1081786 -5.031714
000200 e0 29 43 c0 1b 7a 35 c1 ce 40 0f c1 eb dd ac 40
       -3.0494308 -11.342311 -8.953321 5.4020896
000210 4f 48 e2 41 b8 f4 36 3f c3 8e fa c0 c4 46 21 c0
       28.285307 0.7146716 -7.829927 -2.5199442
000220 9f a3 ea 3e a6 6b d1 c0 f6 94 84 bf 36 71 31 c1
       0.45827958 -6.5443907 -1.0357959 -11.090139
000230 41 20 ff bf 6c eb 88 41 50 f5 ad 41 a1 59 15 40
       -1.9931718 17.114952 21.744781 2.3335955
000240 26 77 19 c1 bd d5 0e 41 4c e6 c7 c0 47 8e 0e c1
       -9.591589 8.927182 -6.2468624 -8.909736
000250 3f 46 69 41 21 5a 23 c1 de d0 7c bf 8a 22 91 41
       14.57965 -10.209504 -0.98756206 18.141865
000260 68 9e 3f 41 18 7c c3 c0 dd 92 bb 40 55 89 92 c0
       11.976173 -6.108898 5.8616776 -4.579264
000270 20 9e d5 c0 45 f9 79 c1 3e a7 98 c0 cb 80 89 c1
       -6.6755524 -15.623357 -4.7704153 -17.187887
000280 bc 29 9a c0 7e d9 c1 40 51 07 b8 40 5d bd 99 40
       -4.8175945 6.0577993 5.750893 4.8043656
000290 d2 2d 4f c1 cc 54 60 40 fd 80 b8 bf 32 4b 7c c0
       -12.948687 3.5051756 -1.4414364 -3.9420896
0002a0 74 48 57 c0 eb d0 ba c0 ab 82 ea bf 0c 65 c4 bf
       -3.3637972 -5.8380027 -1.8321127 -1.5343337
0002b0 58 cb 2c 41 e2 7c 02 c0 6d fd 65 c1 03 9c 79 40
       10.799644 -2.0388722 -14.374372 3.9001472
0002c0 9b 49 ff bf 7a 40 14 c0 12 38 c5 c0 20 8a 79 c1
       -1.9944338 -2.3164353 -6.1630945 -15.596222
0002d0 f8 32 bb be b4 f6 83 41 d4 b1 e4 bd 22 f9 12 c0
       -0.36562324 16.49546 -0.111667305 -2.2964559
0002e0 6d cb f9 be 11 3e ae c0 19 b9 59 be 9a 88 ff bf
       -0.48788014 -5.4450765 -0.21262015 -1.9963562
0002f0 e2 0b 91 c0 90 89 a4 bd 5f f1 14 40 37 06 51 bf
       -4.5327005 -0.080340505 2.3272321 -0.8165011
000300 57 eb c9 c0 53 b5 e6 bd 8d 23 24 bf ee 5a 89 c0
       -6.309978 -0.112650536 -0.64116746 -4.29235
000310 6b b5 a3 c0 18 c4 23 40 db d4 97 c0 f7 18 70 40
       -5.1158957 2.5588436 -4.7447333 3.7515237
000320 5f 23 9b bd 22 54 b6 41 e4 bb 13 bf 9f 8e 60 40
       -0.07575106 22.79108 -0.57708573 3.508705
000330 4c c3 c6 c0 2e 47 1b bf 08 a2 67 c0 7b 20 a0 c0
       -6.21134 -0.60655487 -3.6192646 -5.003965
000340 b3 a3 8a c0 82 8f 3c 3f e0 7c 05 40 60 28 b4 c0
       -4.332483 0.73656476 2.0857468 -5.6299286
000350 92 fd 42 c1 db 4b 2e 40 7c cb d6 c0 e7 c4 51 bf
       -12.186907 2.7233799 -6.7123394 -0.81941074
000360 65 f9 d2 bf ed e4 9e c0 b7 5c b9 bf 1f 74 7d c0
       -1.6482359 -4.965445 -1.4481419 -3.9602125
000370 96 6c ac bf 8d 6c 33 41 37 ec 3f be 36 21 fc 40
       -1.3470638 11.214002 -0.18742453 7.879054
000380 14 cf 9e bf b2 42 cf bf bc 95 ae c0 48 81 29 c1
       -1.2406945 -1.6192229 -5.455778 -10.594063
000390 f6 84 d7 c0 51 cf 58 40 70 0c 43 bf 2c d3 3e c0
       -6.7349806 3.3876536 -0.76190853 -2.981639
0003a0 0c de a3 bf 9f c8 58 c0 d6 b4 39 c1 e1 59 a3 bf
       -1.2802138 -3.387245 -11.606649 -1.2761804
0003b0 6e c2 10 c0 f9 da 6f c0 cf 98 30 40 8a 5a ca 3f
       -2.261867 -3.74774 2.7593267 1.580888
0003c0 40 34 07 be ea 80 03 41 bf f2 5c 40 55 96 2e 40
       -0.13203526 8.218973 3.452316 2.7279255
0003d0 b6 8a 9f bf 94 0f 97 be b5 ae 04 c0 37 38 87 bf
       -1.2464206 -0.29504073 -2.0731633 -1.056403
0003e0 c0 56 fc c0 12 4c 0c c0 c3 02 b0 c0 8f 0b 8b c0
       -7.8855896 -2.192143 -5.500337 -4.345161
0003f0 dc 99 01 c0 22 3b 05 40 dd f8 cf c0 94 f5 88 3f
       -2.0250158 2.0817342 -6.499129 1.0699944

fc1.bias f4 [64]
000000 3f 1e 5d 41 28 65 51 41 ff c6 5f 41 fe 59 c4 c1
       13.819884 13.087196 13.986083 -24.543941
000010 0c 21 fc c1 a1 1c 27 be 48 66 2d 41 92 4a 87 41
       -31.516136 -0.16319515 10.837471 16.911411
000020 84 19 39 41 ee 40 7c 40 4a 4e ee c0 4d 2a e8 c1
       11.568729 3.941463 -7.447057 -29.020655
000030 2b 64 12 c2 72 f0 43 41 4c d5 f5 c0 44 c9 bb 40
       -36.59782 12.246202 -7.682287 5.8683186
000040 f6 14 30 c2 f2 0a 5b 41 77 19 33 c2 75 6e 96 be
       -44.02047 13.690172 -44.774868 -0.29381147
000050 a9 3d 1e c2 c0 83 1c 41 83 5c 37 40 f4 b6 3c 41
       -39.560215 9.782166 2.8650215 11.794666
000060 bb 82 4a 41 44 26 04 c2 88 ec 42 41 4a 11 0f c2
       12.656917 -33.03737 12.182747 -35.766884
000070 60 15 d7 40 c6 42 11 40 b1 38 68 41 bd bd 65 41
       6.7213593 2.2697005 14.513841 14.358823
000080 45 19 30 41 bd 90 38 c2 9f e0 3c c2 6d 64 04 c2
       11.006169 -46.141346 -47.219357 -33.098072
000090 82 b1 72 41 ff 6a 21 41 38 9b 0d c2 55 06 e1 40
       15.168337 10.088622 -35.40158 7.032023
0000a0 51 c1 20 c1 1e df 5d 41 cd 22 2e 41 bf 78 70 41
       -10.047196 13.866972 10.883496 15.029479
0000b0 ec 3b df bf 9c f2 85 41 f9 fa 12 40 18 8b 07 c2
       -1.7440162 16.743462 2.2965682 -33.885834
0000c0 3b 47 6b 41 f7 6a 0e c2 29 50 56 41 ee 47 eb c1
       14.70489 -35.604458 13.39457 -29.410122
0000d0 73 7d 61 41 ca 0b 5f 41 b1 ea 7a bf 61 e0 19 c2
       14.093127 13.940378 -0.9801436 -38.46912
0000e0 1f 93 91 c0 d0 56 6d 41 76 48 12 c2 5e 1e f9 40
       -4.549209 14.833694 -36.570763 7.784957
0000f0 9f a1 fe c1 5c 60 fe c1 9b 0e fb c1 33 58 6f 41
       -31.828917 -31.79705 -31.382132 14.959033

fc2.weight f4 [4, 64]
000000 22 5f 45 3e bd b6 d4 3e ed 77 52 3e 4a 7f 5a bf
       0.19274572 0.41545668 0.2055356 -0.8535048
000010 c1 8c 3a bf 36 f4 17 be ea 97 e7 3d bb fa f9 3e
       -0.72871023 -0.14839253 0.11308272 0.48824105
000020 00 b5 56 3d 1e 10 72 3e 3f 26 9c 3e 6a ca ba be
       0.05241871 0.2363896 0.3049793 -0.36482555
000030 2e 66 83 bf de 1c 08 bc 5e f5 50 3e 16 46 a9 3e
       -1.0265558 -0.008307664 0.204061 0.33061284
000040 6c ef 5b be 12 d3 1c 3e 1a 8c 8e bf cb 1a 9a 3e
       -0.21478051 0.15314892 -1.1136506 0.30098566
000050 eb 43 9a bf e9 59 0c 3f c3 9b 8a 3e bf 31 d9 3e
       -1.2051977 0.5482469 0.27071962 0.42420766
000060 ea 7c 6b 3e 1f ee f2 be 56 ac 79 3e 53 bb 27 bf
       0.2299687 -0.47447297 0.24382147 -0.6552021
000070 11 2f 3e 3e f0 e2 9a 3e 4a 0b 49 3e 92 b5 b0 3d
       0.18572642 0.30251265 0.19633213 0.08628382
000080 07 5f 41 3e 1e 46 84 bf 14 6c 11 bf 8b 53 30 bf
       0.18883906 -1.0333898 -0.5680554 -0.68877476
000090 c9 3a 7d 3e be 4c db 3e dd a9 88 bf 60 18 a9 3e
       0.24729456 0.42831987 -1.0676838 0.3302641
0000a0 d2 7b d8 3e b6 23 56 3e 74 9b 9e 3e e4 9a 61 3e
       0.42281967 0.2091206 0.30977976 0.22031742
0000b0 20 b8 c2 3e e6 13 4d 3e e3 c3 e6 3e ba b2 c6 be
       0.380311 0.20027122 0.45071325 -0.38808233
0000c0 cd 7f 2a 3e b3 69 a5 be 96 be 8c 3e dc cd 4c bf
       0.16650315 -0.32307205 0.27489156 -0.80001616
0000d0 95 2b 87 3e 89 5a d6 3e 0b 63 e8 bf ee d6 58 bf
       0.26400438 0.41865948 -1.8155226 -0.84702957
0000e0 d5 7b 86 3e 22 53 8e 3e 06 cb 9e bf e0 b6 08 3f
       0.2626635 0.277978 -1.2405708 0.53404045
0000f0 e4 6f 08 bf b4 f9 66 be a5 9e df be 32 a0 90 3c
       -0.5329573 -0.22556192 -0.43675724 0.017654512
000100 81 77 85 bf 37 62 18 bf 72 17 77 bf af 78 5f 3d
       -1.0427095 -0.59524864 -0.9652015 0.054558452
000110 cf 03 3d 3e e6 32 96 3e cb e7 e7 be 00 ce 4f bf
       0.18458484 0.29335707 -0.45294032 -0.81173706
000120 27 2d 6d bf 9e 8e a1 bf f0 06 22 bf 83 85 66 3e
       -0.9264702 -1.2621648 -0.63291836 0.22511868
000130 9d e2 a6 3e 7a 3b d0 bf 43 68 de be 5d 98 0b bf
       0.32594767 -1.6268151 -0.4343892 -0.5452936
000140 14 28 40 3e 17 fe 5a be fd ea 41 3e 0a 75 35 bf
       0.18765289 -0.2138599 0.18937297 -0.7088171
000150 c7 c4 a3 3d 43 d4 2f c0 5b e8 96 bf 8b 3e 2b c0
       0.07996517 -2.7473304 -1.1789659 -2.6756923
000160 26 6f 07 bf b6 78 33 3e 8d 3f 3c bf 2a 9b 26 3d
       -0.52903974 0.17526516 -0.7353447 0.04067532
000170 69 55 ea bf 4e 88 cd bf d9 9c 7a bf 4c 39 e1 be
       -1.8307315 -1.6057222 -0.9789558 -0.43989027
000180 f4 8d 68 bf 17 95 b4 3e b3 c8 9a 3e e6 71 bf 3e
       -0.90841603 0.35269997 0.30231246 0.37391585
000190 66 41 ff 3c 25 4e 2e bf 88 93 04 3e d0 70 4f bf
       0.031159114 -0.6808799 0.12946904 -0.81031513
0001a0 d2 c7 56 bf 36 95 35 bf 15 64 aa bf 1b cd 18 bf
       -0.8389865 -0.709308 -1.3311793 -0.59687966
0001b0 02 0a 6a bf 28 ab a8 be 3c e7 90 bf 07 f7 2f 3e
       -0.9142152 -0.32943082 -1.1320567 0.17184077
0001c0 d9 13 61 bf 60 9d 06 3f db 37 b5 bf 27 ca ed 3e
       -0.8792091 0.52583885 -1.4157671 0.46443292
0001d0 1f 9f ee be 34 73 d4 be ba e3 81 bf ec 10 62 3e
       -0.46605775 -0.41494143 -1.0147622 0.22076768
0001e0 18 34 59 bf b2 66 0e bf 08 b3 94 3e 15 31 ab bf
       -0.84845114 -0.5562545 0.2904284 -1.3374354
0001f0 84 0f 69 3e 1d a5 63 3e 61 a3 27 3e a9 7e 9a bf
       0.22759825 0.22230954 0.16370918 -1.2069904
000200 82 fa 16 bf f0 99 5a bf 00 4c 83 bf be 83 13 3e
       -0.58975995 -0.8539114 -1.0257568 0.14405724
000210 f8 18 6e 3e 1e dc 94 3e cd 79 0e bf f7 15 bb bf
       0.23251712 0.29074186 -0.55654603 -1.4616078
000220 17 2e 3b bf ee ec 9b bf 7d 7a d7 bf c1 4e 11 3e
       -0.731172 -1.218168 -1.6834255 0.14190198
000230 83 3e de 3e 70 51 d4 be c0 03 4f bf 16 60 58 c0
       0.43407068 -0.41468382 -0.808651 -3.3808646
000240 bb 30 06 3e ba ba c0 be b1 04 af 3e 6d 01 dc bf
       0.13104527 -0.3764246 0.34183267 -1.7187935
000250 6e c6 1c 3c c6 b5 8b bf ec 63 19 c0 69 88 50 bf
       0.009568794 -1.0914848 -2.3967237 -0.81458145
000260 b3 31 64 bf 64 1e 85 3d a5 2c 0c c0 8d 10 ce 3e
       -0.89138335 0.06499937 -2.190225 0.40247002
000270 d1 3e ad be 61 b2 82 bf c0 aa 6a bf 22 88 55 bf
       -0.33836988 -1.0210687 -0.91666794 -0.8341085
000280 57 3f 64 bf a6 70 31 3e 4f 20 0d bd d7 fd 3a 3e
       -0.8915915 0.17328128 -0.03445464 0.18260895
000290 27 43 a9 bf 27 e9 6b bf e3 aa 38 3e 18 af 95 bf
       -1.3223618 -0.9215264 0.18033938 -1.1694059
0002a0 c9 d8 b0 bf 56 66 fc bf 24 e9 74 bf 95 b1 a5 bf
       -1.3816158 -1.971873 -0.95668244 -1.2944819
0002b0 f0 66 75 bf 76 d2 8f bf 87 75 bd bf 4a df 8e 3e
       -0.95860195 -1.1236103 -1.4801491 0.2790473
0002c0 e1 e6 0b bf 10 45 40 3e 95 75 5a bf 55 a5 6e 3e
       -0.5464917 0.18776345 -0.85335666 0.23305257
0002d0 88 65 58 bf bc 27 5b bf 0c a6 85 bf 4b 3b c9 3d
       -0.84529924 -0.85607505 -1.0441298 0.09825762
0002e0 8e 4c 1e c0 35 68 cb bf da 80 b7 3e 89 84 f0 be
       -2.4734225 -1.5891176 0.35840493 -0.46976116
0002f0 a6 5e ad 3e f7 d1 fa 3d 34 26 b6 bd cb c1 a3 bf
       0.33861274 0.12247079 -0.088940054 -1.2793516
000300 3e dc a8 bf fb 02 94 bf bc c4 dc bf d0 16 04 3e
       -1.3192213 -1.156341 -1.7247539 0.12899327
000310 3a 1c 2c 3e 2e d9 f9 bc f5 d3 1a bf 9f 42 f2 bf
       0.16807643 -0.030499067 -0.6047967 -1.8926581
000320 05 31 50 bf 76 06 e9 be a6 f6 cf bf c6 4e 4b 3e
       -0.813248 -0.45512742 -1.6247146 0.19854268
000330 21 de 8c 3e 27 97 89 be eb 5b 0a bf d2 8e df be
       0.2751322 -0.26873133 -0.54046506 -0.4366365
000340 28 ba 51 3e 57 bc cd be 0b a1 44 3e 8b 79 9c be
       0.20481169 -0.40182754 0.19202058 -0.3056148
000350 9a 3d eb 3d 22 86 bf bf 7b a6 1e bf 86 49 34 bf
       0.11486359 -1.4962809 -0.6197278 -0.7042469
000360 e3 c9 f0 be 01 1f 47 3e 5e 9a 82 bf 2b 28 2c 3e
       -0.47029027 0.19445421 -1.0203359 0.16812198
000370 60 52 19 bf 13 dc 3b be 6e 6d 05 c0 ad fc 3a bf
       -0.5989132 -0.1834567 -2.084804 -0.730418
000380 dd d0 f2 be bf 3a 1b 3e ca 98 cb 3e 95 8c 8c 3e
       -0.47424975 0.15159129 0.39765006 0.27451006
000390 ce 4f 78 bf 0d 1a 05 c0 8f 52 a8 3d 78 5b 48 bf
       -0.9699677 -2.079715 0.08218872 -0.7826457
0003a0 93 08 d5 be fc d5 b2 bf d5 67 5a bf 16 8e a4 be
       -0.41608104 -1.3971553 -0.85314685 -0.32139653
0003b0 81 09 03 c0 57 3c fb bf 01 34 76 bf d0 ee 9a 3e
       -2.047455 -1.9627789 -0.961731 0.30260324
0003c0 22 81 49 bf bd 53 b7 3e 34 e4 84 bf cb 54 a2 3e
       -0.78712666 0.35806075 -1.0382142 0.31705317
0003d0 6b ac 94 bf e7 5b e9 bf 51 30 c0 bf b6 04 83 3e
       -1.1615118 -1.8231171 -1.5014745 0.25589532
0003e0 a0 d6 99 bf 05 77 29 bf 0c d3 ce 3d bc 47 c4 bf
       -1.2018623 -0.66197234 0.10098848 -1.5334392
0003f0 e0 0f c4 3d de 06 8a 3e f5 38 c2 3d d8 f8 7a bf
       0.095733404 0.26958364 0.0948352 -0.98035955

fc2.bias f4 [4]
000000 11 d5 93 bc 71 8a 13 40 f0 52 1b 40 11 45 28 40
       -0.018045934 2.3053248 2.426937 2.6292155

fc3.weight f4 [1, 4]
000000 1e 53 e0 bc b5 c4 b9 3d 2c 10 e1 3d 76 0d e0 3d
       -0.027383383 0.09070722 0.10989413 0.109400675
