model/cross_validation/hp_nested_cv/checkpoint/c002_c003_64_16_0.001_32_0.3.pt (torch, 113879 bytes, 5 tensors)

fc1.weight f4 [64, 420]
0	0xbe0ea356	-0.13929495
1	0x3e444295	0.19166024
2	0x3e18c46b	0.14918678
3	0x3d823a16	0.06358735
4	0x3ce91afa	0.028455246
5	0xbe2ec563	-0.17067485
6	0xbe8c4542	-0.2739659
7	0x3e386379	0.18006696
8	0x3d40e77b	0.047095757
9	0xbe3e8426	-0.18605098
10	0xbdaa491a	-0.08314724
11	0xbdaa0803	-0.08302309
12	0xbe03a39a	-0.12855378
13	0xbe8cdc53	-0.27511844
14	0x3dc9e8fc	0.09858891
15	0x3e4b0a58	0.19828165
16	0xbdfd7e5c	-0.12377617
17	0xbcbe52af	-0.023232786
18	0x3dab7e05	0.08373646
19	0xbdb4d8bf	-0.088304035
20	0xbe1445e0	-0.1447978
21	0x3d17d418	0.037067503
22	0xbdce41cb	-0.10071143
23	0xbdb6ab5d	-0.08919404
24	0xbe43e92d	-0.19131918
25	0xbdd3162f	-0.103069656
26	0xbe82680a	-0.2547
27	0x3c15d21d	0.009144333
28	0x3e682ad6	0.2267259
29	0x3e1af1ae	0.15131256
30	0x3da6a7a0	0.08137441
31	0x3e2077c6	0.1567069
32	0x3d4ee97a	0.05051563
33	0x3e0f951b	0.14021723
34	0xbea7b010	-0.32751513
35	0xbe2231ec	-0.15839356
36	0xbdef8835	-0.11695901
37	0xbd348aec	-0.0440778
38	0xbd69f476	-0.0571179
39	0x3d0b70f9	0.034043286
40	0x3d12918e	0.035783343
41	0x3da8b167	0.08236962
42	0x3c2813c2	0.010258617
43	0xbd4ba3c1	-0.049716715
44	0xbd65bfd5	-0.05609115
45	0x3e0fb653	0.14034395
46	0xbeb88359	-0.3603771
47	0x3d501367	0.050799754
48	0xbc850d56	-0.01624171
49	0xbdd98a89	-0.106221266
50	0x3d01a5ad	0.03165214
51	0x3c955198	0.018227383
52	0x3d99926d	0.074986316
53	0x3a79a359	0.0009522937
54	0xbd15a558	-0.036534637
55	0xbd16c9f6	-0.0368137
56	0xbe1d10dc	-0.15338463
57	0xbceac663	-0.028659051
58	0x3ecc19d3	0.39863452
59	0xbecc3787	-0.39886114
60	0xbe6d34b0	-0.2316463
61	0xbd816066	-0.06317215
62	0xbe51f908	-0.20505154
63	0xbe3036ac	-0.17208356
64	0xbe06f191	-0.13178088
65	0x3d35e161	0.04440439
66	0x3d5d53e1	0.05403507
67	0x3dea2ebe	0.114346966
68	0xbd88ff18	-0.0668928
69	0xbd8de4d4	-0.06928411
70	0x3d1c9395	0.038226683
71	0xbd1adb19	-0.037806604
72	0xbd198e1f	-0.037489053
73	0x3cb02b7e	0.021505114
74	0x3d061329	0.032733116
75	0xbd3e3fcc	-0.04644756
76	0xbcbfa067	-0.023391915
77	0x3e377cf7	0.17918764
78	0xbe8d354b	-0.27579722
79	0x3dbdb97d	0.09263895
80	0x3cb05ce1	0.021528663
81	0xbd92ac79	-0.07161803
82	0x3b3a4813	0.0028424307
83	0x3b73424f	0.003711838
84	0xbd202c79	-0.039104912
85	0xbca08d69	-0.01959868
86	0xbe101ed2	-0.14074257
87	0x3edfd0b4	0.43713915
88	0xbe4f5fea	-0.20251432
89	0x3e55a040	0.20861912
90	0xbe3fc1ba	-0.18726245
91	0xbe345592	-0.17610767
92	0x3ec7d5d7	0.39030334
93	0xbe6ebbf7	-0.2331389
94	0xbe46f6e1	-0.19430114
95	0xbdb6b508	-0.08921248
96	0x3cdd34e9	0.027002769
97	0xbe025f8c	-0.1273176
98	0xbe8938c9	-0.26801136
99	0x3c698f5e	0.014255373
100	0xbe88ea17	-0.26741096
101	0xbe97bd25	-0.29636493
102	0x3dba9038	0.09109539
103	0x3d2ddde9	0.04244796
104	0x3d8c591f	0.06852936
105	0xbe1d7925	-0.15378244
106	0x3e2c98dc	0.16855186
107	0x3e9af264	0.30263054
108	0xbdb89e53	-0.09014573
109	0xbe260430	-0.16212535
110	0x3da09d0a	0.07842453
111	0xbebed1f0	-0.37269545
112	0x3f2747df	0.6534404
113	0xbe74fd14	-0.23924667
114	0xbe24928d	-0.1607153
115	0xbe348e1c	-0.17632335
116	0xbda741f0	-0.081668735
117	0x3e4638bf	0.19357584
118	0xbe2428c7	-0.1603118
119	0xbeb8a384	-0.36062253
120	0xbd23082b	-0.03980271
121	0x3fd50d32	1.6644652
122	0xbd96cf9a	-0.073638156
123	0xbe673447	-0.22578536
124	0xbe0aaf68	-0.13543475
125	0x3e862e98	0.26207423
126	0xbeda2d7f	-0.42612836
127	0x3dade95b	0.08491775
128	0xbf5d642c	-0.86480975
129	0x3e943584	0.2894708
130	0xbea584eb	-0.3232797
131	0x3e539735	0.2066315
132	0x3f9b4e29	1.2133228
133	0x3e9cd0b6	0.30627984
134	0xbf48c4ba	-0.7842518
135	0xbd99979a	-0.07499619
136	0xbe3840d1	-0.17993475
137	0x3e4f1404	0.20222479
138	0x3f8deb62	1.1087458
139	0xbe3eecef	-0.1864507
140	0x3c23fa95	0.010008474
141	0x3f99e7ae	1.2023828
142	0x3e64ab4a	0.22330967
143	0xbf0abfda	-0.5419899
144	0xbeda8adf	-0.42684075
145	0x3e47bbc9	0.19505228
146	0xbf7abd4a	-0.9794508
147	0x3da780b3	0.08178844
148	0x3d0513d2	0.032489605
149	0xbd99a941	-0.07502986
150	0x3f13c7dd	0.5772684
151	0x3f5ff268	0.8747926
152	0xbecd6915	-0.40119234
153	0x3d67bf39	0.05657885
154	0xbfc7e54c	-1.5616851
155	0x3ece2a5c	0.40266693
156	0x3ebfe660	0.3748045
157	0x3eedc933	0.46442565
158	0x3eb2e339	0.34938982
159	0xbeb1159c	-0.345868
160	0xbd66ffbf	-0.056396242
161	0x3f22671c	0.6343858
162	0xbf1a3e29	-0.602511
163	0x3f5d9873	0.86560744
164	0x3ed08a8e	0.4073071
165	0x3e0a0f10	0.13482308
166	0xbf51de34	-0.8197968
167	0xbe8879e2	-0.2665549
168	0xbf78d421	-0.97198683
169	0x3e7cf90a	0.24704376
170	0x3f0aafa5	0.5417426
171	0xbd9380bf	-0.07202291
172	0xbf440257	-0.7656607
173	0x3e1ff965	0.1562248
174	0xbfc0ec3e	-1.5072095
175	0x3ba9fd3a	0.0051876577
176	0x3de68511	0.11255849
177	0x3d92766b	0.07151493
178	0x3f13aca5	0.5768531
179	0x3e6314ac	0.22175854
180	0x3e7b724b	0.24555318
181	0x3f98640f	1.1905535
182	0xbe6048f0	-0.21902823
183	0xbe24fa34	-0.1611107
184	0x3eb7331b	0.35781178
185	0xbee76d67	-0.45200655
186	0xbf373c9e	-0.7157687
187	0x3e435a2e	0.1907737
188	0xbf4b7267	-0.7947144
189	0x3eb37998	0.35053706
190	0x3f21251e	0.6294726
191	0x3d6aa020	0.057281613
192	0xbf1e522d	-0.6184414
193	0x3e2a5530	0.16634059
194	0xbf6b3b23	-0.9188711
195	0xbd73bbd8	-0.059505314
196	0x3ea4f8fd	0.32221213
197	0x3e28c0af	0.16479753
198	0x3ec11950	0.37714624
199	0x3f184b33	0.59489745
200	0x3e5d34ed	0.21602221
201	0x3f946b6b	1.1595281
202	0x3e70a7c1	0.23501493
203	0x3d0d66a8	0.03452173
204	0x3e26968f	0.16268371
205	0xbf316ce6	-0.6930679
206	0xbf734000	-0.9501953
207	0x3d3cbf92	0.046081133
208	0xbf77a4f5	-0.9673608
209	0x3ee77b95	0.45211473
210	0x3f8101d2	1.007868
211	0x3c1282f1	0.008942352
212	0xbf4562a7	-0.77103657
213	0xbd8adb7f	-0.06780147
214	0xbfdb7447	-1.714486
215	0x3e449869	0.19198765
216	0xbd49c909	-0.049263988
217	0x3de731af	0.11288773
218	0x3f1a0f19	0.6017929
219	0x3e32465b	0.17409651
220	0xbdaabc7e	-0.08336733
221	0x3f411d52	0.75435364
222	0x3df9d36f	0.12198531
223	0x3ec46685	0.38359466
224	0x3e49b32b	0.19697253
225	0x3e4b7ff8	0.19873035
226	0xbf448b5b	-0.7677514
227	0xbee486f0	-0.446342
228	0xbf46ebfd	-0.7770384
229	0x3e291cb9	0.16514863
230	0x3f0e86cb	0.5567443
231	0x3dfb42eb	0.12268623
232	0xbf7aa540	-0.979084
233	0x3b617e10	0.0034407414
234	0xbf922f28	-1.1420641
235	0x3ee0c02d	0.43896618
236	0x3e74c383	0.23902707
237	0xbdbf2936	-0.09334032
238	0x3ec22719	0.37920454
239	0xbe2a8f27	-0.16656171
240	0x3eeaeca1	0.4588366
241	0x3f9a87e2	1.2072718
242	0x3ea3abb6	0.31966943
243	0x3e7d3b45	0.24729641
244	0x3ebe5f20	0.3718195
245	0x3f48103c	0.7814977
246	0xbfa9e5d4	-1.3273263
247	0x3ce5380b	0.027980825
248	0xbf52146c	-0.8206241
249	0x3e8743b7	0.2641885
250	0x3ea0e51e	0.31424803
251	0xbe25c14a	-0.16187015
252	0xbf62f70f	-0.8865823
253	0xbec0349e	-0.37540144
254	0xbf876203	-1.0576786
255	0xbdb17717	-0.08665293

fc1.bias f4 [64]
0	0xbd4d5f6f	-0.05013984
1	0xbd5137a7	-0.051078465
2	0xbe732abf	-0.23746775
3	0xbebb120b	-0.36537203
4	0xbe9ec6e0	-0.31011105
5	0xbec10e65	-0.37706295
6	0xbe89caf9	-0.26912668
7	0xbe058b87	-0.13041507
8	0x3cba603e	0.02275097
9	0xbe5436b3	-0.20723991
10	0xbea73041	-0.32654002
11	0xbe410d57	-0.18852745
12	0xbe08fbfc	-0.13377374
13	0xbea04ccb	-0.31308588
14	0xbf6a48f2	-0.91517556
15	0xbe611db4	-0.21983987
16	0xbdbf1417	-0.09330004
17	0xbf1128d7	-0.5670294
18	0xbecb1593	-0.39664897
19	0xbd2b6710	-0.041846335
20	0xbe2ddfa3	-0.16979842
21	0xbe9d6722	-0.30742747
22	0xbe58a3db	-0.21156256
23	0xbe6934b2	-0.22774008
24	0xbee636f6	-0.44963807
25	0xbe86cb85	-0.26327148
26	0xbfc90df7	-1.5707387
27	0xbe7d0ebc	-0.24712652
28	0xbe00fe90	-0.12597108
29	0xbe8f639b	-0.2800568
30	0xbe973196	-0.2953002
31	0xbe1d2f35	-0.1535004
32	0xbe1c3070	-0.15252852
33	0xbee3014e	-0.44336933
34	0xbe258596	-0.1616424
35	0xbea19304	-0.31557477
36	0xbca40528	-0.02002199
37	0xbd42e0ab	-0.04757754
38	0xbec6c29e	-0.38820356
39	0xbeda5902	-0.42646033
40	0xbf02db26	-0.51115644
41	0xbe8c78ae	-0.2743582
42	0xbf3d0534	-0.73836064
43	0xbe9badee	-0.30406135
44	0xbdb68103	-0.08911326
45	0xbe7fb5eb	-0.2497174
46	0xbe13877f	-0.14407156
47	0xbe2d19a1	-0.16904308
48	0xbe4a7b6c	-0.19773644
49	0xbd4ad025	-0.04951491
50	0xbe9124ac	-0.2834829
51	0x3d33c591	0.043889586
52	0xbb61f9de	-0.0034481208
53	0xbef55579	-0.47916773
54	0xbe8d45bd	-0.2759227
55	0xbf3246bc	-0.6963918
56	0xbb06009a	-0.0020447136
57	0xbec6e831	-0.38849023
58	0xbd340641	-0.043951277
59	0xbcf12f44	-0.029441483
60	0x39899604	0.00026242447
61	0xbe49bd09	-0.19701017
62	0xbee945b2	-0.45560986
63	0xbea834a7	-0.3285267

fc2.weight f4 [16, 64]
0	0xbef05797	-0.46941826
1	0xbf06baf7	-0.52629036
2	0x3eaa7904	0.33295453
3	0xbead483f	-0.33844182
4	0x3e26a4c6	0.16273794
5	0xbeb16616	-0.34648198
6	0x3d65f1c8	0.056138784
7	0xbe9ee3ac	-0.31033075
8	0x3e997848	0.2997458
9	0x3e5e8015	0.21728547
10	0x3daa4f4c	0.08315906
11	0xbece8cbc	-0.40341747
12	0xbea82537	-0.32840893
13	0x3e13de5a	0.14440289
14	0xbe8d91a8	-0.2765019
15	0xbeb113a0	-0.34585285
16	0x3db05b75	0.08611194
17	0x3e985aaf	0.29756686
18	0x3eabbabc	0.33540905
19	0xbe951e8c	-0.29124868
20	0x3d918d1d	0.07106993
21	0xbf3dca5f	-0.7413692
22	0x3e0ece68	0.13945925
23	0xbf069e11	-0.5258494
24	0x3e903d5f	0.28171822
25	0x3e5b7e6c	0.21434945
26	0x3e7017e7	0.23446618
27	0xbef432cb	-0.47695002
28	0xbe840a1c	-0.25788963
29	0xbeed3443	-0.46328935
30	0x3d99c0a2	0.07507445
31	0xbef4008d	-0.4765667
32	0xbf15315c	-0.5827844
33	0xbee22cf5	-0.44174924
34	0xbef5d5bb	-0.48014626
35	0x3de75653	0.11295762
36	0xbe992a74	-0.29915202
37	0x3ec184e5	0.37796703
38	0xbe68fac6	-0.22751912
39	0xbf52a8dd	-0.82288915
40	0xbf30aa79	-0.6901012
41	0xbe3b8361	-0.18311836
42	0x3f00cd1e	0.50312984
43	0xbf4509ec	-0.76968265
44	0x3e50232d	0.20325918
45	0x3e80f58a	0.2518733
46	0x3eb7974c	0.35857618
47	0x3e85f845	0.26165977
48	0x3cdb8fe7	0.026802016
49	0x3e5fa3b7	0.21839796
50	0xbe7c82a8	-0.24659216
51	0x3e1265a1	0.14296581
52	0xbedba06f	-0.4289584
53	0xbf1e85ec	-0.619231
54	0xbe44a5f2	-0.19203928
55	0x3e695e82	0.22789958
56	0xbf0134bf	-0.5047111
57	0x3e4caf1d	0.19988675
58	0x3dac8b03	0.08424952
59	0xbf157efe	-0.583969
60	0xbee1fc8e	-0.44137996
61	0xbf165751	-0.58726984
62	0x3e5405fc	0.20705408
63	0x3ea402ab	0.32033285
64	0x3e211508	0.15730679
65	0x3e594f7e	0.2122173
66	0xbeed29f7	-0.4632108
67	0x3e96ddd6	0.29466122
68	0xbee68ca8	-0.45029187
69	0x3eb3f6e7	0.3514931
70	0xbeb88bda	-0.36044198
71	0x3e0f22d0	0.13978124
72	0xbeb2cc01	-0.34921268
73	0xbf03cd0f	-0.5148477
74	0xbefc6536	-0.49295968
75	0x3e76e579	0.24110974
76	0x3e6b3e96	0.22973093
77	0xbea497a6	-0.3214695
78	0x3ea7ca58	0.32771564
79	0x3e53cd1c	0.20683712
80	0xbefcaa26	-0.49348563
81	0xbf27fdcc	-0.6562164
82	0xbf2374aa	-0.6384989
83	0x3dbec741	0.093153484
84	0xbf0e335f	-0.55547136
85	0x3e810726	0.25200766
86	0xbed2b958	-0.4115703
87	0x3e808a23	0.2510539
88	0xbe915d9e	-0.28391737
89	0xbf154bfd	-0.58319074
90	0x3cf330ed	0.029686416
91	0x3e7cb2de	0.24677607
92	0x3e4f84ae	0.20265457
93	0x3edcc802	0.43121344
94	0xbf130f85	-0.57445556
95	0x3e86789b	0.2626389
96	0x3e446265	0.1917816
97	0x3e9e061c	0.30864036
98	0x3e810076	0.25195664
99	0xbf02aa2b	-0.51040906
100	0x3dbfacb1	0.0935911
101	0xbf69d536	-0.9134096
102	0x3e95f1e0	0.29286098
103	0x3eb4ecdd	0.35336962
104	0x3ee51586	0.44742984
105	0x3e9c35aa	0.30509692
106	0xbf603553	-0.87581366
107	0x3ea6455c	0.32474792
108	0xbec432dd	-0.38320056
109	0xbf233ca8	-0.6376443
110	0xbef8b1d2	-0.48573166
111	0xbf37a048	-0.71728945
112	0xbe866d6d	-0.2625536
113	0xbf0fde54	-0.5619862
114	0x3dcd4074	0.10022059
115	0xbec2497f	-0.37946698
116	0x3e2389e1	0.15970565
117	0x3e9185ec	0.28422487
118	0x3e7c5038	0.24639976
119	0xbe874145	-0.26416984
120	0x3e517867	0.20456086
121	0xbf2522f1	-0.6450644
122	0xbf107e49	-0.56442696
123	0x3e36fcfd	0.17869945
124	0x3e957593	0.29191265
125	0x3e85c4a3	0.26126584
126	0xbf3a4d10	-0.7277384
127	0xbf1b0288	-0.6055074
128	0xbeecacc3	-0.46225557
129	0xbf184af2	-0.5948936
130	0x3e6f8f32	0.23394468
131	0xbead0f41	-0.338007
132	0x3e38d466	0.18049774
133	0xbf2babe0	-0.67059135
134	0x3db41f6f	0.08795058
135	0xbecce029	-0.4001477
136	0x3e6a7e16	0.2289966
137	0x3e5ea74b	0.21743505
138	0x3e6efcd7	0.23338638
139	0xbf0f537e	-0.55986774
140	0xbec2b969	-0.38032082
141	0x3e1d5cdd	0.15367456
142	0xbeaf8c76	-0.3428685
143	0xbefb8703	-0.49126443
144	0x3e2afb2e	0.1669738
145	0x3e81e16b	0.25367293
146	0x3e5290e2	0.20563081
147	0xbef6f832	-0.48236233
148	0x3dee6a22	0.11641337
149	0xbf32ef72	-0.69896615
150	0x3e0ba568	0.13637316
151	0xbee33668	-0.44377446
152	0x3e96da27	0.29463312
153	0x3d6969c5	0.056985635
154	0x3eae4d6e	0.3404345
155	0xbf0fa077	-0.56104225
156	0xbeb551bd	-0.35413924
157	0xbedc313c	-0.43006313
158	0x3e0944ed	0.134052
159	0xbf02177d	-0.5081709
160	0xbf19856c	-0.5996921
161	0xbeb05deb	-0.34446654
162	0xbf35c22d	-0.70999414
163	0x3e4b3b46	0.1984683
164	0xbea43934	-0.32074893
165	0x3f4e313f	0.80543894
166	0xbf03b7f7	-0.51452583
167	0xbf159745	-0.58433944
168	0xbf2a95aa	-0.6663462
169	0xbe9233bd	-0.28555098
170	0x3f02a014	0.5102551
171	0xbf05f9b6	-0.52334154
172	0x3e253b58	0.16135919
173	0x3ebc33e7	0.36758348
174	0x3e58d14d	0.21173592
175	0x3e8a48ad	0.27008572
176	0x3e378ff8	0.17926013
177	0x3e3b51ac	0.18292874
178	0xbeae35d0	-0.3402543
179	0x3b8c32ce	0.0042785173
180	0xbe3bc617	-0.18337284
181	0xbf00c615	-0.5030225
182	0xbe7f93c2	-0.24958709
183	0x3ea527cb	0.32256922
184	0xbe673b86	-0.225813
185	0x3e1b1ab9	0.15146913
186	0x3d9430cd	0.072358705
187	0xbeb30b7d	-0.34969702
188	0xbeff1918	-0.49823833
189	0xbf1c6686	-0.6109394
190	0x3e64f562	0.22359231
191	0x3e331509	0.17488493
192	0xbec095e2	-0.37614352
193	0xbe3da008	-0.18518078
194	0x3e5975fa	0.2123641
195	0xbf1b3513	-0.6062786
196	0x3e9ecedc	0.31017196
197	0xbf64803d	-0.89258176
198	0x3e10f8e2	0.14157441
199	0xbf3abdb8	-0.7294574
200	0x3e558689	0.20852102
201	0x3e866b2a	0.26253635
202	0x3ddeff85	0.1088858
203	0xbf11893d	-0.56850034
204	0xbf0b5097	-0.54419845
205	0x3e159528	0.1460768
206	0xbed56984	-0.41682065
207	0xbead2408	-0.33816552
208	0x3e0d94cd	0.13826294
209	0x3e33975f	0.17538212
210	0x3ee7ac7e	0.4524879
211	0xbf02b393	-0.5105526
212	0x3e249e3e	0.1607599
213	0xbee99eb4	-0.45628893
214	0x3e44af2d	0.1920745
215	0xbef99e84	-0.4875375
216	0x3e402aa8	0.18766272
217	0x3e8d7a3b	0.27632317
218	0x3ea3e8b0	0.32013464
219	0xbecd0685	-0.40044037
220	0xbec00218	-0.37501597
221	0xbed41a74	-0.41426432
222	0x3e99aa72	0.30012852
223	0xbec75aae	-0.3893637
224	0xbf0c36f5	-0.5477136
225	0xbea7f8f2	-0.32807118
226	0xbed312c5	-0.41225258
227	0x3e6cc302	0.23121265
228	0xbea10355	-0.31447855
229	0x3f1f2dbf	0.6217918
230	0xbec9eaec	-0.39437044
231	0xbf23f061	-0.64038664
232	0xbf32a3a6	-0.6978096
233	0xbf1ea145	-0.6196483
234	0x3eddf275	0.43349043
235	0xbe1f76aa	-0.1557261
236	0x3e5f0399	0.21778716
237	0x3e32fb63	0.17478709
238	0x3e4787b8	0.19485366
239	0x3e60ff65	0.21972425
240	0x3ca4e33b	0.020127883
241	0x3db24c98	0.08706015
242	0xbe83a2eb	-0.25710234
243	0x3d327698	0.04357013
244	0xbe8119b4	-0.25214922
245	0xbf1cb17c	-0.6120832
246	0xbf0a09d6	-0.5392126
247	0x3e816428	0.25271726
248	0xbe6829a0	-0.22672129
249	0x3e32959a	0.17439881
250	0x3da5096d	0.080584385
251	0xbeb28694	-0.348683
252	0xbe9ac68a	-0.30229598
253	0xbf1adf18	-0.60496664
254	0x3e6b7768	0.22994769
255	0x3e95a26d	0.29225484

fc2.bias f4 [16]
0	0x3f2c37ad	0.67272455
1	0x3ec5aad3	0.3860689
2	0x3f06508a	0.5246664
3	0x3f2601ea	0.6484667
4	0x3f0ac92a	0.542132
5	0x3f26125e	0.64871776
6	0x3f2b7830	0.66980267
7	0x3ea1b447	0.31582853
8	0x3ebf4389	0.37356213
9	0x3e94831e	0.29006284
10	0x3f15a331	0.58452135
11	0x3eb397b4	0.35076678
12	0x3eb0a57c	0.34501255
13	0x3f32e529	0.6988092
14	0x3f1b0450	0.60553455
15	0x3f19550a	0.59895384

fc3.weight f4 [1, 16]
0	0x3e03979a	0.128508
1	0xbe1baba3	-0.15202193
2	0x3dca184d	0.09867916
3	0x3dbf6745	0.09345869
4	0x3dfcc442	0.12342121
5	0x3dc152d4	0.09439626
6	0x3da14efc	0.07876393
7	0xbe12980e	-0.14315817
8	0xbe0d76e6	-0.13814887
9	0xbde6308e	-0.1123973
10	0x3dd878aa	0.1056989
11	0xbe085546	-0.13313779
12	0xbdffe02a	-0.12493928
13	0x3ddffb10	0.10936558
14	0x3de2550c	0.11051378
15	0x3da562e8	0.080755055
