model/cross_validation/hp_nested_cv/checkpoint/c002_c000_128_4_0.01_64_0.3.pt (torch, 219607 bytes, 5 tensors)

fc1.weight f4 [128, 420]
00000000: 7aa9 483f 6cf9 21bf 8222 8cbc 4c2f 4040
00000010: 92a3 a4be 9998 54c0 9c23 c1be 29be 5ebf
00000020: 6fd0 a7bf d213 52bf 3ad6 303f 98dc 74bf
00000030: aeea c1bf 790d 10bf 4b2f 0840 f77b cf3f
00000040: 9f1f 6d3e 5994 a3bf ac29 133f 1eb9 1c3f
00000050: d971 dcbf 121f 2640 eeb8 36c0 4245 c83f
00000060: 54c6 0ac0 1def 53c0 1007 053f 2541 f63f
00000070: 4366 7bbe eb83 36be 9d23 57bf 1f9b f5bf
00000080: 291a 1f40 bf16 0940 e089 98bf f2fc d9bf
00000090: 9744 2f3f 8824 a33f 6b9a 0340 1a54 10c0
000000a0: ae97 63c0 819c d43f 18e9 89be 7ada 0fc0
000000b0: 4b16 dfbf 5d27 0c3f 9d67 3c3d a3b8 26bf
000000c0: e97e 263f 059b dcbf c7c9 bc3f 53aa 1040
000000d0: 517d 6bc0 20fe a03e 6538 633f 16dd e93f
000000e0: b503 abbf 5b94 b73f a64d c7be f069 1d40
000000f0: 6843 a8be db9b 4f3f bcc5 1d40 e501 e4bf
00000100: 2216 4abf 962e 23c0 8e38 8fbf 3777 e03e
00000110: 6880 fe3f 8664 fd3e a434 003f c607 0d3e
00000120: 4df2 a03f 6f9d 8ebe cae3 6740 cd60 9bbf
00000130: 5634 07c0 29e3 44bf da9d da3e 99dd ac3e
00000140: b6bb fabe 5754 6340 768f a7bf 41d6 843f
00000150: 6dcf 35c0 f596 f03e 71e6 5a3c aa82 e63d
00000160: 2a0a ed3f 27b4 d43f 4445 b13f 8c42 09c0
00000170: 2cef c33e b416 6e3f ae02 7bbf 3de3 80bd
00000180: e7f1 d43e a493 4dc0 ad9e 12bf ef0a 503f
00000190: c82b 28be 67d9 1640 1081 eabf 1e2d a6bf
000001a0: 0591 2dc0 176c 19c0 6eac 0440 d5e7 2440
000001b0: 51e8 7ac0 d0c9 cfbf 5020 7040 c0f5 3540
000001c0: 475a 02c0 6737 1140 a7f7 f73e 498c 2740
000001d0: cf36 73bf 9af3 b23f e22e 473e d143 37c0
000001e0: 646d 6e3f 42f9 e2bf deeb eebb faf5 d8bf
000001f0: cb5a 863f 53ee 46c0 36ca f83f 262e 8240
00000200: 5cd3 033f d7f6 16c0 076c 8cbf 4312 2ec0
00000210: 430a 97bf 79d0 6e3f b2e9 b5bf 6a03 1cc0
00000220: d0f4 d9be 28c5 e43f 84ab 40be e812 84bf
00000230: 7781 1ec0 72e5 a0bf 157c 3440 fce1 f63f
00000240: 16de e13e 0aab 8f3f d1c8 c93f 8b85 adbf
00000250: 9882 f9b9 a762 17c0 8d5d aebf 887f 4fbf
00000260: 2fc7 12bf f42b cfbf d8d0 89c0 24da 2d3f
00000270: 65b8 39bd 7c43 b23f 80ac b6be 18e3 d83e
00000280: ee5f 9bbf f075 62c0 d76b 3f40 d7aa 5abf
00000290: 4c93 28be 851d 6e3f 0f1e 053f d9f9 3e3e
000002a0: ad2e ecbf 4797 5d3f 9ab2 373f 2191 c0bd
000002b0: 10fa 09c0 7b7e 8dbd fac7 4fbf c2ad 2f3f
000002c0: 043d de3e cabd 0abf a01a 35be abea 813f
000002d0: b04f 77bd f209 9abf 6d48 17c0 f5a8 9abf
000002e0: 79be 87bf e419 9b3f 506a 1640 291d 3640
000002f0: 34f5 4dbe b3ed 75bf 88af 363f 4b0e bdbf
00000300: cbe7 953f 0e8d 2ebe 5220 ee3e 4e96 55c0
00000310: 060e 0940 3e19 733f 52a7 e1bf 1e1d 533f
00000320: ff89 2840 af7c 0040 4802 a23f e293 343f
00000330: 082e c9bf 8aa4 66bc 1dc6 31bf c061 9d3f
00000340: fbd6 88c0 91ce 39bf 4f6f 55be 5abb 933d
00000350: 777f 62be 7462 d93f 2bf7 fa3e 90db 06c0
00000360: f39a 203f 4571 76bf 7fdd 913f 0866 e13f
00000370: be20 2b3e 878b acbd 0548 0dbf 882f d73f
00000380: dcaf cebf 18eb c1be b63d 8a3f acbe 46bd
00000390: 33f9 823f 8230 33c0 68ab 8fbf f566 873d
000003a0: 8eed c13f 654a c7bf 2323 30bf 3c1a 7bbf
000003b0: 1a89 c43f 9443 db3e d170 8ebe 12e4 f93d
000003c0: 44e0 b93d 808b c1bf 6da8 6b3f 190c 603f
000003d0: 1091 903e 78ad d2bd 9630 d13f 76e2 2dbf
000003e0: 1da6 a2be 175a cfbf e6ca 9bbf 97e2 a5bf
000003f0: 8e39 cabe b236 f5be 68dc f1bd 720c 5dbf
0.783836 -0.6327121 -0.017106298 3.0028868 -0.32156044 -3.3218138 -0.3772248 -0.8700891
-1.3110484 -0.82061493 0.69076884 -0.956491 -1.5149744 -0.5627056 2.1278865 1.6209706
0.23156594 -1.2779647 0.5748546 0.61219966 -1.7222244 2.5956464 -2.8550372 1.5646136
-2.168355 -3.3114693 0.519639 1.923863 -0.24550728 -0.1782376 -0.84038717 -1.9187964
2.4859717 2.1420133 -1.1917076 -1.7030318 0.68464035 1.2745523 2.0563 -2.2551332
-3.5561328 1.6610261 -0.2693565 -2.2477098 -1.7428678 0.54747564 0.04599725 -0.65125483
0.650374 -1.7234808 1.4749078 2.2603958 -3.6795237 0.31443882 0.88757926 1.8270595
-1.3360506 1.434215 -0.3892643 2.459591 -0.32863927 0.8109719 2.4651937 -1.7813078
-0.7894002 -2.5497184 -1.1189134 0.43840954 1.9882936 0.49490756 0.50080323 0.13772497
1.2573944 -0.27854487 3.6232781 -1.2138916 -2.1125693 -0.7690912 0.42698556 0.33762816
-0.48971337 3.5520227 -1.3090656 1.0377885 -2.8407853 0.4699017 0.013360606 0.11255391
1.8518727 1.6617478 1.3849263 -2.1446867 0.3826841 0.9300339 -0.98050964 -0.06293342
0.41590807 -3.2121363 -0.5727337 0.81266683 -0.16422951 2.3570192 -1.8320637 -1.2982519
-2.7119763 -2.3972223 2.0730243 2.57665 -3.9204295 -1.6233463 3.7519722 2.8431244
-2.03676 2.2690065 0.4843113 2.6179373 -0.95005506 1.3980591 0.19451478 -2.8635142
0.93135667 -1.7732317 -0.007291301 -1.6950066 1.0496458 -3.1082962 1.943671 4.0681334
0.51494384 -2.358816 -1.0970467 -2.7198646 -1.1800007 0.93286854 -1.4211943 -2.4377084
-0.4256959 1.7872667 -0.18815428 -1.031827 -2.476652 -1.2570021 2.8200734 1.9287715
0.4411475 1.1224072 1.5764409 -1.3556379 -0.0004759028 -2.3653963 -1.36223 -0.8105397
-0.5733518 -1.6185288 -4.3067436 0.6791098 -0.045341868 1.3926845 -0.35678482 0.4236076
-1.213865 -3.5384483 2.990957 -0.8541693 -0.1646244 0.93013793 0.5199899 0.18649997
-1.8451744 0.86558956 0.717569 -0.09402681 -2.1558876 -0.0690889 -0.81164515 0.6862451
0.43405926 -0.54195845 -0.17685938 1.014974 -0.06037873 -1.2034285 -2.3637955 -1.2082812
-1.0605003 1.2117276 2.3502388 2.8455298 -0.20113069 -0.96065825 0.7136159 -1.4769987
1.1711363 -0.17045996 0.46509033 -3.3372989 2.141481 0.9496039 -1.7629187 0.82466304
2.6334226 2.00761 1.2656946 0.7053815 -1.5717173 -0.014077315 -0.6944292 1.2295456
-4.2762427 -0.7258082 -0.20843242 0.07213469 -0.22118936 1.698317 0.490167 -2.107151
0.62736434 -0.96266586 1.139572 1.7609262 0.16711709 -0.0842505 -0.5518802 1.681138
-1.6147418 -0.37874675 1.0800083 -0.048521683 1.02323 -2.7998357 -1.1224184 0.06611434
1.5150621 -1.5569578 -0.68803614 -0.98086905 1.535434 0.42824996 -0.27820447 0.12201704
0.090759784 -1.5120697 0.9205387 0.8751846 0.28235674 -0.10286993 1.6342952 -0.67923677
-0.3176736 -1.6199368 -1.2171295 -1.2959775 -0.39497036 -0.47893292 -0.11809617 -0.86347115

fc1.bias f4 [128]
00000000: 8760 16c1 4048 0cbe 63a5 d8c0 79c0 80c0
00000010: 03fd 08c1 35fc 1abe a2cc 61c0 cfc4 b4be
00000020: 5284 97c0 f50e b8c0 5a41 ffc0 e367 c1bf
00000030: ed64 97c0 6153 86c0 3b42 053f de53 293e
00000040: 8073 76bd 39da 79be a70b 84c0 07a0 91c0
00000050: 7ca5 bcc0 00d5 18c1 6931 86c0 b08f 21c1
00000060: 00b8 26c0 8ed8 8ec0 86aa a4bc dd0c 54be
00000070: 1338 c4c0 2391 02c1 6760 80c0 72b7 dec0
00000080: de9d 7dc0 347e 203e 1110 e9bd eaa3 dbc0
00000090: 3c45 c7bd 9a62 b4c0 677e 3b3f a66f 72c0
000000a0: e77d 9b3e 8102 f3bf 319e d0c0 3328 cfc0
000000b0: 17cf 4ebd ea8a 3d3f f997 233f 4e1f cebf
000000c0: e256 e5c0 cea3 e0bd 81bc c4bf 3eb5 bf3e
000000d0: 4ee1 bb3e a9aa 043c b4fa bfc0 2a00 d5c0
000000e0: 772f 9bc0 d046 4f3e 2e8d dfbf b64e 62c0
000000f0: 9072 24be 8493 1c3f b87e 8fc0 eb19 eabf
00000100: e557 18c0 26b3 92c0 82b8 fcbe 53af 91bf
00000110: 7688 893f 054b 9bc0 091a 8e3e 04e9 93be
00000120: 218d 3e3f 5b78 083f 3154 dd3e 576a 9cc0
00000130: 5fcb 98c0 bb96 8fc0 7138 9bc0 4a58 a2c0
00000140: 8eea 96c0 52c5 9ec0 b3a5 0bbf 33ee 813f
00000150: 5844 9dc0 9b98 c4c0 f37f bbc0 82b1 e33e
00000160: 812b f8bf e023 e8c0 dd6f 05bf b736 79c0
00000170: 6bb1 dd3e c140 40c0 a41c 0c3e 7e78 59be
00000180: 4d1b 793f dc20 253f 640d d0c0 2b80 44be
00000190: 16aa 733f 0d46 9ac0 6255 14c1 134f 1ac1
000001a0: b1bb c63d cabd 2dbf 0af9 553f a1af 06c1
000001b0: de69 6dc0 0dc5 a3bf 3843 08c1 4171 2bbf
000001c0: bb24 333f fab9 433f 3832 8f3e 7eee 663f
000001d0: 9fe2 d6bf c1af b7c0 0c89 eec0 2ba0 fe3e
000001e0: a899 ba3c 0e9e 9cc0 465c bac0 1405 a0bf
000001f0: 4314 c1c0 4101 e33e a1d5 abbf 1500 10c1
-9.398566 -0.13699436 -6.770189 -4.023495 -8.56177 -0.15135272 -3.5281148 -0.35306403
-4.7349024 -5.751826 -7.9767275 -1.5109829 -4.73107 -4.197678 0.52054185 0.16535899
-0.060168743 -0.24399652 -4.1264224 -4.5507846 -5.8952007 -9.552002 -4.1935315 -10.09758
-2.6049805 -4.463935 -0.020100843 -0.20708032 -6.131845 -8.160434 -4.011768 -6.959893
-3.9627604 0.15673143 -0.113800175 -6.863759 -0.09730002 -5.6370363 0.7323975 -3.7880645
0.30369493 -1.8985139 -6.5193105 -6.473657 -0.050490465 0.7404009 0.63903767 -1.6103303
-7.166856 -0.10968743 -1.5370027 0.37442964 0.3669533 0.008097329 -5.9993534 -6.65627
-4.849544 0.20241857 -1.746496 -3.5360541 -0.16059327 0.6116259 -4.4842186 -1.828916
-2.3803647 -4.5843687 -0.49359518 -1.138163 1.074477 -4.8529077 0.27754238 -0.28888714
0.74434096 0.5330865 0.43228295 -4.887981 -4.7748256 -4.4871497 -4.85064 -5.0732775
-4.716132 -4.961587 -0.5454971 1.0150818 -4.9145927 -6.1436286 -5.859369 0.44471365
-1.9388276 -7.2543793 -0.52123815 -3.8939645 0.43299422 -3.0039523 0.136828 -0.2123737
0.9730728 0.64503264 -6.5016346 -0.19189517 0.95181406 -4.821051 -9.270845 -9.644305
0.09703768 -0.6786772 0.8358313 -8.417878 -3.7095866 -1.279451 -8.516411 -0.66969687
0.6997792 0.7645565 0.27968 0.9020766 -1.6787909 -5.7402043 -7.4542294 0.49731573
0.022778347 -4.894294 -5.823764 -1.250155 -6.0337234 0.44336894 -1.3424569 -9.00002

fc2.weight f4 [4, 128]
00000000: ab2e 963e 0782 9cbf b3d6 843e f1bf 833e
00000010: 4aef 5e3f e424 cfbc 02b4 5e3e d491 d7be
00000020: 8385 b23e c7b4 0c3f a160 e93e 2868 99be
00000030: f42c cf3e 5ef6 4d3e 43eb 0fbf 771b 18bf
00000040: 0352 23bf 8f73 7abf ca64 913e 15ec ac3e
00000050: 2173 f03d 0bf4 203f 9150 2d3e 7a6e 0c3f
00000060: dfd3 0ec0 f6ac 363e d431 7abf 475f 85bf
00000070: 0f2a 843e 99e7 e03e 4e0a f73e 895f 093f
00000080: d4aa 723e f3d4 11bf 6484 9cbf df10 2e3f
00000090: 177e 35bf 8bb6 023f 6257 b9be 0bd4 d73d
000000a0: 9fe0 e13c 96d2 81bf 20b8 e13e cf8a 143f
000000b0: a885 8dbf 62bc 5cbf f89f f1be 94e9 863e
000000c0: 0f45 173f 7a87 69bf ecb7 c1be 9334 9ebe
000000d0: fbae c5bf 449d 81bf d4d8 523e 849c e43e
000000e0: c1be ebbe 8edb 07bf 1b6d 08c0 8ea8 59bf
000000f0: 637c 4abf bbc6 7ebe 2053 4f3e a21a e2be
00000100: 5d62 3dbf 64c2 bfbf db8e c6bf e4e8 2fbe
00000110: fd5c a2bf aa13 513e 31cd 1cbf 255f d13c
00000120: da8b c6bf bf49 12bf 9921 7abf 0e91 983e
00000130: e861 893e 052a e5be 2740 f43e 87a7 e73e
00000140: 9255 d33e 80e0 da3e 5256 8bbf a538 ffbe
00000150: 6a36 443e 3de6 293f bba2 633e dea2 23bf
00000160: 42c6 343e 2613 e83e 2b0e a6bf 75eb c93e
00000170: baee 54bf eb97 b1bf 6f5b 9ebe b457 bfbe
00000180: 1ce9 85bf c522 28bf 3e05 163f a5a5 95bf
00000190: d821 92bf 154c 483e 3e63 9a3e 827b 1d3f
000001a0: ff35 10bf 20df 79be c635 73bf 9c13 083f
000001b0: 375b 783e 81c9 22be 7be4 1c3e e1a9 59be
000001c0: 0189 d5be ac0a 0fbf ff1f 1dbf 53e2 e8be
000001d0: 6d2f cebf b7ef f83e 61f0 3e3f 468e dfbe
000001e0: fefb 11c0 7086 833e f643 f03e 68e8 a5bf
000001f0: 5340 fe3e a895 ddbf 506d 8dbf daf6 b43e
00000200: abdb d73e 3a65 65bf 36a5 9f3e aa9a 803e
00000210: a8ce 413f 3e25 5d3c 4402 753e 7099 34bf
00000220: 04fe 823e 81f5 1c3f 433e 0b3f 3431 4bbe
00000230: 7bc5 ab3e ce1b 563e 9c9e 37bf 57ce 32bf
00000240: 7db1 09bf 05a0 afbf 159c 4f3e d7db 8f3d
00000250: 117d 623e 47aa f23e ebc4 713e 6bc9 0b3d
00000260: 97df bfbf c50b 8b3e e8e4 4cbf ab29 c8bf
00000270: d1f0 6a3e 89ed a63e 8e97 d73e a720 033f
00000280: 7528 553e 99ef 0fbf 98db c5be f6c6 103f
00000290: 0469 21bf 4c0e 2a3f 24fc 74bf 94d7 4b3e
000002a0: 35ef 53bf ea8f 89bf 2721 8c3e 45fc 063f
000002b0: 5ad0 babf 4429 a0be b34b a2bf c7f9 c53c
000002c0: ec5a 993e 0ed1 b6bf b26a 8cbf b305 c0be
000002d0: bc86 eebf 5efb 26be c13c 1d3f 8376 fb3e
000002e0: 5263 a4bf 05e1 13bf 71ce f4bf d4a7 91be
000002f0: 29d7 cdbe 4cde 6ebe 62d4 b63e 0b31 8bbf
00000300: 74c2 60bf 226b 9cbf c55a 8bbf d95f 823d
00000310: f7fe 31bf ab8a 573e e006 87bf aee0 46bd
00000320: 8f58 12c0 b96c 17bf 0e4f e4bf ec82 e83d
00000330: 1846 9f3e 2eb7 4ebf 2238 143f 411a 063f
00000340: b97e 043f 2e1d ad3e ab62 62bf 2196 f2bd
00000350: 9597 893e 23d5 fb3e bc14 9a3e 3506 bebe
00000360: 7075 d53e c32f 8e3e 7c2a 9fbf 3d86 533e
00000370: 1692 06bf 4927 adbf d358 5ebf 17ca 0cbe
00000380: 5108 ebbe e412 d3be 36b2 d03e 9d3a 85bf
00000390: a036 e3bf b5ed aa3e 40c5 c63e 09ff 313f
000003a0: 14a8 35bf 8bb0 4fbf 785b 59bf 7ff1 413f
000003b0: 9a75 be3e 00f4 22be 862e 033f 421d fdbd
000003c0: e8c3 19bf 440f f7be 8150 d6bd 068d 1bbf
000003d0: 460c a7bf 6e49 183f 0aaf 123f 3794 aabe
000003e0: 71ff d3bf e9fc 9f3e 36be 923e 2af4 4cbf
000003f0: 9302 943e 46ca 58bf 08c1 bbbf 058f 0e3f
0.2933248 -1.2227181 0.25945053 0.25732377 0.87083876 -0.025286146 0.21748355 -0.42103446
0.34867486 0.54963344 0.45581535 -0.29962277 0.40463984 0.20113513 -0.56218356 -0.5941691
-0.63797015 -0.9783258 0.28397208 0.33773866 0.11740709 0.6287238 0.16925265 0.54856074
-2.2316816 0.17839417 -0.9773228 -1.0419701 0.25813338 0.43926695 0.4825005 0.536614
0.23697978 -0.5696556 -1.2227902 0.67994493 -0.7089552 0.5105979 -0.3619948 0.10538491
0.027572928 -1.0142391 0.4408579 0.58024305 -1.1056414 -0.8622495 -0.4719236 0.2635008
0.5908975 -0.91222346 -0.37835634 -0.30899486 -1.5444025 -1.0126119 0.20590526 0.44650662
-0.4604397 -0.5306939 -2.1316593 -0.8502282 -0.7909605 -0.24880497 0.20246553 -0.44160944
-0.73978215 -1.4981198 -1.5512346 -0.17178684 -1.2684628 0.20417657 -0.612506 0.025558064
-1.5511429 -0.5714378 -0.97707516 0.29798168 0.2683251 -0.4475862 0.47705194 0.45245
0.41276222 0.42749405 -1.0885718 -0.49847904 0.19161382 0.6636694 0.22230045 -0.6392039
0.17653754 0.4532711 -1.2973074 0.39437452 -0.8317677 -1.3874487 -0.30929133 -0.373716
-1.0461764 -0.65678054 0.5860175 -1.1691176 -1.1416578 0.19560273 0.3015384 0.6151658
-0.5633239 -0.24401522 -0.95003927 0.5315492 0.24253546 -0.1589718 0.15321533 -0.2125621
-0.41706088 -0.5587566 -0.6137695 -0.45485172 -1.6108223 0.48620388 0.7458554 -0.43663234
-2.2810054 0.25688505 0.4692685 -1.296155 0.4965845 -1.7311296 -1.1048985 0.35344583
0.4215978 -0.89607584 0.31180733 0.25118 0.7570596 0.013497649 0.23926646 -0.7054663
0.25584424 0.6131211 0.5439188 -0.19842988 0.33549103 0.20909044 -0.71726394 -0.698461
-0.5378645 -1.3720709 0.20274384 0.07024353 0.22118022 0.47395536 0.23610274 0.034127634
-1.4990109 0.27157417 -0.80036783 -1.5637716 0.22943427 0.326031 0.42107815 0.512217
0.20816214 -0.5622497 -0.386441 0.5655359 -0.63050866 0.66428065 -0.95697236 0.19906455
-0.82786876 -1.0747044 0.27369043 0.5272868 -1.4594834 -0.31281483 -1.2679352 0.024166955
0.2995218 -1.4282548 -1.0970061 -0.37504348 -1.8634868 -0.16306826 0.6142083 0.49113855
-1.284281 -0.5776523 -1.9125501 -0.28448355 -0.40203217 -0.23326987 0.3570891 -1.0874342
-0.8779671 -1.2220194 -1.0887076 0.06365938 -0.6952967 0.21048991 -1.0548973 -0.048554115
-2.2866552 -0.5915027 -1.7836626 0.11353096 0.31108165 -0.8074826 0.5789815 0.5238381
0.51755863 0.33811325 -0.88431805 -0.11845041 0.2687346 0.49186048 0.30093944 -0.3711411
0.4169116 0.27770814 -1.243484 0.20656677 -0.5256666 -1.3527614 -0.86854285 -0.13748966
-0.45904782 -0.4122535 0.40760964 -1.0408512 -1.7751045 0.3338448 0.38822365 0.6952978
-0.7095959 -0.8112876 -0.84905195 0.7575912 0.37199098 -0.15913391 0.51242864 -0.12359096
-0.60064554 -0.48253834 -0.10464574 -0.6076206 -1.305062 0.59487045 0.5729834 -0.33316204
-1.656233 0.31247643 0.28660744 -0.80060065 0.28908214 -0.84683645 -1.4668283 0.5568698

fc2.bias f4 [4]
00000000: 7016 2b40 9091 2740 119f 3a40 6046 093e
2.6732445 2.6182594 2.9159586 0.13405752

fc3.weight f4 [1, 4]
00000000: 43d3 1b3d e533 523d a4ad 583d 9d65 32bd
0.03804327 0.05131902 0.05289997 -0.043553937
