model/cross_validation/hp_nested_cv/checkpoint/c003_c001_128_8_0.001_32_0.3.pt (torch, 221655 bytes, 5 tensors)

fc1.weight f4 [128, 420]
00000000: 2ad9 40be 23d5 fdbd aaea f2bd 59f3 41bd
00000010: 8a3f 873d d070 b1bb 6a96 59be a536 c9bd
00000020: a232 0d3c 0c28 a13d 5f36 babe f743 d73e
00000030: 6512 c83d ce2e 923d c002 83be 5284 183d
00000040: 3494 823d b33d 793d 3e0a 17bf 1eb6 14be
00000050: dcc1 85bc 2e3f d3be fd42 843e c09b 733e
00000060: dab0 403e d63c ec3b 44f2 83bd 3adb 59bd
00000070: 0e65 50be 5773 18be 5985 b73d d902 2bbe
00000080: bcd8 12bd 8d2c 323e abb8 893d dfb1 83be
00000090: 041e 283e ce44 1bbe 7e4a 0dbf 9b49 5ebe
000000a0: a4ea 4e3d ddcf 733d 38ef 313e eddd adbc
000000b0: 6ef4 ed3d 272d 28bd 025e c1ba 3a48 3e3e
000000c0: 2d57 44be 11d4 9abc 379f c8bd e7a9 74be
000000d0: 258b a03d c4e7 24be 0dd3 92be 24e5 933c
000000e0: ac6c 0d3e 4b9d e8be 0a36 76bd 7a2a 9ebd
000000f0: 54a3 28be 5516 aebe 3d3b c1be 2b55 bdbc
00000100: 7b6d a8be 7dd3 5e3d ecca 2a3d c78e 0abe
00000110: e383 cebc ceb9 143e 564c b3bd ec1f 4a3c
00000120: ea42 283d 4869 e63d ffcb 923d a973 993d
00000130: d5ba f3bd 00ad a83c 78d8 363e 25ff e3bd
00000140: fccc 1a3e 3f6e 85bd ea2f c4bc 3877 75be
00000150: dc1e febe 5aa2 8d3e 5a2c 43ba 0510 273e
00000160: 0285 6abe ff54 c23d 6a86 0fbf f4fd 223d
00000170: 739a 85bd d59e 89be 37dc b7bd 9e65 623d
00000180: 40ba 1d3e 4ee4 4e3d a7fb 80bd cc9a 00be
00000190: ec6b cbbd 496e 933d 286c 1cbe 948c a8bd
000001a0: 5a73 26bf 4e26 573e 29cf c6be c1a9 b2bb
000001b0: 52b1 d7bd 52e6 93bd 7f6a 33be 5d0a 8abd
000001c0: 89a4 333e 792b 033e 3f83 33be 1b2b 073e
000001d0: eb75 bc3c 3059 753e a600 bf3d de3d 073e
000001e0: c9b9 88bd 771f 2f3f ee1c 31be 9da6 e4be
000001f0: c2fb 5cbf 4816 d03e d07d a2be 1229 9bbc
00000200: cade 05bd eb52 5b3e 4e18 cf3d 2f77 473e
00000210: 9b26 893d a898 73be 1425 a13d d463 933e
00000220: 7476 8e3d 2ce5 c53d 5d92 013f f51b 27bf
00000230: 105d 2abe f167 c03f 703b bb3e 067e a3bf
00000240: 2ad1 b53e 7622 df3e e0c1 3dbf 472a 133f
00000250: 3eb3 debe 5b2a 293e d7b3 963e 3708 a9bd
00000260: 492c 4ebf fd78 07bf 123f 1abf 6a8f c93e
00000270: c743 90bd 6b66 dc3e dd10 5b3f 424b 96be
00000280: a2c1 6bbb 0469 b43e 079a b4bf 5397 b53e
00000290: 86af d9be 785a 9f3e bb1f b03e 2bc0 163e
000002a0: b22d d13e 410e 0dbd 57fd 11be 28d9 0bbe
000002b0: df1a 13bf 52f4 01be e39b 8abd 34a0 693e
000002c0: c29f cebd 7c20 c4bb c53b aebd d768 22bd
000002d0: 3807 c6be 4193 023f 86ff 44bf a84e 12bf
000002e0: 93c3 1e3f aa36 963e cef2 77be badc 4f3d
000002f0: cfc6 86bd fc48 ce3e ea50 a93e 6e92 14bf
00000300: 5af8 2d3d d4c4 243e d5e6 d63e f92c 15bf
00000310: b087 43be d2ea 863e a6c8 89be 4046 a63e
00000320: 5454 a53e 0131 923e b20e 8bbe c050 aa3d
00000330: 8c7d 673e b2e8 70bd 6781 81be fa30 63be
00000340: 0d9b 34be c01a 353e f897 b73d e54b 8a3e
00000350: 68d5 04bf 9724 be3d 8e8b 11bf 2792 773e
00000360: a4d9 863e 64b2 08bf 8656 883d 9e1e 783d
00000370: 33b5 9abe 8574 f63e 71e4 f23d f91c 383e
00000380: 63b5 d9be 055a c93d ddf2 e03d a486 d1be
00000390: 02dd c53e 3ac5 b3be ce72 373e 3f00 923e
000003a0: 2962 8dbe 4db6 9e3e fdbd 2a3e ac9c 6e3d
000003b0: c7a8 46be 356c a6be 8398 c2be fcbe 8fba
000003c0: 5177 84be 3415 b93e f149 dfbe d007 ffbd
000003d0: 5426 18bd 0910 0dbf 0254 9cbe 9a8c babd
000003e0: 7cf8 043d cf7b 343e 7a1b 8f3e dc70 bbbd
000003f0: 779e 1bbf 4c0f 243e 8861 b63e 613a 1d3d
-0.18832842 -0.12394168 -0.11861165 -0.047351215 0.06603916 -0.0054150596 -0.21248785 -0.09824876
0.008618029 0.078689665 -0.36369607 0.4204404 0.097691335 0.071378335 -0.25588036 0.037235565
0.06375924 0.060849857 -0.59000003 -0.14522597 -0.01632779 -0.4125914 0.25832358 0.23789883
0.18817464 0.0072094006 -0.06442693 -0.053187586 -0.2035105 -0.14887749 0.08960981 -0.16700305
-0.035851225 0.17399807 0.06724676 -0.25721642 0.164177 -0.15162966 -0.5519179 -0.21707766
0.05051674 0.059524406 0.17376411 -0.021223987 0.11618887 -0.041058686 -0.0014752748 0.1858224
-0.1917388 -0.01889995 -0.09795993 -0.23892938 0.0783904 -0.16104037 -0.28676644 0.018053599
0.13810986 -0.45432505 -0.06011013 -0.077229455 -0.16468555 -0.34001413 -0.37740508 -0.0231119
-0.32896027 0.05440091 0.041697428 -0.13531028 -0.025209373 0.14524004 -0.08754794 0.012336712
0.04107944 0.112505496 0.071678154 0.074927635 -0.1190087 0.020590305 0.17856014 -0.11132649
0.15117258 -0.065151684 -0.023948628 -0.2397126 -0.4963292 0.27662927 -0.00074452686 0.16314705
-0.22902301 0.09488868 -0.56064475 0.03979297 -0.065235995 -0.26878992 -0.089775495 0.05527269
0.1540308 0.050510697 -0.06297999 -0.1255905 -0.09932694 0.071987696 -0.15275633 -0.08229938
-0.6501976 0.21010706 -0.38829926 -0.005452365 -0.10531868 -0.072216645 -0.17521094 -0.06740258
0.17543234 0.12809552 -0.17530535 0.13200037 0.023005446 0.23959804 0.093262956 0.13207194
-0.06676061 0.68407387 -0.17296192 -0.44658366 -0.8632165 0.40642 -0.31736612 -0.018940482
-0.03268317 0.2141835 0.101120576 0.19479059 0.066968165 -0.23788702 0.078684 0.287871
0.06956187 0.09662852 0.5061396 -0.65277034 -0.16637063 1.503172 0.36568785 -1.2772834
0.35511142 0.4358098 -0.74123955 0.57486385 -0.43496126 0.16520064 0.29434082 -0.0825352
-0.80536324 -0.5291899 -0.6025249 0.3936723 -0.070441775 0.4304689 0.85572606 -0.29354292
-0.0035973568 0.3523637 -1.4109505 0.35467014 -0.42516726 0.3112371 0.34399208 0.14721744
0.40855175 -0.03443742 -0.14256798 -0.13657057 -0.5746288 -0.12690857 -0.06768014 0.22815019
-0.10089065 -0.0059853178 -0.08507494 -0.039650764 -0.38677382 0.5100594 -0.769524 -0.5715127
0.6201717 0.2933858 -0.24213716 0.05074761 -0.065808885 0.40290058 0.33069545 -0.58035934
0.042473175 0.16090709 0.41972986 -0.5827175 -0.1909473 0.2635103 -0.26910895 0.32475471
0.322909 0.28553012 -0.2715965 0.08316183 0.22606486 -0.058815666 -0.2529404 -0.22186652
-0.17637272 0.17685986 0.089645326 0.27011028 -0.5188813 0.09284323 -0.5685357 0.24176846
0.26337922 -0.533972 0.06657128 0.060576074 -0.3021637 0.48135772 0.11859978 0.17979802
-0.425212 0.09831623 0.109838225 -0.40923035 0.38645178 -0.3511141 0.17914888 0.28515813
-0.27613953 0.3099846 0.16674037 0.058254883 -0.19400321 -0.3250443 -0.38006982 -0.0010966952
-0.2587228 0.3614899 -0.436111 -0.12452662 -0.037145928 -0.5510259 -0.30532843 -0.09108849
0.032463536 0.17625354 0.2795065 -0.091523856 -0.60788673 0.1602146 0.35621285 0.038385753

fc1.bias f4 [128]
00000000: 334c 39be b552 25be d174 77be a56a 36bf
00000010: 84b3 bb3d 131f e9be 3fda 3ebe 9ed7 05bf
00000020: c117 edbe deb2 b9be 3ac4 74be 6525 69be
00000030: c677 42be c1ff e1be 7641 c8bd bb4d 29bd
00000040: c062 49be 6923 00bf f8bc 89be fa43 1abd
00000050: 761c 38be 81bb ebbe e7a0 81be 5a4c a7be
00000060: 1d08 93be 62ac 0dbe ca02 85bd c489 ccbd
00000070: f348 99bd 72e9 27bf 26fb d7be 06c2 53be
00000080: 0dde ccbe 4d31 68be de2a 01bf 9f5d b9bd
00000090: a2d5 5d3d 38b1 c7bc 1534 48be 0391 1bbf
000000a0: 0c0b 3cbf cf61 72be 567d a3be 44f3 5ebe
000000b0: b517 59be 361e bfbe 1ad3 45be d658 4dbe
000000c0: adc9 35be e8db 04bf 0d0a 10be 5268 dabe
000000d0: 86e6 a8be 57f2 b2be 5b24 62be 9ede 88be
000000e0: bf77 82be 8917 8fbe 9f4c acbe 4926 2ebe
000000f0: 8cc3 96bd 513a 8abe 5e3e 20be e3a9 7ebd
00000100: 0b33 03be 4768 7ebe 2c90 51be a21f d7be
00000110: 5d10 10be 08fe b5be 9ae4 f9bd 6ada 36be
00000120: 7288 95be e794 f5bd 1033 56bf f746 17be
00000130: e953 97be dad8 d9bd 3fb9 5abe 6820 53bd
00000140: f0cb 44bf a376 86be 6357 cebd ff8c 67be
00000150: abb1 adbe 99ec 42be e930 5abd 7435 bebe
00000160: 5349 10be c3c4 babe eed6 ebbe 28d8 05be
00000170: 00bf e7be c159 96be 8b15 1fbe c2be 2cbe
00000180: eb69 65be d438 55be 630a 71be 9b23 55be
00000190: 7a4e 8abe 6854 ecbe b297 dabe 7082 c6be
000001a0: d55b b5be b8fd c3be 352e eabe 111c 22be
000001b0: 8b15 debd 8bd6 4ebe 4c19 31be 86c3 22bf
000001c0: e4e3 45bf 2150 293c 5f55 1dbe e172 c2be
000001d0: 24f8 6bbf c3c9 9fbe 65c1 66be 3969 bebe
000001e0: 26c8 30bf adde 0ebf 980b 99be b90a 8dbe
000001f0: d285 07bf 91b1 78be 332d 55be ea7f 50be
-0.18095474 -0.16144831 -0.24165656 -0.71256477 0.09165099 -0.4553152 -0.18637942 -0.5228213
-0.46307185 -0.36269277 -0.2390298 -0.22768171 -0.18991002 -0.44140437 -0.09778111 -0.041333895
-0.19666576 -0.5005403 -0.26901984 -0.037662484 -0.17979607 -0.46041492 -0.2531807 -0.3267544
-0.28717127 -0.1383529 -0.064946726 -0.09987214 -0.07484617 -0.65590584 -0.421838 -0.20679483
-0.4001316 -0.22675057 -0.50456035 -0.0905106 0.054158814 -0.024376497 -0.19551118 -0.60768145
-0.73454356 -0.23670124 -0.3193156 -0.21772486 -0.2120045 -0.37327737 -0.1931881 -0.2005342
-0.17752714 -0.5189805 -0.14066334 -0.42657715 -0.32988375 -0.34950516 -0.22084181 -0.26732343
-0.25481984 -0.27947643 -0.33652207 -0.17006792 -0.07361516 -0.26997617 -0.15648791 -0.062173735
-0.1281244 -0.24844466 -0.20465153 -0.4201632 -0.14068742 -0.35545373 -0.122018054 -0.17856756
-0.29205662 -0.119912915 -0.83671665 -0.14773165 -0.29556206 -0.10637064 -0.21359728 -0.051544577
-0.76873684 -0.26262388 -0.100752614 -0.2261238 -0.33924612 -0.19035567 -0.0532693 -0.37150156
-0.14090471 -0.36478242 -0.46062416 -0.13070738 -0.4526291 -0.29365352 -0.15535562 -0.16869643
-0.22403686 -0.2082246 -0.23539118 -0.20814364 -0.27012998 -0.46158147 -0.4269386 -0.3877139
-0.35421625 -0.3827951 -0.45738378 -0.15831019 -0.10843953 -0.20199029 -0.17294806 -0.63579595
-0.7730086 0.010334046 -0.15364598 -0.3797827 -0.9217551 -0.3120862 -0.22534712 -0.37189654
-0.690554 -0.55808526 -0.29891658 -0.27547243 -0.5293857 -0.24286486 -0.20818023 -0.20361295

fc2.weight f4 [8, 128]
00000000: 74a5 b0be 87d0 a2be 588d 85be 3ad7 88be
00000010: 3ef0 623e b117 953e a5e5 e7be 2f30 adbe
00000020: c5e8 753e 0c83 8c3e aa1d aabe 0474 e3be
00000030: bf74 173e 2624 47be 9fe6 e8be d4c5 12bf
00000040: cf9f 9bbe d4b1 973e 3445 813e 07f4 bfbe
00000050: fdf6 593e 825c 74be 655d 99be 3ff6 c5be
00000060: f253 bd3e 705b b7be 7e41 f73d 1247 97be
00000070: 9c59 ae3e a769 68be fb25 5d3e c10a 313e
00000080: acbe 74be f70f 543e dbd0 05bf 9bad 353e
00000090: d0cd 463e 28e7 c3be 91cb 843e 2806 563e
000000a0: de06 893e 0007 0abf 1b6d 5fbe 2d20 a4be
000000b0: 8263 fdbe dc12 c1be 9d1d 353e 8853 1abf
000000c0: deaf bd3e 5dbb 153e ccac d73d 125d b5be
000000d0: 5642 97be 30a4 02bf ed8a 8abe 3c7d 8a3e
000000e0: 47f9 ccbe 1991 c9be 6aab fbbe e5c5 2d3e
000000f0: 297e 353e d4c7 6cbe fe1b b5be 5c04 863e
00000100: d04f 833e d549 aa3e 0734 b33d fd69 a8be
00000110: 81ad 143e 738a f3be 63dc fabe bf0d 843e
00000120: 8743 b1be 64a8 283e 86b6 b0bd d093 ddbe
00000130: 19be d2be 3882 b8be 4d12 79be c653 4c3e
00000140: 6c5b 94be e7e7 de3d f6d0 6e3e 7611 9cbe
00000150: 2d21 9a3e 63f8 89be 69ec 3c3e f18c cbbe
00000160: 3dc8 edbe 70cc a93d e3dc aebe ef2d b3be
00000170: 275e d8be d576 e3be 9930 07bf 73fd d13d
00000180: dde1 b2be 5a1f 613e 0e62 e7be c1cb a13e
00000190: c0fa 3e3e 2dc6 d5be 66ab a1be 2c3a 8cbe
000001a0: c6a6 813e 443d a93e d091 36bf 8f34 1f3e
000001b0: f2a8 af3d 9870 393e 7537 983e d545 babe
000001c0: ff03 743e d1d7 863e 6f03 1f3e 0fb4 fdbe
000001d0: 6247 0cbd 2214 9bbe 654f 883e ad5b a2be
000001e0: 473e 5ebe 20bd 8cbe d7ab a0be 3088 c6be
000001f0: 5bdd cb3e b5b0 a3be 4682 d1be 663e 6e3e
00000200: 6ae4 183e 1826 7b3e fe9b a23e 8ded 223e
00000210: a073 c6be 5e3d 9fbe 3693 c83e 9554 8c3e
00000220: 1b0a e1be 8b08 88be 26d3 803e 0b80 833e
00000230: 2a91 bdbe a838 943e 4cbc 243e 0dd2 e73e
00000240: 9de5 273e 8643 6cbe b7b2 81be c478 393e
00000250: 2971 fcbe 5631 a43e 103f 813e 215e 693e
00000260: 7874 bfbe 0df5 163e 18c2 e2be f748 0d3e
00000270: 7b4f d2be 4a53 303e db59 85be bb53 60be
00000280: 0676 963e 0521 b4be 3824 8b3e 9aed 06bf
00000290: 7b4d abbe 33cc 153e 6038 e8be 10e1 8dbd
000002a0: f2b1 b8bd 00c8 7f3e 4a8e 513e 3791 1e3e
000002b0: 69bb b83e 7787 8f3e 9dc4 89be 315c 853e
000002c0: 7de5 3ebf 897a 48be a629 b8be 7b22 973e
000002d0: b3c6 933e 20f4 303e ab89 323e 49fe 02bf
000002e0: c410 6c3e 8496 2c3e 1afc 9b3e 89de b1be
000002f0: a900 ccbe 2add 4c3e dd09 933e 2a9c c0be
00000300: 75ac bdbe f513 ddbe 272f 2abe e998 553e
00000310: 426c f4be 0142 9d3e 9b3b c63e ef9c b2be
00000320: 3943 8d3e 8d87 fdbe 5150 853e dae0 ec3e
00000330: 817f 763e 8a8f 763e 2f69 6d3e d0f5 ffbe
00000340: 1336 b33e 5e99 8cbe 6248 9cbe 0922 093e
00000350: e9b8 d3be 32bc 483e 7d65 a9be 84f4 623e
00000360: e771 2c3e 4af7 60be 6619 a63e 8dc1 653e
00000370: e51a b03e 5b40 653e 1809 443e d5a3 d2be
00000380: 83aa 8e3e 39bc ebbe 9f52 b33e 4f47 bebe
00000390: ffc0 b4be a079 833e 07e7 933e 3207 3c3e
000003a0: 2ef9 d2be 8fbe a6be c29e 7b3e f68e d7be
000003b0: ef14 14be d79f 0cbf a955 c5be 608e 373e
000003c0: a463 1ebe 1be8 cdbe 3fc1 c3be 36ae 953e
000003d0: 2f24 fb3d 7429 633e 8cc2 88be 3136 6e3e
000003e0: e9cb b33e cedc 5f3e e62e 913e cf54 393e
000003f0: 0974 cbbe 1637 583e e509 983e 1681 c6be
-0.3450123 -0.3179972 -0.260844 -0.26726705 0.22161958 0.29119638 -0.45292392 -0.33825824
0.24014576 0.2744373 -0.33225757 -0.4442445 0.14790629 -0.19447383 -0.4548845 -0.5733311
-0.30395362 0.2962786 0.2524811 -0.37490866 0.21285625 -0.23863414 -0.29954067 -0.38664433
0.36978108 -0.3581195 0.120730385 -0.2954641 0.34052742 -0.22696553 0.2159652 0.17289259
-0.2390086 0.20709215 -0.52271813 0.17742006 0.19414449 -0.38262296 0.2593656 0.20900786
0.26763052 -0.5391693 -0.21818964 -0.32055798 -0.4948998 -0.377097 0.17687078 -0.6028371
0.3704824 0.14622255 0.10531005 -0.3542257 -0.29542798 -0.5103178 -0.27059117 0.2704867
-0.40033934 -0.39368513 -0.49154216 0.16970022 0.17723908 -0.23123103 -0.3537292 0.261752
0.2564683 0.33259454 0.08750158 -0.32893363 0.14519311 -0.47566566 -0.48996267 0.25791737
-0.34621832 0.16470486 -0.086285636 -0.43276834 -0.41160658 -0.3603685 -0.24323387 0.19953832
-0.28976 0.108840756 0.233219 -0.30482072 0.30103436 -0.26947317 0.18449558 -0.39755967
-0.46441832 0.082909465 -0.34152898 -0.34995982 -0.42259333 -0.444266 -0.5280853 0.1025342
-0.34937945 0.21984616 -0.45191997 0.31600764 0.18650341 -0.4175276 -0.3157608 -0.27388132
0.2532255 0.33054554 -0.7131624 0.15547393 0.08577146 0.18109357 0.2972981 -0.36381403
0.2382965 0.2633653 0.15528654 -0.49551436 -0.034247763 -0.30288798 0.26623073 -0.31710568
-0.21703444 -0.2748804 -0.31381103 -0.38775778 0.39817318 -0.31970754 -0.40919703 0.2326599
0.14930883 0.2452625 0.31759638 0.15910931 -0.3876009 -0.31101507 0.39174813 0.2740828
-0.43953022 -0.26569018 0.25161093 0.25683627 -0.37024814 0.28949475 0.16087455 0.45277444
0.16396184 -0.23072633 -0.2533166 0.18112475 -0.49305084 0.3206889 0.25243425 0.22789814
-0.37393546 0.14741917 -0.44288707 0.13797365 -0.41076264 0.17219272 -0.26045117 -0.2190694
0.2938692 -0.35181442 0.2717607 -0.527063 -0.3345755 0.14628677 -0.4535551 -0.06927693
-0.090183154 0.24978638 0.20464435 0.15485083 0.36080483 0.2803304 -0.26907817 0.260469
-0.7456892 -0.19577993 -0.35969275 0.29518494 0.28862533 0.17280626 0.17435329 -0.5116926
0.2305327 0.16854292 0.30465776 -0.34740093 -0.39844254 0.20006242 0.28718463 -0.37619144
-0.37045637 -0.43179289 -0.1661955 0.20859112 -0.47738844 0.3071442 0.3871735 -0.34885356
0.2759035 -0.4951748 0.2603784 0.46265298 0.24072076 0.24078193 0.23184656 -0.49992228
0.35002193 -0.2746076 -0.30523974 0.1339189 -0.41352013 0.19603041 -0.33085242 0.22163588
0.16840325 -0.21969333 0.32441252 0.22437115 0.3439552 0.22387831 0.19144094 -0.4114062
0.27864465 -0.4604204 0.35023972 -0.3716378 -0.35303494 0.2567873 0.28887197 0.1836212
-0.41205734 -0.3256726 0.2457228 -0.42101258 -0.1446111 -0.54931396 -0.38541916 0.17925406
-0.15467697 -0.40216145 -0.38233373 0.29234475 0.12262761 0.22183782 -0.26710927 0.2326286
0.3511651 0.21861574 0.28356093 0.18098758 -0.39736965 0.21114764 0.2969505 -0.3877036

fc2.bias f4 [8]
00000000: cf30 ce3e 1724 bf3d 628f 0d3e 0d0b e53e
00000010: 3169 fd3e d3fc 1e3e 4e95 f53e f76c 1c3e
0.40271613 0.093330555 0.13824227 0.44734994 0.49494317 0.15526132 0.47965473 0.15275942

fc3.weight f4 [1, 8]
00000000: 04cb 643e 7455 85be 12a5 66be 4d14 793e
00000010: 373f 613e 9b4d 74be 214f 793e 4b04 68be
0.2234307 -0.26041758 -0.22523907 0.2432415 0.21996771 -0.23857729 0.24346592 -0.22657888
