model/cross_validation/hp_nested_cv/checkpoint/c004_c000_64_32_0.0001_32_0.2.pt (torch, 118103 bytes, 5 tensors)

fc1.weight f4 [64, 420]
0.036413904 -0.035030108 0.023298332 0.032603074 0.0052219825 0.011373273 0.0058930963 -0.006097722
-0.0063689104 -0.0058064815 -0.013316244 0.035547454 0.031541444 -0.022476887 0.012759467 0.022450255
0.015036787 0.01889364 -0.0031416558 -0.004956874 0.0036398352 0.009340945 -0.027487483 -0.01750214
-0.022471838 -0.011315595 0.016276076 0.0037159047 0.010175204 0.01768273 -0.03222773 0.012053864
-0.014069154 0.024589324 -0.012932658 0.0076274527 0.022088092 -0.046021946 0.00260756 -0.0028410421
-0.031534355 0.010041214 -0.02207581 -0.03050447 0.035087094 0.016259184 -0.011058556 -0.011744876
0.0065633655 0.009756383 0.005528733 -0.010475503 -0.015092407 0.015628917 -0.08160018 -0.00835159
-0.00062672707 -0.022923796 0.015916036 -0.016472876 0.014351321 -0.035564516 -0.02793773 -0.043097105
0.015014412 0.0035554962 0.026379056 0.02021391 -0.01432912 -0.0002844699 0.018987656 -0.008200382
0.008242595 -0.02808146 -0.027834136 0.021997988 0.0047804946 -0.014039886 0.012032547 -0.01249635
-0.024330098 -0.043110378 -0.049908955 -0.033134162 0.025890509 -0.039115254 -0.04445538 0.042872436
0.006751602 0.021205742 0.039991174 -0.05518149 0.042509455 -0.045609605 0.014225698 -0.012691117
0.0069539235 0.036993627 0.00539813 -0.0029933963 -0.03593211 -0.033523403 -0.025421713 -0.007534762
0.010288546 -0.03861284 0.01238657 0.003015702 -0.0052431994 -0.006862872 0.001851143 -0.003157621
0.055125527 0.0071994434 -0.0472004 -0.006044224 -0.06834793 0.046064895 0.004100034 -0.055181444
-0.03250726 0.17477374 -0.02020073 -0.022422433 -0.02606791 0.0590394 -0.1402611 0.03439437
-0.08550581 -0.014011156 -0.023160666 0.01211918 0.14389004 -0.014058097 -0.14296013 -0.02791464
-0.016819516 0.030061528 0.12976578 -0.01568024 0.05314585 0.17397211 0.119742274 -0.18591376
-0.050188083 0.10915474 -0.1046757 0.1365358 -0.11573613 0.0768465 0.084729 0.087596215
0.023006154 -0.16679864 -0.22134064 0.020939725 0.03837479 0.114660196 -0.10951659 -0.34346762
-0.0035836298 0.15706335 -0.10536246 0.0634699 0.0033712827 0.10697455 -0.13982384 -0.033397116
-0.16720471 0.0010289175 0.046468824 -0.003794552 -0.11597041 0.09412932 -0.25551495 0.032089274
0.019700464 -0.003673301 0.038335036 0.010608683 -0.04702282 0.15156044 -0.06306037 -0.10335264
0.07500577 -0.036591828 -0.13216935 0.060504165 -0.15112709 0.113050364 0.08649759 -0.03139607
-0.10178722 0.024038488 -0.20164216 -0.0366689 0.026682094 0.049953092 0.06962712 0.068656765
0.06057793 0.18000537 0.017335145 -0.0036973187 0.045554414 -0.017884031 -0.10076487 0.002553466
-0.17207026 0.07134986 0.024648959 0.04470212 -0.073022336 0.014278795 -0.2805477 -0.0008668498
0.015605728 -0.046496883 -0.0035729413 0.104924895 0.03966591 0.058918722 -0.02399944 0.00075571897
0.06940091 0.01603153 -0.12249128 -0.044146597 -0.076749876 0.007816589 0.082226306 -0.032003563
-0.003010346 -0.022973295 -0.1969598 -0.019327253 -0.029045686 0.0011584333 0.16555703 0.009382032
0.026509572 0.10427927 -0.00027090282 -0.030474845 0.025733354 -0.0032364423 -0.13196164 -0.02887607
-0.041014604 -0.006231553 0.019349204 0.010093725 0.005257671 -0.029843077 -0.20005915 0.015227792
00000000: bf26 153d bb7b 0fbd 25dc be3c cd8a 053d
00000010: 2a1d ab3b f756 3a3c e01a c13b 66cf c7bb
00000020: 4bb2 d0bb 4c44 bebb 602c 5abc 359a 113d
00000030: 9a31 013d 7321 b8bc 150d 513c 99e9 b73c
00000040: db5c 763c d6c6 9a3c 3de4 4dbb 466d a2bb
00000050: 4d8a 6e3b c30a 193c 6e2d e1bc a660 8fbc
00000060: dc16 b8bc 0c65 39bc 6855 853c 8986 733b
00000070: e6b5 263c 5fdb 903c 3901 04bd 927d 453c
00000080: 4f82 66bc 8d6f c93c 80e3 53bc b6ef f93b
00000090: 16f2 b43c 8281 3cbd 99e3 2a3b c730 3abb
000000a0: 2b2a 01bd e783 243c 54d8 b4bc 83e4 f9bc
000000b0: 7cb7 0f3d fb31 853c f22e 35bc 956d 40bc
000000c0: 8011 d73b 3cd9 1f3c 602a b53b 72a1 2bbc
000000d0: 2546 77bc 3708 803c ff1d a7bd 1bd5 08bc
000000e0: f14a 24ba afca bbbc 5962 823c 20f2 86bc
000000f0: ce21 6b3c 19ac 11bd abdd e4bc 9786 30bd
00000100: 02ff 753c 5403 693b e418 d83c a497 a53c
00000110: afc4 6abc e724 95b9 008c 9b3c e55a 06bc
00000120: f30b 073c 170b e6bc 6a04 e4bc 2035 b43c
00000130: b2a5 9c3b 8d07 66bc 2924 453c 7ebd 4cbc
00000140: ea4f c7bc 8294 30bd 556d 4cbd b0b7 07bd
00000150: 5518 d43c 5137 20bd d816 36bd 029b 2f3d
00000160: 8b3c dd3b aab7 ad3c c9cd 233d fc05 62bd
00000170: 651e 2e3d 23d1 3abd e712 693c 67ee 4fbc
00000180: bddd e33b a186 173d cce2 b03b db2c 44bb
00000190: 8c2d 13bd d64f 09bd 3241 d0bc 2ae6 f6bb
000001a0: 4a91 283c 7f28 1ebd 0af1 4a3c 15a3 453b
000001b0: 25cf abbb f1e1 e0bb 0da2 f23a 17f0 4ebb
000001c0: 4ecb 613d 4fe9 eb3b 3555 41bd a00e c6bb
000001d0: 00fa 8bbd 8bae 3c3d 9459 863b f005 62bd
000001e0: 5526 05bd e3f7 323e 007c a5bc 40af b7bc
000001f0: 5f8c d5bc 4cd3 713d 9ba0 0fbe 1ce1 0c3d
00000200: ac1d afbd 0c8f 65bc 70bb bdbc 868f 463c
00000210: e957 133e ef53 66bc 2464 12be 3ead e4bc
00000220: 15c9 89bc 9843 f63c 52e1 043e d973 80bc
00000230: 76af 593d bf25 323e 703b f53d 2d60 3ebe
00000240: 0592 4dbd 858c df3d 3760 d6bd 0ad0 0b3e
00000250: 1007 edbd b361 9d3d 6686 ad3d a565 b33d
00000260: 6777 bc3c 43cd 2abe 1fa7 62be c989 ab3c
00000270: e22e 1d3d f7d2 ea3d 3c4a e0bd fdda afbe
00000280: 55db 6abb 37d5 203e 46c8 d7bd 82fc 813d
00000290: bdf0 5c3b 7915 db3d fb2d 0fbe 6acb 08bd
000002a0: b637 2bbe bedc 863a 1856 3e3d 05ae 78bb
000002b0: e581 edbd dfc6 c03d dbd2 82be 0b70 033d
000002c0: de62 a13c c4bb 70bb 3305 1d3d 0bd0 2d3c
000002d0: 009b 40bd a932 1b3e cc25 81bd 8daa d3bd
000002e0: a09c 993d 50e1 15bd 6757 07be 37d3 773d
000002f0: 0fc1 1abe f386 e73d a625 b13d 2a99 00bd
00000300: d175 d0bd 5dec c43c 487b 4ebe 2132 16bd
00000310: 6894 da3c 9d9b 4c3d aa98 8e3d eb9b 8c3d
00000320: 9020 783d 5453 383e 6f02 8e3c b74e 72bb
00000330: 4497 3a3d 8881 92bc d05d cebd 0d58 273b
00000340: 3033 30be e01f 923d 9dec c93c 9219 373d
00000350: bc8c 95bd 9bf1 693c f3a3 8fbe 4e3d 63ba
00000360: 2baf 7f3c 8473 3ebd 0228 6abb dde2 d63d
00000370: b978 223d c254 713d 799a c4bc 711b 463a
00000380: 1022 8e3d 8e54 833c b5dc fabd 10d3 34bd
00000390: 0a2f 9dbd 2711 003c 4466 a83d 2b16 03bd
000003a0: 3a49 45bb 7e32 bcbc d4af 49be 3054 9ebc
000003b0: 38f1 edbc 92d6 973a c887 293e 18b7 193c
000003c0: 9a2a d93c 5f90 d53d f607 8eb9 62a6 f9bc
000003d0: c1ce d23c 7e1a 54bb f420 07be 828d ecbc
000003e0: eefe 27bd 0e32 ccbb 3982 9e3c 2760 253c
000003f0: 8a48 ac3b 7879 f4bc 4edc 4cbe fd7d 793c

fc1.bias f4 [64]
-0.031012079 -0.046935767 -0.07810141 -0.0141369775 -0.058451798 -0.059234496 -0.07711609 -0.026886633
-7.540279e-05 -0.04180891 -0.07911438 -0.061921846 -0.021821395 -0.054573033 -0.03321238 -0.06691454
-0.07818739 -0.06819833 -0.07365762 -0.08863086 -0.038538363 -0.006865081 -0.06865201 -0.027992534
-0.08003669 -0.032401968 -0.016233025 -0.020312147 -0.000860927 -0.024987815 -0.068739645 -0.061553217
-0.06175428 -0.07254092 -0.056087274 -0.031109545 -0.031823073 -0.08412087 -0.01732099 -0.035462294
-0.044129636 -0.023021972 -0.029541334 -0.023629446 -0.031447448 -0.05820069 -0.05540876 -0.032283753
-0.023121879 -0.05587003 -0.04760738 -0.0774327 -0.029265257 -0.06538936 -0.07668791 -0.08840893
-0.070138045 -0.062698625 -0.04039809 -0.024867523 -0.07190236 -0.06528057 -0.07132109 -0.080901645
00000000: 0b0d febc b83f 40bd a2f3 9fbd c89e 67bc
00000010: 276b 6fbd df9f 72bd 0aef 9dbd 5b41 dcbc
00000020: 9121 9eb8 d23f 2bbd b806 a2bd c3a1 7dbd
00000030: c8c2 b2bc f987 5fbd b409 08bd 7e0a 89bd
00000040: b620 a0bd 91ab 8bbd ced9 96bd 1984 b5bd
00000050: 67da 1dbd 79f4 e0bb 6d99 8cbd 9950 e5bc
00000060: 47ea a3bd edb7 04bd 1ffb 84bc a965 a6bc
00000070: d5af 61ba 3fb3 ccbc 5fc7 8cbd 3a1f 7cbd
00000080: 0ef2 7cbd 5590 94bd c5bb 65bd 72d9 febc
00000090: e958 02bd 9047 acbd c0e4 8dbc e940 11bd
000000a0: 47c1 34bd 9398 bcbc ab00 f2bc 8a92 c1bc
000000b0: 0acf 00bd d963 6ebd 4cf4 62bd f83b 04bd
000000c0: 186a bdbc f9d7 64bd f5ff 42bd 0995 9ebd
000000d0: b1bd efbc dbea 85bd 8d0e 9dbd be0f b5bd
000000e0: 89a4 8fbd 2368 80bd 7878 25bd fab6 cbbc
000000f0: 8b41 93bd d2b1 85bd cb10 92bd c3af a5bd

fc2.weight f4 [32, 64]
-0.24546668 0.19690497 0.11553461 -0.2995075 -0.24133712 -0.2748965 -0.23799682 -0.27642825
-0.25197092 0.20128825 -0.36931592 -0.34158915 -0.31969523 0.104936816 0.093269505 0.077572025
0.20905012 -0.17044996 -0.2918393 -0.22776692 0.13195273 -0.33917758 -0.34112957 -0.34579772
-0.31783408 0.15376392 -0.29976046 -0.3306841 -0.3212371 -0.30891874 0.04989531 0.060461123
-0.3503677 0.13015042 -0.2456174 -0.3543058 -0.26571065 0.090999216 -0.24094181 0.15042168
-0.3354563 0.23685125 0.068727605 0.22052075 -0.3626302 -0.24104032 0.18181105 0.059353698
0.23919307 0.13931608 0.093933 0.11264149 -0.28807682 0.07552462 -0.3785191 0.14328161
-0.22315131 -0.45213905 -0.25817907 0.16175872 0.103739284 -0.36668074 0.122410074 -0.2497939
-0.21671943 0.05751349 0.12051438 -0.24168934 -0.26086265 -0.29431248 -0.19812469 -0.30680776
-0.28762174 0.16558696 -0.19771212 -0.20999365 -0.24258173 0.13923657 0.17561534 0.001124346
0.13062075 -0.23092002 -0.23773217 -0.15134415 0.06950009 -0.2924723 -0.30304214 -0.25377938
-0.27373335 0.09910765 -0.2712048 -0.17293467 -0.27524516 -0.19779162 0.07775809 0.108663
-0.30232972 0.07734264 -0.18132468 -0.16309041 -0.30889767 0.09529374 -0.3016661 0.09674728
-0.31581792 0.19167848 0.17345308 0.09412752 -0.2678403 -0.23100798 0.13171016 0.15612087
0.1449446 0.17958303 0.15641125 0.21639343 -0.23419327 0.08791109 -0.4346955 0.2296983
-0.31430084 -0.21980932 -0.23418258 0.19719137 0.10466779 -0.19530827 0.13996999 -0.35327202
0.12970953 -0.20848925 -0.3342769 0.11032123 0.20054106 0.05885253 0.016612805 0.23712555
0.10520607 -0.21325871 0.056281563 0.09674883 0.17666928 -0.18782683 -0.36005467 -0.1627602
-0.11934719 0.16504383 0.06902136 0.11644902 -0.20715578 0.1246186 0.21856372 0.23606014
0.19788434 -0.13808055 0.1689832 0.19822034 0.038315915 0.20193009 -0.26349932 -0.08671402
0.124824196 -0.17041713 0.16519958 0.14543185 0.14134757 -0.1878352 0.21386684 -0.14806648
0.18094182 -0.30636585 -0.25931177 -0.2733641 0.104088195 0.17043427 -0.24302037 -0.1647195
-0.33632705 -0.23303232 -0.24947172 -0.32214466 0.15168568 -0.26843107 0.20278642 -0.2366429
0.16651295 0.22853613 0.11762147 -0.21582185 -0.19295175 0.22951822 -0.25533262 0.13526879
0.20878758 -0.23341358 -0.17955409 0.15142955 0.16139182 0.0897505 0.16600667 0.17225815
0.11015366 -0.1422146 0.17537785 0.12909877 0.17085785 -0.18409324 -0.26215354 -0.21278882
-0.16019599 0.11601317 0.11557672 0.235504 -0.09033935 0.13823773 0.10202692 0.10104526
0.1727499 -0.18438603 0.15113558 0.14213145 0.09398399 0.10818498 -0.12832776 -0.13510571
0.08947517 -0.28315437 0.16532527 0.11088566 0.13823445 -0.18109389 0.1645069 -0.17823867
0.14675441 -0.3450599 -0.26521334 -0.18629672 0.11117509 0.11568464 -0.16540253 -0.14985636
-0.17174652 -0.15857063 -0.296415 -0.21946007 0.11279757 -0.18417226 0.20623447 -0.1625029
0.25051028 0.1784508 0.16500185 -0.15574557 -0.28731042 0.2723222 -0.108473964 0.14591675
00000000: 9e5b 7bbe 75a1 493e 699d ec3d 0c59 99be
00000010: 1421 77be 3cbf 8cbe 70b5 73be 0188 8dbe
00000020: 5502 81be 821e 4e3e fa16 bdbe c6e4 aebe
00000030: 18af a3be 1de9 d63d 1504 bf3d 15de 9e3d
00000040: 3c11 563e 6f8a 2ebe f66b 95be bb3b 69be
00000050: 9e1e 073e afa8 adbe 89a8 aebe 660c b1be
00000060: 26bb a2be 4a74 1d3e 347a 99be 6d4f a9be
00000070: 3079 a4be 992a 9ebe 065f 4c3d 15a6 773d
00000080: 6563 b3be 2746 053e 2183 7bbe 9267 b5be
00000090: 3a0b 88be cc5d ba3d 73b9 76be 2408 1a3e
000000a0: eec0 abbe 2289 723e 0fc1 8c3d 31d0 613e
000000b0: aaaa b9be 46d3 76be ad2c 3a3e dd1c 733d
000000c0: 07ef 743e e0a8 0e3e f25f c03d 95b0 e63d
000000d0: ce7e 93be a7ac 9a3d 41cd c1be 6ab8 123e
000000e0: c781 64be c57e e7be 0c30 84be 14a4 253e
000000f0: 4375 d43d 94bd bbbe 22b2 fa3d f9c9 7fbe
00000100: b3eb 5dbe 4493 6b3d 3ed0 f63d 697d 77be
00000110: ca8f 85be 20b0 96be 33e1 4abe e815 9dbe
00000120: 2843 93be a18f 293e 0c75 4abe 9308 57be
00000130: 5867 78be 0894 0e3e 82d4 333e cb5e 933a
00000140: 72c1 053e 4c76 6cbe 1070 73be f6f9 1abe
00000150: 1056 8e3d eebe 95be 5728 9bbe 5fef 81be
00000160: c726 8cbe f4f8 ca3d 5bdb 8abe c915 31be
00000170: efec 8cbe e389 4abe a23f 9f3d b58a de3d
00000180: f6ca 9abe d165 9e3d 2dad 39be 2c01 27be
00000190: d627 9ebe 5d29 c33d fb73 9abe 7023 c63d
000001a0: e3b2 a1be 5d47 443e af9d 313e eec5 c03d
000001b0: 5d22 89be 5b8d 6cbe 07df 063e 26de 1f3e
000001c0: 5b6c 143e 9de4 373e 452a 203e 3d96 5d3e
000001d0: 5cd0 6fbe bb0a b43d 6990 debe 0836 6b3e
000001e0: 0aec a0be b215 61be 8fcd 6fbe 89ec 493e
000001f0: 115c d63d e4fe 47be 4b54 0f3e 12e0 b4be
00000200: 93d2 043e 357e 55be 5826 abbe 19f0 e13d
00000210: a35a 4d3e 5a0f 713d 9417 883c 0ad1 723e
00000220: 4876 d73d 7e60 5abe 7f87 663d 4024 c63d
00000230: cbe8 343e ad55 40be 1659 b8be 9caa 26be
00000240: 4d6c f4bd 4001 293e 125b 8d3d d37c ee3d
00000250: a520 54be 0938 ff3d 2bcf 5f3e c0b9 713e
00000260: 31a2 4a3e fd64 0dbe ef09 2d3e 46fa 4a3e
00000270: 26f1 1c3d c3c6 4e3e 62e9 86be 1f97 b1bd
00000280: d4a3 ff3d d481 2ebe 142a 293e 16ec 143e
00000290: 6bbd 103e df57 40be e9ff 5a3e bd9e 17be
000002a0: d048 393e fcdb 9cbe 83c4 84be 61f6 8bbe
000002b0: 312c d53d 5286 2e3e 55da 78be 3bac 28be
000002c0: 0f33 acbe 06a0 6ebe 8475 7fbe 25f0 a4be
000002d0: 7e53 1b3e cc6f 89be 3ea7 4f3e 8452 72be
000002e0: 5f82 2a3e 6005 6a3e 86e3 f03d 6700 5dbe
000002f0: 2595 45be d306 6b3e f5ba 82be e783 0a3e
00000300: 69cc 553e f803 6fbe 07dd 37be 5910 1b3e
00000310: e643 253e 1ccf b73d a7fd 293e 7164 303e
00000320: 3e98 e13d b4a0 11be 4096 333e 7832 043e
00000330: 5cf5 2e3e f082 3cbe fd38 86be 50e5 59be
00000340: 6b0a 24be 5098 ed3d 7db3 ec3d f627 713e
00000350: d603 b9bd 318e 0d3e 7df3 d03d d1f0 ce3d
00000360: 5ae5 303e b1cf 3cbe 49c3 1a3e e88a 113e
00000370: ae7a c03d 1690 dd3d 5a68 03be 2759 0abe
00000380: c23e b73d 9cf9 90be 074b 293e 0518 e33d
00000390: 558d 0d3e ad70 39be 7f74 283e 3384 36be
000003a0: ca46 163e b1ab b0be 0bca 87be 91c4 3ebe
000003b0: c4af e33d 12ec ec3d 485f 29be f273 19be
000003c0: 52de 2fbe 5760 22be b5c3 97be 24ba 60be
000003d0: 6a02 e73d a797 3cbe 212f 533e 2967 26be
000003e0: e242 803e cebb 363e 3ff6 283e c47b 1fbe
000003f0: 5a1a 93be d16d 8b3e 9927 debd 336b 153e

fc2.bias f4 [32]
0.08772396 0.0898456 0.068166345 0.055239223 0.10205342 0.07832788 0.07155902 0.084481895
0.08096866 0.05680388 0.06812877 0.08981496 0.08945645 0.043992348 0.076547794 0.070099264
0.09246748 0.097127005 0.07513661 0.053548038 0.082025364 0.09014322 0.06809069 0.087059654
0.069633 0.058864806 0.090337 0.051947586 0.07514564 0.06537078 0.116312146 0.07810373
00000000: 9fa8 b33d f800 b83d cc9a 8b3d 8642 623d
00000010: 6201 d13d 5e6a a03d 898d 923d d804 ad3d
00000020: e6d2 a53d 2fab 683d 1987 8b3d e8f0 b73d
00000030: f134 b73d 5231 343d 17c5 9c3d 3490 8f3d
00000040: 975f bd3d 86ea c63d 39e1 993d 3055 5b3d
00000050: eafc a73d 029d b83d 2273 8b3d 554c b23d
00000060: bf9b 8e3d 391c 713d 9b02 b93d fec6 543d
00000070: f5e5 993d 1ee1 853d 1035 ee3d d9f4 9f3d

fc3.weight f4 [1, 32]
0.44972023 0.49725527 -0.4444968 -0.466691 0.43589982 0.47960532 -0.44025332 0.50790787
-0.45888746 -0.39941955 -0.5056153 0.5129016 0.48809305 -0.4497888 -0.51837623 -0.5559156
0.44904122 0.542453 -0.50718623 -0.4860438 -0.5601322 0.51668274 -0.54901433 0.45462033
-0.5306708 -0.4446652 0.48540026 -0.49051183 -0.3881761 -0.492638 0.43995655 -0.470141
00000000: bb41 e63e 3e98 fe3e 1695 e3be 1ff2 eebe
00000010: 432e df3e d48e f53e e268 e1be 4006 023f
00000020: 4cf3 eabe b880 ccbe 0170 01bf 854d 033f
00000030: 55e7 f93e b84a e6be 4eb4 04bf 7c50 0ebf
00000040: bbe8 e53e 33de 0a3f f5d6 01bf bcda f8be
00000050: d364 0fbf 5245 043f 348c 0cbf ffc3 e83e
00000060: 0bda 07bf 28ab e3be 6286 f83e 5e24 fbbe
00000070: 05bf c6be 0c3b fcbe fc41 e13e 52b6 f0be
