model/cross_validation/hp_nested_cv/checkpoint/c004_c001_128_4_0.01_32_0.2.pt (torch, 219607 bytes, 5 tensors)

fc1.weight f4 [128, 420]
00000000: 1e08 a23f 562c b9bf b6e2 02c0 a233 4c3f
00000010: de9d 82bf 5412 54c0 edaa a340 f39d 5fc0
00000020: abed 873f 2c6a 17c0 8eff fbbf 70de 0340
00000030: 06fe 1ec0 62cf 82c0 9138 263e 2385 86c0
00000040: f8af 80c0 430f 65c0 e163 6bbf 0772 03be
00000050: 88d4 21c0 1c75 9b40 d7fb 2240 bb56 22c0
00000060: 8a7b 79bc 9215 99c0 ef4e 1ac0 f36e 51c0
00000070: dccd 883e 5c41 46c0 0fc2 74bf 2554 c4bd
00000080: 6ec4 373f 5d93 1bbd 4650 97c0 4970 8cc0
00000090: 7765 e4bf 495a 80bf 3983 cabf 8fee 17c0
000000a0: 5361 efbf 23e8 bbbf 2cd3 acbf 7d2e 89bf
000000b0: 2fd6 19c0 625b 7bc0 0bb5 d240 60b5 21c0
000000c0: 5b54 44bf e707 bebf 3065 02c0 1738 993e
000000d0: 21b3 dbc0 4704 ffbf aea2 cbbf d7a2 27c0
000000e0: 021d 2ec0 8323 73bf 4b69 0bc0 d8ec cd3f
000000f0: 1540 05c0 f7a1 313f 1cec 18c0 0891 70c0
00000100: 31e4 b3c0 69b3 72c0 144e f1be e7e2 8fc0
00000110: d063 3a3e 88e0 9f3f bb29 3b40 92cd c13f
00000120: 4954 32c0 3ebc 5ac0 d0b1 3c3f 5990 43c0
00000130: 9333 29c0 3ccb b23f 9a94 4e3f 6256 39bf
00000140: e562 abbf 319f 37c0 3da6 17c0 781b 483e
00000150: 2e4a 2440 01b7 0f3e 47ad cdbe 6b0e 86c0
00000160: ee29 a3bf cc83 75c0 98c4 ff3f dcdb d8be
00000170: 9dbb 58c0 a570 dd3f 17a1 76be 120f afbb
00000180: 2919 d0bf ccf0 61c0 d59b 74c0 3025 7fbf
00000190: fa42 d7be 3a45 e63f 6aa5 b9c0 4c17 a9bf
000001a0: 3f02 fabf 7cf8 ae3f 1484 8c3f 3f2e 58be
000001b0: 38cd 41c0 d5fc 883f 63d9 863e 11c7 b4c0
000001c0: fc3b 9ec0 4588 4cc0 0622 4e40 e3ce 5440
000001d0: 3cb7 8ac0 19e3 adc0 b141 47c0 5001 a3c0
000001e0: 5805 bcbd 0ef7 24c1 2f21 0c40 dea2 24c1
000001f0: 3bcb a840 2b55 0ec1 3462 eabc 33af 713f
00000200: e2aa 33c0 c55b fd3f a567 1940 543c cf3f
00000210: e637 6ac1 8500 b5c0 8992 62c0 9311 6ec0
00000220: d467 a4c0 ce23 7240 2758 91c0 00fb 87be
00000230: 725c 0541 b0ae ffc0 4984 43c1 788a 97c0
00000240: 75d7 d73f 54da b1c0 43c0 bfc0 30c3 d0bf
00000250: c95d 84c0 b554 1a3e 25d1 6ac0 6993 04c1
00000260: c65e 1141 4853 33be 1e44 0dc1 485d cfbf
00000270: b9df 27c0 42d0 72c0 94df d6c0 c847 a0bf
00000280: a324 28c0 9492 20c1 c15b c03e 373e b5bf
00000290: 945a 3a40 5349 efc0 3cf0 0240 d6f6 18c0
000002a0: 43a6 0440 3a84 0ac1 0acd 8ec0 3f4f c03f
000002b0: a9e4 e83f 80db cac0 9c85 d540 093e dac0
000002c0: 3aea f4c0 da0e 8cc0 feb9 bb3f 839c 5340
000002d0: cdbf aabf 0444 15c1 f5c8 a6c0 028e ca3f
000002e0: feba 1cc0 9b80 a1bf 67e3 1740 9f3f b3be
000002f0: 74aa b5c0 d6c5 ffbd d91f 85c0 818f 8b3f
00000300: b241 cc3f 9c4a 31c0 46a6 cabe 68cf 90c0
00000310: 19fa eec0 7a2c 1cc0 8f4f be3f 08f4 523d
00000320: ba86 6ec0 4ffc f2c0 7b63 e3bf fc05 9640
00000330: a4c6 18bf eb0a c6bc be17 44c0 ddb3 64c0
00000340: 5a94 2d3f 12e1 a1c0 0eb1 cfc0 d8d2 423e
00000350: 3c7b 4940 c79f be3e 7777 bebf b7ff 0bc0
00000360: bc1f e4be c252 bcc0 bb23 1cc0 7e27 b8c0
00000370: d6ac 803f 397b 07c1 1096 3dc0 d993 23c0
00000380: 3339 9dc0 7910 9840 e81d 893c f92e 28c0
00000390: f37a 97c0 cdb0 1ac0 2cf3 76c0 bdfd 40bf
000003a0: 3b7e 6440 3530 2ebf dc05 86c0 bb29 c0bf
000003b0: e678 0040 d961 833f fc1c 00c0 0541 6ec0
000003c0: 4fe6 e1be 2b1c 06c1 889c 89c0 60c4 21bd
000003d0: 9c81 0fc1 6290 f9c0 16e6 3b3f ff4a abbf
000003e0: a573 733f 87e2 19bf e01c a9c0 72dc 25be
000003f0: f673 d3bf 5d7b 283f 2129 fc3f c7a4 58bf
1.2658727 -1.4466655 -2.0450873 0.79766285 -1.0204427 -3.3136187 5.114615 -3.4940155
1.0619406 -2.3658552 -1.9687364 2.0604515 -2.4842544 -4.0878153 0.16232516 -4.203752
-4.0214806 -3.5790565 -0.9194928 -0.12836467 -2.5285969 4.8580456 2.546621 -2.5365436
-0.015227208 -4.783883 -2.4110677 -3.2723968 0.26719558 -3.0977392 -0.9560861 -0.09586362
0.717841 -0.037982333 -4.728549 -4.3887067 -1.7843465 -1.0027553 -1.5821296 -2.3739355
-1.8701576 -1.4680218 -1.3501945 -1.0717312 -2.4036977 -3.9274526 6.5846 -2.5266953
-0.76691216 -1.4846162 -2.037426 0.29925606 -6.8656163 -1.992318 -1.5909021 -2.619314
-2.7205205 -0.9497606 -2.1783016 1.6087904 -2.0820363 0.69387764 -2.389411 -3.758852
-5.6216054 -3.7922003 -0.4712988 -4.496448 0.18202138 1.2490396 2.924422 1.514086
-2.7863944 -3.4177394 0.7370882 -3.0556853 -2.6437728 1.3968272 0.806955 -0.72397435
-1.3389555 -2.8690913 -2.3695214 0.19541728 2.5670276 0.14034654 -0.40171263 -4.18926
-1.2747171 -3.8361692 1.9981871 -0.4235524 -3.386451 1.7300001 -0.24084888 -0.0053423727
-1.6257678 -3.530322 -3.8220112 -0.9966612 -0.42043287 1.7989876 -5.801442 -1.3210235
-1.9531935 1.3669581 1.0977807 -0.21111391 -3.0281506 1.0702158 0.26337728 -5.6493
-4.9448223 -3.1958172 3.2208266 3.3251274 -4.3348675 -5.433972 -3.1133845 -5.09391
-0.09180707 -10.310316 2.1895254 -10.2897625 5.2748084 -8.895793 -0.02861128 0.9440796
-2.8073049 1.9793631 2.396951 1.6190286 -14.638647 -5.6563134 -3.5401938 -3.7198226
-5.1376743 3.7834353 -4.542011 -0.26558685 8.33507 -7.990074 -12.219796 -4.735653
1.6862627 -5.5579014 -5.9922194 -1.6309566 -4.1364484 0.15071376 -3.6690152 -8.285989
9.085638 -0.17512238 -8.82913 -1.6200342 -2.62303 -3.793961 -6.7147923 -1.2521906
-2.6272361 -10.035786 0.37570003 -1.4159611 2.9117785 -7.4777007 2.0459127 -2.3900657
2.0726478 -8.657282 -4.462529 1.5024184 1.8194782 -6.3392944 6.6725597 -6.8200727
-7.653592 -4.376813 1.4666135 3.3064277 -1.3339783 -9.329105 -5.212031 1.5824587
-2.448913 -1.2617372 2.3732545 -0.35009477 -5.6770573 -0.12488906 -4.1601377 1.0903169
1.5957549 -2.7701788 -0.39579982 -4.525318 -7.4680295 -2.4402146 1.4868029 0.051502258
-3.726973 -7.5932994 -1.7764734 4.6882305 -0.596781 -0.024175128 -3.063949 -3.573478
0.6780449 -5.0587244 -6.490363 0.19025743 3.1481466 0.37231275 -1.4880208 -2.1874826
-0.4455546 -5.8851023 -2.4396808 -5.754821 1.0052745 -8.467584 -2.962284 -2.555899
-4.9132323 4.752011 0.016737893 -2.627867 -4.7337584 -2.417041 -3.858592 -0.75387174
3.5702045 -0.6804231 -4.1882153 -1.5012735 2.007379 1.0264236 -2.001769 -3.7227185
-0.44121024 -8.381877 -4.300358 -0.03949392 -8.969143 -7.798875 0.7339796 -1.3382262
0.95098335 -0.6011128 -5.284775 -0.16197374 -1.6519763 0.6581324 1.9700052 -0.8462643

fc1.bias f4 [128]
00000000: 1be4 9940 7396 53c1 b657 55c1 ebf5 95c0
00000010: 4f57 cfc0 e6da 40c1 4561 90c1 1259 df3f
00000020: 5b2b e7bf b4ac 9ec1 01be 8fc0 c29d 66c1
00000030: f5bf e3c0 7f59 a440 7c25 2c40 536f afc1
00000040: cdad 8cc1 278c 94c1 f72b 10bf 7a2d 3040
00000050: c95e 4040 37e5 02c0 3503 84c1 ef51 9040
00000060: 18ea 97c1 d21e a0c1 5957 34c1 3401 9e3f
00000070: e729 8540 ff83 65c1 da27 5ec1 15c0 94c1
00000080: c7dd 59c1 1990 91c0 73d4 4dc1 c74f 12c1
00000090: 66e7 90bf 0366 2d3e 72f1 df3f 184b 52c1
000000a0: 6d48 81c1 cf47 ccc0 7b64 aec1 478f 53c0
000000b0: 78a0 a440 a58e a7c0 bb81 67c1 b7cd 82c1
000000c0: 52a5 cac0 42a3 aec1 1a15 9340 a046 be3f
000000d0: ec1f d5be a811 cdc0 4fb3 40bf 4b6d 99c1
000000e0: e858 a8c1 98d5 853f 9fc6 07c1 5993 acc0
000000f0: 03be 7a40 517e 45c1 9793 80c1 eab6 3ac1
00000100: ba45 6fc1 a301 84c1 da19 97c1 1243 e43e
00000110: 2110 68c1 e0d5 733f a04e 193f 234f 04c1
00000120: 591a 0040 6189 99c1 9be5 8f40 6e07 edc0
00000130: 89e3 97c1 529c 1640 d587 ed3f 4d55 8bc1
00000140: 8f32 30c1 734d 35c1 b9a5 ed3f f2bf b3c1
00000150: 24ce 70c1 4df7 5240 9207 a040 77ab ac3f
00000160: 44af 89c1 b325 5ec0 c64a 51c1 9a56 83c0
00000170: 25d9 0ec1 a09c 9cbf 971f 1d40 d59c 9640
00000180: a163 0dc1 2913 7c40 da8e 78c1 f41b 6fc1
00000190: a189 90c1 31cf 053f 0252 97c0 1ebc b2c0
000001a0: 64a7 a240 1fd7 82c1 a47f 30bf 78d8 2840
000001b0: 8f73 4dc1 2d2e f240 b8b5 90c1 29b5 62c1
000001c0: 18e9 b3bf 484b 9cc0 5418 babf 9df5 a940
000001d0: 0b23 0640 e8cc 7ac1 e6c3 a4c1 50f2 3d40
000001e0: 1502 75c1 e40d 9dc1 129a dcbe 23b7 5ec1
000001f0: 89be 92be 75b8 8040 a6d6 6d3f f1cf 94be
4.809095 -13.224231 -13.333914 -4.6862693 -6.479408 -12.053442 -18.047495 1.7449057
-1.8060106 -19.834328 -4.491944 -14.413515 -7.1171823 5.135925 2.6897879 -21.929358
-17.584864 -18.568434 -0.56317085 2.7527757 3.0057852 -2.0452402 -16.501566 4.5100017
-18.989304 -20.015049 -11.271325 1.2344117 4.161365 -14.344726 -13.884729 -18.59379
-13.616645 -4.54884 -12.8643675 -9.144477 -1.1320617 0.16933446 1.7495558 -13.143333
-16.160364 -6.3837657 -21.799063 -3.30562 5.1445885 -5.2361627 -14.4691725 -16.350447
-6.3326807 -21.829716 4.596326 1.4865303 -0.41625917 -6.4084053 -0.75273603 -19.178366
-21.043411 1.0455809 -8.4859915 -5.392987 3.9178474 -12.343339 -16.072065 -11.669657
-14.954523 -16.5008 -18.887623 0.4458242 -14.503938 0.9524822 0.598856 -8.2693205
2.0016081 -19.19208 4.496778 -7.407157 -18.986101 2.353291 1.8557078 -17.41665
-11.012343 -11.3314085 1.85662 -22.468723 -15.050327 3.296344 5.000924 1.3489827
-17.210579 -3.471051 -13.080755 -4.1043215 -8.928014 -1.2235298 2.455053 4.7066445
-8.836823 3.9386694 -15.534876 -14.9443245 -18.067202 0.52269274 -4.7287607 -5.5854635
5.0829334 -16.35504 -0.68944764 2.6382122 -12.840713 7.5681367 -18.08873 -14.169229
-1.405551 -4.8841896 -1.4538674 5.311232 2.0958889 -15.675026 -20.595654 2.9679146
-15.313008 -19.631783 -0.43086296 -13.919711 -0.28660992 4.0225167 0.9290565 -0.29064897

fc2.weight f4 [4, 128]
00000000: fc21 73bf 6ff0 3d3e 8c09 a93e 7860 01c0
00000010: 0246 57bf 0243 f93d c0c6 ed3e 4157 07bf
00000020: f6b7 76bf 72ee 303f a5d2 febd de7b 503e
00000030: f99d d4bf d5b8 37bd 73b1 b13d 067f 933e
00000040: 162f 713e e47c 7c3e 256f 693e 97f3 63bf
00000050: ba05 10bf 0c7a 7abf dc81 093f a37c 8dbf
00000060: bcb0 163f 9d5b b03d b5b1 4e3e d6b8 70bf
00000070: cc98 1ebf 44a6 4e3e ee1b b13e e732 6e3e
00000080: 06b8 193e 8ad7 73be 48d2 c23e 7c5d babe
00000090: 4db6 07bf fb30 72bf 0da0 20bf a4bc a23d
000000a0: 7771 a23e 1909 16bf 5ff5 943e bba8 ddbe
000000b0: 9d1f 59bf b5cd 3bbf 87ce 793e 06c6 a43d
000000c0: 5fe3 11c0 92c6 1a3e 9d0a b6be 223d d7be
000000d0: b441 9a3d 741d 90bf b312 96bf 0058 3a3e
000000e0: e777 c83d 0051 82bf 3f41 3dbf a668 41bf
000000f0: acd7 b1bf 6969 613e 0935 843e e853 fc3d
00000100: b4e3 0f3e d1bb ae3e 57c9 ec3e 5273 7abf
00000110: e7bf 563e b31c 73bf 06c3 e0bf f870 82bf
00000120: c6a7 d7bf 645d 893e f3a8 d7be c317 08bf
00000130: b052 0c3f 03d2 09bf 5b06 d4bf 5651 583e
00000140: 00a2 753e 76a9 bb3e 04d7 45bf 901a bcbc
00000150: 628e 693e 2065 61bf ec4c 13be 6c90 ddbe
00000160: 48ac a23e e5b9 c6be 9985 a33d c89b 08c0
00000170: ca3b 0cc0 62a1 8dbf a8d3 8fbf 0554 f9be
00000180: 9c73 86bf 172b 03c0 d5ec ea3e cc64 eb3e
00000190: 25aa 7c3e 2cb7 28bf 2079 8cbf 3cd9 2ebf
000001a0: e32e 84bf c4d0 bf3e 0ee5 a2bf 7a72 2fbf
000001b0: bda2 b93e 8a6b 23c0 3f16 4a3e f82c 953d
000001c0: cc4d 533d e726 27bf f933 07bf fdba 00bf
000001d0: d38f a7bf 0d75 a03e 0fe1 943e 0590 14bf
000001e0: 3cc6 383e 710d 3a3e a38a fdbf 8384 2a3e
000001f0: 4548 99bf e66c 61bf 0cb4 98bf 6031 0d3c
00000200: 7aa4 a8bf a255 073f 0bf2 b43e 7a10 e4bf
00000210: e9c3 44bf 5309 1c3e 58ad d03e e0c9 0dbf
00000220: d6c8 ecbf e7bb b33e bde8 47be 9a86 ae3e
00000230: 4277 84bf 72f5 d9bf e0de c2be c61c 6c3e
00000240: c5e4 0b3f c0c7 8f3e 1d30 ddbc 2eac 3cbf
00000250: 67a1 7abf cfa0 cdbf 6bd9 ed3c 9503 a6bf
00000260: da92 113f c323 1d3e e4cb ac3e 6dcd 5bbf
00000270: 5cb2 abbe 8ed9 1f3e a04b d13d 5052 eb3d
00000280: 3f3e 503d 1076 e9bf f1dd a33e f693 73bf
00000290: d192 ccbf 24f7 83bf f30c b3bf 97e8 573e
000002a0: 1ede 043e 84a1 06c0 c66e a23c 016f aabf
000002b0: b51e f1be ddad 66bf 3897 3abd 7674 b53e
000002c0: f5dd e4bf cf8c 5b3e 8911 2bbf bd14 47bf
000002d0: 2eb4 4cbd 3002 8abf 2fae f8bf ad29 483c
000002e0: 1d3e 193f 69d7 2abf 7d51 e4be 05af 1fbf
000002f0: cef4 d2bf 283e 443e 33df 8d3d f1dc 6f3e
00000300: 249a c73d 84c2 363e 6687 6a3e e58c 91be
00000310: 031c 9a3e 4ad9 9abf 4453 a6bf 7021 adbf
00000320: 4294 47bf d09d 823e 409f 1cc0 6896 68bf
00000330: a2e8 4a3d 5d43 09bf 16f1 52bf 61d5 ef3d
00000340: c023 cb3e e82f ac3e 06c6 88bf f1f4 923d
00000350: 9b8f c43e 4e0f 52bf ce95 c5be d367 13bf
00000360: 96b0 8d3e d952 cdbf f9dc b83e 57ae cbbf
00000370: 942c 21bf 9c31 a8bf 58a0 30bf b7a0 babf
00000380: 1db1 46bf 8e7d dabf 72f2 3c3e 00f6 d33e
00000390: cd4f c03c 4fae 96bf c739 54bf f64a fdbe
000003a0: 0ac1 3ac0 8f43 7e3e 9712 fbbf 3449 f0bf
000003b0: fc2e 5a3e a72f 8abf 9bc4 c83e 66da 413e
000003c0: f706 c9be ac03 e2be 923d 30bf bd99 83bf
000003d0: d8ea 7ebf b8bd 9c3e f74f e93e ae61 f9be
000003e0: 24fb c33e c7d0 373e eb70 2ec0 a132 5a3e
000003f0: ff89 11c0 2e31 01c0 428e 0dc0 8eba 753c
-0.9497373 0.1854875 0.33015096 -2.021513 -0.840912 0.12170984 0.46440697 -0.52867514
-0.9637445 0.6911384 -0.12442521 0.20359752 -1.661071 -0.044854004 0.08676424 0.2880785
0.23553118 0.24657017 0.22796305 -0.89043564 -0.5625874 -0.9784248 0.53713775 -1.1053661
0.58863425 0.08611224 0.20184977 -0.9403204 -0.619519 0.20180613 0.3459162 0.23261605
0.15011606 -0.2381269 0.38051057 -0.36399448 -0.53012544 -0.9460599 -0.6274422 0.079461366
0.31727192 -0.5860763 0.29093453 -0.43292794 -0.84813863 -0.7336076 0.2439519 0.080455825
-2.2795026 0.15114811 -0.35554972 -0.42038828 0.07532063 -1.1258988 -1.1724457 0.18197632
0.097884946 -1.0180969 -0.7392768 -0.75550306 -1.3893943 0.22012867 0.25821713 0.12320691
0.14051706 0.34127668 0.4624736 -0.97832215 0.20971642 -0.94965667 -1.7559516 -1.0190725
-1.6848075 0.26829064 -0.42121086 -0.5316126 0.5481367 -0.5383608 -1.656444 0.21124777
0.2398758 0.36652726 -0.7728121 -0.022961885 0.22808221 -0.8804493 -0.14384812 -0.43274248
0.31772065 -0.388137 0.07984466 -2.1345081 -2.1911492 -1.1064875 -1.1236467 -0.48696914
-1.0504031 -2.049505 0.45883814 0.4597534 0.2467428 -0.659045 -1.0974464 -0.68300223
-1.0326809 0.37463963 -1.2726152 -0.6853405 0.36256972 -2.5534387 0.19735049 0.07283968
0.051587865 -0.65293735 -0.5281368 -0.5028532 -1.3090767 0.31339303 0.29077956 -0.58032256
0.1804437 0.1816919 -1.9807934 0.16652112 -1.197518 -0.8805679 -1.1929946 0.008617729
-1.3175194 0.5286504 0.35340914 -1.7817528 -0.76861435 0.15237932 0.4075725 -0.5538616
-1.849879 0.35104296 -0.19522376 0.34087068 -1.0348895 -1.7028029 -0.38060665 0.23057851
0.5464595 0.28082085 -0.027000481 -0.73700225 -0.9790253 -1.60647 0.029034337 -1.2969843
0.568647 0.15345673 0.33749306 -0.8586033 -0.33534515 0.15610334 0.102195024 0.11490309
0.050840613 -1.8239155 0.32005265 -0.95147645 -1.5982305 -1.0309796 -1.3988327 0.2108482
0.12975356 -2.1036081 0.019828212 -1.3315126 -0.4709374 -0.90109044 -0.04555437 0.35440415
-1.7880236 0.21440433 -0.6682363 -0.7776602 -0.04997652 -1.0781918 -1.9428157 0.0122169675
0.598604 -0.6673494 -0.4459342 -0.62376434 -1.6480958 0.19164336 0.069273375 0.23424126
0.09746197 0.1784764 0.22903213 -0.28427806 0.30099496 -1.2097561 -1.2994161 -1.3525829
-0.779606 0.25511026 -2.4472198 -0.908545 0.049538262 -0.53618413 -0.8239912 0.11710621
0.39675713 0.336303 -1.0685432 0.07175625 0.38390812 -0.82054603 -0.38590854 -0.575803
0.27673787 -1.6040908 0.3610609 -1.5912579 -0.62958646 -1.314014 -0.68994665 -1.4580296
-0.77614003 -1.7069566 0.1845186 0.4139862 0.023475552 -1.1771945 -0.8290066 -0.49471253
-2.9180322 0.24830459 -1.9615048 -1.877234 0.21306986 -1.0795792 0.39212498 0.18930969
-0.39263126 -0.44143426 -0.6884395 -1.0281292 -0.99577093 0.30613494 0.4556882 -0.48707336
0.38277543 0.17950736 -2.725642 0.21308376 -2.2740476 -2.0186267 -2.2118077 0.014998091

fc2.bias f4 [4]
00000000: 6afb b03f 7fa6 843f 1c66 893f d4da 743f
1.3826725 1.036331 1.0734286 0.95646405

fc3.weight f4 [1, 4]
00000000: 49d9 3fbd 34e5 43bd ec22 bc3c efd4 b3bd
-0.04683808 -0.047826007 0.02296587 -0.08780848
