model/cross_validation/hp_nested_cv/checkpoint/c004_c003_128_16_0.001_64_0.1.pt (torch, 225751 bytes, 5 tensors)

fc1.weight f4 [128, 420]
0.00276688 -0.16256641 0.008170779 -0.15371864 0.13501935 -0.09288413 -0.2309477 -0.03780007
-0.09564106 -0.121455275 -0.057766467 0.026292503 6.3310945e-05 0.054937042 -0.22819376 0.064466275
0.030899463 -0.06915405 0.08802695 0.23441945 0.06710304 0.1094228 -0.018233335 -0.059511837
0.1247936 0.006701961 -0.04772083 -0.11910608 -0.046886176 -0.19722019 -0.05442978 0.032171752
0.02791702 -0.12687922 0.1780455 -0.14852634 -0.25428477 -0.042623017 -0.14422734 0.13331422
-0.029477853 -0.03846387 -0.22024593 -0.0047438024 0.18916102 -0.121264175 -0.21880673 -0.2460304
-0.06219937 -0.05100028 0.02671569 -0.043328304 -0.011085339 0.028394556 -0.06452953 0.09640598
-0.069805615 0.049261108 0.20060712 0.15627778 0.14624786 -0.31014767 -0.32503435 0.079897024
0.21166226 -0.18733972 0.28084406 -0.038008966 -0.13827556 0.16171516 -0.1784833 -0.007273429
-0.22204946 -0.23760043 0.004795564 -0.09828079 0.0012644363 -0.14163698 -0.23535673 0.020078825
0.04771914 -0.12323366 -0.115568995 -0.011882271 -0.20518334 -0.11138221 -0.22166719 -0.06184894
0.29103777 0.0964779 -0.21549909 -0.24375103 -0.20963776 -0.13029933 -0.0658817 0.0048363344
0.024437731 -0.002352244 0.042623233 0.066226915 -0.1944524 -0.122287944 -0.007809615 -0.04908244
0.034514707 -0.24238323 0.13454944 -0.007093109 -0.15633331 -0.015012418 -0.19162026 0.036732566
-0.579387 -0.10571127 0.33537614 0.07505083 0.022920841 -0.062919885 0.09372765 0.19144697
0.06201937 -0.26499668 -0.11773476 -0.19326514 0.08255343 -0.017621288 0.10764266 -0.059657417
-0.020792238 -0.28312382 -0.10709489 0.029180493 -1.2125545 -0.11273235 -0.43607417 0.1428135
0.19539367 -0.27189422 -0.01911804 0.20356964 0.16173336 -0.74494785 -0.6801266 0.498248
-0.5735906 -0.5751286 0.55881965 -0.23523685 -0.3076574 0.17841306 -0.09164798 -0.8534645
0.25649163 -0.026801985 -0.61859876 -0.43263382 -0.27775952 0.066668496 -0.9396136 -0.15449484
-0.07467913 -0.62571895 0.094430946 -0.2730184 0.18655814 -0.10089872 0.10455168 0.095789775
-0.05935901 -0.068743065 0.06430361 -0.118560776 -0.6357196 -0.13146622 -0.0003194229 -0.01475722
-0.067850016 -0.11696014 0.15739168 0.46283954 -0.09508728 -0.4924481 -0.30595884 -0.12517734
-0.43575314 -0.12161159 0.1466266 -0.023948692 0.19576415 -0.29835817 -0.5539362 -0.06020705
0.29488158 0.1443649 0.04427468 0.25411156 -0.09363533 -0.20696178 -0.4812659 0.010834356
-0.056517173 -0.7445774 0.14926541 0.24702118 0.054671757 0.16549057 0.1409248 -0.37296775
0.24806169 -0.33400756 -0.6249051 0.20057987 -0.34446386 0.033349317 0.24162139 -0.2588375
-0.07374244 -0.10738548 -0.025340777 -0.033521075 0.21834092 -0.36535943 -0.17442317 0.22237764
-0.106376745 -0.17248379 -0.022018649 0.20987996 -0.2881487 0.060409725 -0.18094009 -0.12170338
0.27560338 -0.07107054 -0.22465646 -0.0973049 -0.25941417 0.20324019 -0.4330131 -0.69038415
-0.044843014 -0.5578922 -0.67101294 -0.030840661 0.040511694 -0.59839886 -0.17821135 0.29422835
-0.09251292 0.26333594 -0.11393714 -0.21101052 0.33722705 -0.111669436 -0.18818605 -0.2511942
00000000: 8b54 353b cf77 26be bbde 053c 6b68 1dbe
00000010: 8342 0a3e 093a bebd 8e7d 6cbe 3fd4 1abd
00000020: 76df c3bd 8bbd f8bd 889c 6cbd 6063 d73c
00000030: cec5 8438 aa05 613d a0ab 69be e506 843d
00000040: df20 fd3c a3a0 8dbd 7947 b43d a70b 703e
00000050: 526d 893d 1019 e03d 135e 95bc afc2 73bd
00000060: c993 ff3d 209c db3b eb76 43bd e3ed f3bd
00000070: b80b 40bd 17f4 49be c3f1 5ebd 87c6 033d
00000080: 3cb2 e43c a0ec 01be 8f51 363e 4a17 18be
00000090: 9d31 82be 7995 2ebd 55b0 13be 8683 083e
000000a0: 8a7b f1bc 4a8c 1dbd 2688 61be e671 9bbb
000000b0: 6db3 413e 5a59 f8bd df0e 60be 65ef 7bbe
000000c0: c4c4 7ebd abe5 50bd ddda da3c 0579 31bd
000000d0: 489f 35bc b39b e83c 0f28 84bd 8070 c53d
000000e0: 3ff6 8ebd 04c6 493d f46b 4d3e 4807 203e
000000f0: 00c2 153e adcb 9ebe e76a a6be 0da1 a33d
00000100: febd 583e fcd5 3fbe cbca 8f3e 4aaf 1bbd
00000110: 1c98 0dbe a998 253e 54c4 36be f255 eebb
00000120: ef60 63be 874d 73be 1b24 9d3b 7047 c9bd
00000130: 71bb a53a 4909 11be 5b01 71be 597c a43c
00000140: 2575 433d ee61 fcbd 70af ecbd dbad 42bc
00000150: 951b 52be 5b1c e4bd b9fc 62be 5055 7dbd
00000160: e702 953e 3596 c53d cbab 5cbe df99 79be
00000170: 48ab 56be 306d 05be fcec 86bd 1d7a 9e3b
00000180: a331 c83c 1b28 1abb b395 2e3d faa1 873d
00000190: 881e 47be 1a72 fabd cde7 ffbb ab0a 49bd
000001a0: 4b5f 0d3d 4f33 78be 54c7 093e 506d e8bb
000001b0: d715 20be a5f6 75bc 1a38 44be e374 163d
000001c0: b552 14bf 267f d8bd 6cb6 ab3e 40b4 993d
000001d0: 7dc4 bb3c 24dc 80bd 48f4 bf3d ad0a 443e
000001e0: 0608 7e3d a5ad 87be ec1e f1bd 4ce7 45be
000001f0: c611 a93d 855a 90bc c173 dc3d 565b 74bd
00000200: 7c54 aabc 9bf5 90be 9154 dbbd ee0b ef3c
00000210: fc34 9bbf 38e0 e6bd 1d45 dfbe b43d 123e
00000220: 4715 483e b835 8bbe 709d 9cbc 8f74 503e
00000230: 6e9d 253e e7b4 3ebf c71c 2ebf 5d1a ff3e
00000240: d5d6 12bf a13b 13bf ce0e 0f3f eee1 70be
00000250: 4585 9dbe eab1 363e f0b1 bbbd a67c 5abf
00000260: df52 833e d68f dbbc 7d5c 1ebf 2e82 ddbe
00000270: 7f36 8ebe 7e89 883d 848a 70bf e533 1ebe
00000280: 5ff1 98bd 1e2f 20bf 0365 c13d 11c9 8bbe
00000290: 1909 3f3e fda3 cebd 311f d63d 6e2d c43d
000002a0: 6f22 73bd 2ac9 8cbd 9cb1 833d fecf f2bd
000002b0: 85be 22bf 159f 06be 3778 a7b9 44c8 71bc
000002c0: f3f4 8abd cc88 efbd 492b 213e 4ef9 ec3e
000002d0: 1fbd c2bd 2822 fcbe a3a6 9cbe 7d2e 00be
000002e0: 091b dfbe 7f0f f9bd 4925 163e 0c30 c4bc
000002f0: 6676 483e 67c2 98be c3ce 0dbf ab9b 76bd
00000300: b8fa 963e 64d4 133e 5e59 353d e91a 823e
00000310: e1c3 bfbd caed 53be 7c68 f6be 9582 313c
00000320: 8d7e 67bd a09c 3ebf 08d9 183e 1ff3 7c3e
00000330: 7eef 5f3d 5c76 293e 974e 103e a1f5 bebe
00000340: e203 7e3e 0a03 abbe c8f9 1fbf cf64 4d3e
00000350: 915d b0be 4b99 083d 996b 773e 5986 84be
00000360: 4706 97bd ebec dbbd 7697 cfbc 654d 09bd
00000370: c394 5f3e 6410 bbbe fd9b 32be f7b6 633e
00000380: 0ddc d9bd 979f 30be 7460 b4bc c6ea 563e
00000390: 3a88 93be 3070 773d 5c48 39be 9f3f f9bd
000003a0: e31b 8d3e 6e8d 91bd 580c 66be cb47 c7bd
000003b0: efd1 84be 321e 503e e5b3 ddbe 04bd 30bf
000003c0: 4fad 37bd 06d2 0ebf 81c7 2bbf 8ea5 fcbc
000003d0: 97ef 253d ab30 19bf 097d 36be 19a5 963e
000003e0: 6a77 bdbd f8d3 863e e057 e9bd 2413 58be
000003f0: 06a9 ac3e f2b2 e4bd d8b3 40be 879c 80be

fc1.bias f4 [128]
-0.07229079 -0.19592679 -0.12722188 -0.12528107 0.05201496 -0.29084337 -0.039868973 -0.25186443
-0.141756 0.095957674 -0.22220623 -0.1492021 -0.222197 -0.12555046 -0.1848895 -0.20442703
-0.38817954 -0.09567929 -0.18509105 -0.21970044 -0.1444305 -0.1619692 -0.12191336 -0.38984627
-0.19429126 -0.19979681 -0.23084144 -0.2354068 -0.06987919 -0.16988315 -0.14019331 -0.15418054
-0.1421738 -0.33710364 -0.18462911 -0.09983625 -0.12766244 -0.14162625 -0.17361498 -0.15002786
-0.1949237 -0.103742145 -0.19139545 -0.19911791 -0.20295493 -0.43663266 -0.14242162 -0.21411012
-0.11571638 -0.17144397 -0.15691888 -0.25944376 -0.21092574 -0.33610845 -0.31607375 -0.125846
-0.16606696 -0.110972926 -0.17144112 -0.1460294 -0.16947737 -0.20328894 -0.11102275 -0.098759264
-0.06354381 -0.21405007 -0.14461806 -0.13527896 -0.058802906 -0.08009079 -0.16696666 -0.22227584
-0.1928404 -0.15998207 -0.18492456 -0.12098559 0.22566538 -0.23118812 -0.37591773 -0.510021
-0.09268624 -0.21533945 -0.13925353 -0.106272615 -0.22911854 -0.57043487 -0.11723672 -0.27749404
-0.27237257 -0.0895683 -0.2450943 -0.1455023 -0.19876565 -0.18183449 -0.23517433 -0.11315749
-0.16693342 -0.13118072 -0.12644504 -0.13203914 -0.10435674 -0.24554962 -0.1160808 -0.1396441
-0.1825521 -0.18901584 -0.29278582 -0.12653285 -0.13154761 -0.1467617 -0.114714436 -0.18138337
-0.18153347 -0.15240452 -0.15780488 -0.06559444 -0.09986277 -0.30777863 -0.2027369 -0.22579144
-0.19063778 -0.19438179 -0.24572381 -0.25570938 -0.12880506 -0.13896617 -0.15619887 0.097833894
00000000: 320d 94bd 08a1 48be 7446 02be ae49 00be
00000010: a40d 553d 6ce9 94be a64d 23bd 60f4 80be
00000020: 7c28 11be 7585 c43d 088a 63be 6fc8 18be
00000030: 9c87 63be 4d90 00be ac53 3dbe 5255 51be
00000040: 78bf c6be 81f3 c3bd 8288 3dbe 27f9 60be
00000050: 97e5 13be 41db 25be b6ad f9bd ee99 c7be
00000060: 4af4 46be 8997 4cbe b361 6cbe 7b0e 71be
00000070: d21c 8fbd d9f5 2dbe d68e 0fbe 81e1 1dbe
00000080: 0296 11be d998 acbe 6a0f 3dbe f376 ccbd
00000090: f1b9 02be 7906 11be 20c8 31be e7a0 19be
000000a0: 149a 47be c376 d4bd 2bfd 43be 91e5 4bbe
000000b0: 6bd3 4fbe 518e dfbe f9d6 11be af3f 5bbe
000000c0: b6fc ecbd 028f 2fbe 58af 20be d0d5 84be
000000d0: ebfc 57be 6816 acbe 6bd4 a1be c6dd 00be
000000e0: 750d 2abe c645 e3bd 438e 2fbe bb88 15be
000000f0: 7a8b 2dbe fa2a 50be e55f e3bd 4c42 cabd
00000100: 4223 82bd f12f 5bbe c216 14be 9186 0abe
00000110: 51db 70bd a406 a4bd 4ff9 2abe 479c 63be
00000120: f477 45be 57d2 23be dd5c 3dbe 4bc7 f7bd
00000130: d314 673e 94bc 6cbe 4a78 c0be bc90 02bf
00000140: 49d2 bdbd f281 5cbe 7a98 0ebe 75a5 d9bd
00000150: 0d9e 6abe 0508 12bf ce19 f0bd b313 8ebe
00000160: 6b74 8bbe 966f b7bd 00fa 7abe 8efe 14be
00000170: 3989 4bbe d232 3abe 8ad1 70be 1dbf e7bd
00000180: 98f0 2abe 3d54 06be cf7a 01be 4535 07be
00000190: fdb8 d5bd 5c71 7bbe c5bb edbd ddfe 0ebe
000001a0: f0ee 3abe 5e8d 41be 06e8 95be d491 01be
000001b0: 6bb4 06be b348 16be 67ef eabd 90bc 39be
000001c0: e9e3 39be ee0f 1cbe 9a97 21be 6156 86bd
000001d0: da84 ccbd 2995 9dbe 439a 4fbe df35 67be
000001e0: 8d36 43be 050c 47be 069f 7bbe 57ec 82be
000001f0: 79e5 03be 264d 0ebe 99f2 1fbe 235d c83d

fc2.weight f4 [16, 128]
-0.25870073 -0.28020117 -0.24825002 -0.08306832 -0.4823336 0.2983447 0.16198687 -0.07598793
0.19441411 -0.29949322 0.26323047 -0.15202188 -0.48343903 -0.13859081 0.1771865 -0.24508874
0.24748307 -0.18570654 0.20253007 0.2881156 -0.41845915 -0.18425503 -0.17530848 -0.06596906
0.20650147 -0.22668655 -0.19858126 0.15761425 -0.18484594 -0.2302515 0.18286692 0.10834056
0.26178747 0.15458302 0.09161237 0.12452836 -0.17576328 0.251882 -0.20291951 0.06225221
-0.3175427 0.19999628 0.058170937 0.23036571 0.1574102 0.24639755 -0.22697665 0.23414597
0.1386917 0.18432598 0.1402259 -0.12570511 0.3206178 0.30986872 0.3550058 0.13383721
0.1219822 -0.17882168 -0.20988284 0.20912062 -0.26660532 0.24253227 0.19455096 0.22091231
-0.15752076 0.24781793 0.079416856 0.2109451 0.09846209 0.22664085 0.1993343 0.1598474
0.20073576 -0.20294043 0.1534003 0.14514306 -0.65622455 0.20359387 0.13138707 -0.069025904
-0.14843647 0.17563172 -0.19585684 0.12023161 -0.36587033 0.14781734 -0.18768181 0.18243049
0.09114743 -0.18607235 0.1748422 0.17170572 -0.38632026 0.1507348 -0.18647635 0.06739954
-0.30185977 -0.26497456 0.09573162 -0.20832616 -0.14944775 -0.41834307 -0.11620955 -0.2850145
-0.2443077 0.16804728 -0.2300536 -0.14052704 -0.36320302 0.07123404 0.1368127 -0.10265738
-0.2613805 -0.29570284 0.13412765 -0.124562606 -0.21415856 0.07742777 -0.19331051 -0.1530925
0.25422832 -0.32369363 0.16477937 0.24416307 -0.20011711 0.17390738 0.18969521 0.16504626
-0.28611913 -0.40780574 -0.35380137 -0.3372442 -0.55349594 0.1967796 0.045695137 -0.11514994
0.08460905 -0.27099603 0.17539857 -0.16108482 -0.3843491 -0.34471485 0.08020554 -0.23005709
0.1627679 -0.18655305 0.117826425 0.20655541 -0.34521812 -0.32961807 -0.18783702 -0.08642881
0.2382862 -0.20817901 -0.316829 0.1478411 -0.20995514 -0.4158577 0.14919862 0.15069218
0.16537097 0.13859487 0.20466419 0.06070657 -0.18030372 0.12542616 -0.32720497 0.12804106
-0.31647524 0.10725707 0.11826516 0.18345165 0.21562201 0.24067774 -0.22808245 0.281873
0.1603134 0.19608426 0.21049733 -0.24078389 0.19815505 0.38313627 0.37167338 0.22065751
0.16372536 -0.14932284 -0.12182933 0.12055884 -0.20296107 0.19455902 0.17065582 0.13076414
-0.22898942 0.15827674 0.16600986 0.1033515 0.113093674 0.17989457 0.09057467 0.15059483
0.17608452 -0.14459807 0.17829192 0.12809578 -0.52590805 0.19617736 0.17687091 -0.046527084
-0.23798808 0.15137203 -0.17969626 0.2109187 -0.24251649 0.16133037 -0.30859077 0.1931234
0.1091917 -0.36027032 0.13599582 0.13906302 -0.10843954 0.2701208 -0.17528814 0.12949035
-0.27234694 -0.3258491 0.18042813 -0.24222152 -0.10191502 -0.31906685 -0.21217221 -0.26389298
-0.19357212 0.21498695 -0.19696464 -0.2459223 -0.19679348 0.045006093 0.14881821 -0.20416032
-0.15873538 -0.1955082 0.26040256 -0.24453636 -0.3205167 0.18112977 -0.3011815 -0.11802359
0.18162535 -0.42818028 0.14729407 0.29587635 -0.20221618 0.1450498 0.13042144 0.06341536
00000000: 6c74 84be 8776 8fbe 4135 7ebe b91f aabd
00000010: 6ef4 f6be a3c0 983e e3df 253e 8f9f 9bbd
00000020: 7e14 473e 2d57 99be 25c6 863e a0ab 1bbe
00000030: 5285 f7be c0ea 0dbe 6170 353e 8bf8 7abe
00000040: 346c 7d3e db29 3ebe 0b64 4f3e e383 933e
00000050: 4740 d6be 5aad 3cbe 1184 33be c91a 87bd
00000060: 1f75 533e 8520 68be e358 4bbe a165 213e
00000070: 4148 3dbe 0dc7 6bbe 7741 3b3e a8e1 dd3d
00000080: 0209 863e 034b 1e3e 449f bb3d ba08 ff3d
00000090: 4afb 33be adf6 803e 22ca 4fbe 2cfc 7e3d
000000a0: f594 a2be d3cb 4c3e a644 6e3d fde4 6b3e
000000b0: 2430 213e a44f 7c3e 916c 68be f6c3 6f3e
000000c0: 3205 0e3e f3bf 3c3e 6197 0f3e d7b8 00be
000000d0: 0428 a43e 1da7 9e3e 52c3 b53e 9f0c 093e
000000e0: ced1 f93d 081d 37be 87eb 56be b723 563e
000000f0: 7e80 88be 615a 783e 5e38 473e d636 623e
00000100: 1f4d 21be fcc3 7d3e 4ea5 a23d fe01 583e
00000110: 7ea6 c93d 8a14 683e 4a1e 4c3e 09af 233e
00000120: ad8d 4d3e 9ecf 4fbe f814 1d3e 62a0 143e
00000130: 55fe 27bf e97a 503e 558a 063e 745d 8dbd
00000140: bbff 17be cdd8 333e b28e 48be fe3b f63d
00000150: 5b53 bbbe 6e5d 173e a92f 40be 0fcf 3a3e
00000160: 81ab ba3d c089 3ebe d509 333e a0d3 2f3e
00000170: c5cb c5be 395a 1a3e a8f3 3ebe c508 8a3d
00000180: 5d8d 9abe bfaa 87be f10e c43d 7453 55be
00000190: d508 19be 1031 d6be 46ff edbd 6ced 91be
000001a0: cc2b 7abe 9614 2c3e 2c93 6bbe 52e6 0fbe
000001b0: bff5 b9be 27e3 913d a118 0c3e 083e d2bd
000001c0: aad3 85be 5d66 97be c258 093e ae1a ffbd
000001d0: 624c 5bbe 7392 9e3d 31f3 45be 48c4 1cbe
000001e0: 372a 823e 2cbb a5be ecbb 283e e205 7a3e
000001f0: 80eb 4cbe c714 323e 763f 423e e301 293e
00000200: 357e 92be eacb d0be 7425 b5be 46ab acbe
00000210: e9b1 0dbf 9780 493e d32a 3b3d bbd3 ebbd
00000220: 8247 ad3d febf 8abe af9b 333e 6bf3 24be
00000230: 68c9 c4be 777e b0be cd42 a43d 1694 6bbe
00000240: a1ac 263e c307 3fbe fb4e f13d 4383 533e
00000250: 6ec0 b0be b3c3 a8be 5958 40be 9701 b1bd
00000260: 4c01 743e e12c 55be 6937 a2be a863 173e
00000270: 7bfe 56be 4deb d4be 86c7 183e 0d4f 1a3e
00000280: 0257 293e d0eb 0d3e 7d93 513e 74a7 783d
00000290: 8aa1 38be b76f 003e 6987 a7be 321d 033e
000002a0: 0b09 a2be 98a9 db3d 0135 f23d c0da 3b3e
000002b0: 04cc 5c3e 3a74 763e 728e 69be a851 903e
000002c0: 3229 243e 50ca 483e 9d8c 573e 0d90 76be
000002d0: 28e9 4a3e 702a c43e f94b be3e 0bf4 613e
000002e0: 9fa7 273e 16e8 18be a881 f9bd 8ee7 f63d
000002f0: 07d5 4fbe 7b3a 473e 66c0 2e3e 09e7 053e
00000300: 347c 6abe 4c13 223e 7dfe 293e f4a9 d33d
00000310: a89d e73d 4836 383e 367f b93d 8835 1a3e
00000320: 804f 343e 8411 14be 2892 363e 8a2b 033e
00000330: e9a1 06bf b8e2 483e a61d 353e 2f93 3ebd
00000340: 26b3 73be 4501 1b3e 4c02 38be 12fb 573e
00000350: 3e56 78be ca33 253e 9cff 9dbe 24c2 453e
00000360: e69f df3d 5a75 b8be 7d42 0b3e 8966 0e3e
00000370: 8d15 debd 464d 8a3e bc7e 33be 1e99 043e
00000380: 0f71 8bbe b1d5 a6be 27c2 383e eb08 78be
00000390: d2b8 d0bd bb5c a3be ac43 59be fb1c 87be
000003a0: c537 46be 8a25 5c3e 19b1 49be 0ed3 7bbe
000003b0: 3b84 49be 4f58 383d cd63 183e 670f 51be
000003c0: 878b 22be 4d33 48be 7c53 853e bd67 7abe
000003d0: c41a a4be 157a 393e 7634 9abe 5ab6 f1bd
000003e0: fffb 393e 723a dbbe 42d4 163e 1b7d 973e
000003f0: c211 4fbe ef87 143e 338d 053e eadf 813d

fc2.bias f4 [16]
0.19437736 0.15867367 0.1647242 0.24847229 0.16045603 0.24996783 0.2356268 0.20648193
0.22877325 0.13898998 0.17310478 0.15112878 0.13636784 0.25012755 0.24104814 0.23017193
00000000: dc0a 473e 5a7b 223e 76ad 283e 856f 7e3e
00000010: 964e 243e 91f7 7f3e 2748 713e 0070 533e
00000020: 8943 6a3e 6453 0e3e 6142 313e 81c1 1a3e
00000030: 03a4 0b3e b810 803e 53d5 763e 31b2 6b3e

fc3.weight f4 [1, 16]
-0.28653416 -0.30908924 -0.259734 0.2788029 -0.2414862 0.28710943 0.23395924 -0.2587088
0.24567354 -0.24386072 -0.30382973 -0.23320699 -0.3255585 0.263636 0.28359 0.26303005
00000000: 9bb4 92be f240 9ebe dbfb 84be 41bf 8e3e
00000010: 2948 77be 0200 933e 0393 6f3e 7b75 84be
00000020: d891 7b3e a0b6 79be 928f 9bbe d0cd 6ebe
00000030: 9baf a6be 4cfb 863e b532 913e e0ab 863e
