model/cross_validation/hp_nested_cv/checkpoint/c004_c001_128_16_0.01_64_0.3.pt (torch, 225751 bytes, 5 tensors)

fc1.weight f4 [128, 420]
000000 6e 05 cf be 7e 95 3a bf 10 10 3e bf f5 90 e0 bf
       -0.4043383 -0.72884357 -0.7424326 -1.7544237
000010 e9 4c 1a c0 10 1b 98 bf e2 60 0f c0 70 3d fa 3e
       -2.4109442 -1.1883259 -2.2402883 0.48874998
000020 e3 38 fd 3d c2 47 8c 3f dc be e8 3e 58 14 43 3f
       0.12364366 1.0959399 0.45458114 0.7620292
000030 0f ff 65 bf 07 7c d9 bf 20 75 68 bf 82 ba 99 3e
       -0.89842314 -1.6990975 -0.9080372 0.30025107
000040 c0 53 ce bd 3c 0c 22 3f c4 8e 1e 3f 95 67 e4 3e
       -0.10074568 0.6329992 0.61936593 0.44610277
000050 71 1b 0d 40 08 13 d3 3d 6a 24 26 c0 5b c4 4e be
       2.2048 0.10306364 -2.5959725 -0.20192091
000060 f1 6e d2 be 43 17 c6 bf c0 16 71 3f 35 69 e4 3e
       -0.41100267 -1.5475849 0.9417534 0.44611517
000070 00 a3 fb bf 59 2f 2b bd e3 35 1b 3f 97 78 44 3d
       -1.9659119 -0.0417932 0.606291 0.047966566
000080 48 df 91 bf e1 32 ac bf 10 b6 c1 bf 67 63 8c 3f
       -1.1396265 -1.3453027 -1.5133686 1.0967835
000090 af 5c f0 3d 49 fa 2d c0 60 e9 33 bf 4d c6 17 be
       0.11736428 -2.7184012 -0.70277977 -0.1482174
0000a0 b6 90 3c c0 59 d0 b5 be 55 08 9e 3e b3 d3 d6 bd
       -2.9463325 -0.3551052 0.30865732 -0.10489597
0000b0 db c8 94 be 92 f1 57 bf 30 f7 e3 3d 10 c6 d9 bf
       -0.2905949 -0.8435298 0.11131132 -1.7013569
0000c0 5d 54 38 3f 36 5f 34 c0 05 c1 9d 3f 7a 51 41 bf
       0.7200373 -2.8183112 1.232453 -0.7551495
0000d0 45 b2 e5 3f c8 f1 25 c0 65 40 09 bf 66 12 5f 3f
       1.7945029 -2.5928822 -0.53613883 0.8713745
0000e0 a7 04 03 3f 42 70 ab bf 89 81 4b bf ec 3f 55 bf
       0.51178974 -1.3393633 -0.7949453 -0.8330066
0000f0 49 96 b1 3f c7 fa c0 bc c6 f3 d8 be b5 f2 fc 3f
       1.3873988 -0.02355708 -0.42373484 1.9761568
000100 50 e2 8b bf 71 22 8d bf 68 6e 53 3f 0e 89 bc bf
       -1.092844 -1.1026136 0.8259034 -1.4729326
000110 25 9d 4d bf f5 41 17 bf 55 0b b4 bd 17 79 05 c0
       -0.8031791 -0.5908502 -0.08791224 -2.0855157
000120 30 bb d0 bf 8d 99 83 bf 85 01 8c 3e 6e 02 fa bf
       -1.6307125 -1.0281235 0.2734491 -1.9531991
000130 57 17 05 c0 35 b3 bc be 16 bd eb 3e 55 f5 e7 3e
       -2.0795496 -0.36855474 0.460427 0.4530436
000140 56 bc 25 c0 59 7d f9 3f 1d f5 c7 bf c9 d7 d7 bf
       -2.58962 1.9491378 -1.5621678 -1.6862727
000150 8a 0d 9a bf 37 51 b3 3c ec 45 3b 40 43 03 d3 bf
       -1.2035382 0.021889312 2.9261427 -1.648537
000160 85 71 24 c0 f9 1e e2 be c0 fa 22 bf 1f 92 93 bf
       -2.5694287 -0.44164255 -0.63663864 -1.1528968
000170 60 ac 18 c0 c5 93 8e bf c0 33 d0 be 64 ad ad be
       -2.385521 -1.1138846 -0.40664482 -0.3392135
000180 ad 16 35 40 fe 2c 2a c0 45 54 c4 bf af 0e 93 bf
       2.829509 -2.658996 -1.5338217 -1.1488856
000190 b5 8b a0 3f 28 b4 22 be 71 c8 da bf 68 76 17 3e
       1.2542635 -0.15889037 -1.709242 0.14791262
0001a0 c2 0c a5 bf ea 23 6d bf 71 39 35 40 2b c4 21 be
       -1.2894518 -0.92632926 2.831631 -0.15797488
0001b0 bb 06 03 c0 a2 f2 fa bd b3 da 80 bf 0b 88 84 bf
       -2.0472858 -0.1225331 -1.0066742 -1.0354017
0001c0 5e 12 aa bf 99 da 0b 3f c5 dc d6 3e 54 32 1e c0
       -1.3286855 0.5463043 0.4196531 -2.4718218
0001d0 e1 19 13 c0 a5 93 a8 bf 64 ec 69 be a0 e9 97 bf
       -2.2984545 -1.3170058 -0.22844082 -1.1868172
0001e0 34 9a 75 bf cc 98 b6 bf c0 e1 bf bf 5a 72 8a bf
       -0.9593842 -1.426538 -1.4990768 -1.0816147
0001f0 da 68 02 bf 09 f2 c7 3f c5 5b 38 be bb 7b 11 c0
       -0.5094124 1.5620738 -0.18003757 -2.273177
000200 f4 28 e3 be 03 1e 67 bf 2c 07 a4 bf 04 27 91 be
       -0.44367182 -0.9028017 -1.2814689 -0.2835008
000210 4c 38 dd 3e 3a 69 b6 be af 72 fe be 0a 35 33 c0
       0.43207014 -0.35627156 -0.49696872 -2.8001122
000220 b3 df a2 bf b5 b0 9a 3f 79 44 12 be 7c 56 b8 3f
       -1.2724518 1.2085177 -0.14283933 1.4401393
000230 62 15 a8 3e 5f e1 cc bf a3 24 2f 3f 03 ed 64 3f
       0.32828814 -1.6006278 0.6841528 0.8942415
000240 d6 6e 1f 3f 1b eb 29 c0 e2 31 a4 bf 28 95 6d bf
       0.622785 -2.6549747 -1.2827723 -0.9280572
000250 c1 de e9 bd ee d8 a3 bf b5 0f d5 bf 64 85 fc bf
       -0.1141944 -1.2800577 -1.6645418 -1.9728208
000260 4d 37 c9 bf a3 82 8a bf 5e 1d b6 bf c4 5b 34 c0
       -1.5720001 -1.0821117 -1.4227712 -2.818101
000270 d9 36 06 40 ad 8c 45 bf 9a 89 71 be bd 03 da 3e
       2.0970976 -0.7716778 -0.23587647 0.42580977
000280 e4 d9 d2 3f a7 fb 8e bf 74 6f e2 bf 7f 8d 7d 3e
       1.6472745 -1.1170548 -1.7690263 0.24761008
000290 07 66 2e c0 c2 e6 a1 3f 51 04 ed bf d8 15 b2 be
       -2.7249773 1.2648547 -1.8516942 -0.3478229
0002a0 56 c2 98 bf 4f f1 00 c0 d9 2d 0a c0 95 78 8c 3f
       -1.1934307 -2.0147283 -2.1590483 1.0974299
0002b0 7c 75 f2 bf 1f d3 f9 bf 12 d4 f3 be 38 53 aa bf
       -1.8942103 -1.9517554 -0.47622734 -1.3306646
0002c0 47 7d 5e 3d 55 6d 48 bf 30 6b 6b bf 48 77 31 3f
       0.054318693 -0.7829183 -0.9196043 0.69322634
0002d0 b0 41 12 be f9 fe 98 bf 8b b4 a5 bf 85 ef 32 bf
       -0.1428287 -1.1952811 -1.2945722 -0.6989673
0002e0 6a 6e 69 3f ee cf 86 3d 9f 6f 88 bc ef 87 b8 bc
       0.91184103 0.06582628 -0.016654788 -0.022525756
0002f0 ce d1 4d c0 d2 c2 2e c0 6a a4 e1 bd e5 21 7f 3f
       -3.2159305 -2.730641 -0.110176876 0.99661094
000300 0f b2 68 be 74 5f cd bf 9f bf 03 c0 ea c9 81 3e
       -0.22724174 -1.6044755 -2.0585706 0.2534936
000310 bb 6e ff bb 4e 99 0c c0 83 1a 85 3f 7e a3 8e bf
       -0.0077951825 -2.196857 1.0398716 -1.1143644
000320 9a 57 19 3e 19 a8 be bf 7b c5 e1 bf 63 b9 f3 3f
       0.14974824 -1.4895049 -1.7638391 1.904095
000330 e7 35 51 bf bc 38 94 3f 9e 0d 52 bf 05 aa 07 c0
       -0.81722873 1.1579814 -0.8205203 -2.1197522
000340 72 d9 60 bf 4c 52 67 bf 3c 69 1c bd e6 4d 32 c0
       -0.87831795 -0.9035995 -0.038186297 -2.7860045
000350 6f 9a 7c bf da 75 7e be 68 d8 d4 bf 73 7d 30 bf
       -0.98673147 -0.24849644 -1.6628542 -0.6894142
000360 cd fa 48 bf f3 0e 5e 3f 8e cd c9 3d ca 7f 1f c0
       -0.7850769 0.8674156 0.098536596 -2.4921746
000370 14 08 a5 bf 2e 8f bd bf 1d 8c 22 bf 3e 5a 1d c0
       -1.289309 -1.480932 -0.63495046 -2.458633
000380 1c cd e7 3d 2a 6a 80 bf 6e 45 15 bf c6 03 ad bf
       0.113184184 -1.0032399 -0.58309066 -1.3516777
000390 1c cb 46 be 1e 07 7e bf fd eb 09 bf 42 28 96 bf
       -0.19413418 -0.9922961 -0.53875715 -1.1731036
0003a0 79 91 c0 bf 22 89 88 bf de e5 b9 bf c5 1d 0e 40
       -1.5044395 -1.066685 -1.4523275 2.220567
0003b0 7a 71 11 bf 5c 89 f3 3e 2e 73 05 40 d1 cd 08 3e
       -0.56813776 0.47565734 2.085155 0.13359763
0003c0 c5 cd 33 bf 7d ce 9b be 22 87 0c bf 6c 38 2b bf
       -0.70235854 -0.30430976 -0.54893696 -0.6688297
0003d0 80 5f e6 bf c6 ab 89 bf fc 13 52 3d 00 47 21 bf
       -1.7997894 -1.0755546 0.05128859 -0.6299896
0003e0 90 2c 07 40 b9 76 14 c0 b7 31 81 3c 7b bd 06 c0
       2.1120949 -2.3197463 0.015770776 -2.105315
0003f0 b5 f8 70 3c a6 1b 84 3f 59 22 c9 bf cd 53 5f 3d
       0.014707734 1.0320938 -1.5713607 0.054523278

fc1.bias f4 [128]
000000 22 18 2c c0 da 1d 77 bf 6f de 5d c0 4a 72 b9 bf
       -2.688973 -0.96529925 -3.4667013 -1.4488003
000010 14 15 b3 c0 8a 4e 53 c0 09 67 c7 be 8e db a2 c0
       -5.596323 -3.3016686 -0.38945797 -5.089301
000020 30 f7 2e be 29 35 35 bf 56 ba 2e c0 ab 26 90 c0
       -0.17086482 -0.7078424 -2.730123 -4.50472
000030 cf 4f 44 3f 96 30 b2 c0 ee 75 84 bf 01 65 4a c0
       0.7668428 -5.568431 -1.0348489 -3.1624148
000040 ae 89 95 bf e0 91 c1 bf 26 f8 40 c0 71 25 ba bf
       -1.1682642 -1.5122643 -3.0151458 -1.4542676
000050 66 ad 2e c0 6a 8a 07 c0 8a de 84 c0 f5 32 9b c0
       -2.7293334 -2.1178231 -4.1521654 -4.8499703
000060 ed 80 85 c0 45 da 66 c0 a4 de d1 c0 91 81 9e bd
       -4.171988 -3.607072 -6.558428 -0.077395566
000070 ad 02 cc bf 59 16 cc bf eb 56 1a bf 5b 85 74 bf
       -1.5938317 -1.594432 -0.60288876 -0.95515984
000080 c4 a0 ad c0 57 c3 6c c0 cc 90 68 bf fd e9 44 c0
       -5.4258747 -3.6994226 -0.9084594 -3.0767815
000090 71 0f ed bf a3 7b 4e c0 1d d8 ed be e9 9d 53 c0
       -1.8520337 -3.2262962 -0.46453944 -3.306513
0000a0 71 cf 66 c0 50 11 8b c0 86 37 67 c0 d8 5f 8c bf
       -3.6064112 -4.3458633 -3.612764 -1.0966749
0000b0 fa 87 05 c0 e4 b5 f2 be 9b 0e 80 bf f1 ec 0e c1
       -2.0864244 -0.47404397 -1.0004457 -8.932847
0000c0 ca 37 3c bf 1b 49 b2 bf ff f5 e5 be 4c 5c 47 c0
       -0.7352263 -1.392856 -0.44914243 -3.1150084
0000d0 d2 31 34 c0 ca 6b 89 c0 f5 2d 2c c0 6e 26 a2 bf
       -2.8155408 -4.294408 -2.690305 -1.2667978
0000e0 79 1e 95 bf c9 ce 13 c0 70 fc 43 c0 f4 23 8d bf
       -1.1649925 -2.3094962 -3.0622826 -1.1026597
0000f0 ef 22 42 c0 06 58 ef bf eb 12 2d c0 c4 e8 a0 bf
       -3.0333822 -1.8698738 -2.7042797 -1.2571034
000100 32 24 50 c0 89 11 3d 3f 89 a1 41 bf 11 e4 e7 bf
       -3.2522092 0.7385488 -0.7563711 -1.8116475
000110 59 fa 85 c0 6e e5 a3 c0 a5 91 43 bf a0 7e 88 bf
       -4.18681 -5.1217566 -0.7639411 -1.0663643
000120 c3 b6 75 bf de bb 2a c0 96 22 a6 bf 0b e8 8f c0
       -0.95982 -2.6677165 -1.2979305 -4.4970756
000130 74 b1 4b c0 47 3a 6a c0 8f 13 1a c0 94 23 11 c1
       -3.1827059 -3.659807 -2.4074438 -9.071186
000140 ff eb fc bf c8 bb f6 bf fa b2 99 c0 f1 07 ea c0
       -1.975952 -1.9276056 -4.8030977 -7.3134694
000150 17 91 99 c0 b7 24 91 bf 5e 82 dc be bd 17 cb c0
       -4.798961 -1.133933 -0.43068212 -6.3466477
000160 7d 14 38 bf 0e c8 55 c0 fa 20 05 c0 09 25 d4 bf
       -0.7190626 -3.3403354 -2.0801377 -1.6573802
000170 94 37 91 bd 33 c6 12 c0 3d e3 1c c0 48 ad ba c0
       -0.07090679 -2.2933471 -2.4513695 -5.8336525
000180 b9 7f da c0 6a 65 35 c0 a5 2c eb be b8 df 24 bf
       -6.828091 -2.8343148 -0.459325 -0.6440387
000190 49 9e 10 c0 2e d5 a0 3e 06 f9 50 3f f8 d9 54 c0
       -2.259661 0.31412643 0.8162998 -3.3258038
0001a0 af 43 b3 c0 a6 5c c3 c0 5d 1c 1e c0 10 31 32 c0
       -5.602012 -6.1050596 -2.4704812 -2.7842445
0001b0 fc 6d 08 bf 68 53 1f c0 93 3e 68 c0 eb 3b 97 c0
       -0.5329282 -2.4894657 -3.6288192 -4.726064
0001c0 7b 50 47 be c1 0b 6b c0 db 63 d7 c0 1e e2 0e bf
       -0.19464295 -3.6725924 -6.7309394 -0.5581378
0001d0 f1 bc 86 bf f8 c1 b8 c0 75 f5 0c c0 30 7c 48 3d
       -1.052641 -5.773678 -2.2024815 0.04894656
0001e0 f8 05 a3 c0 27 5b 1b 3e 53 89 e9 bf 82 4b b5 c0
       -5.0944786 0.1517149 -1.8245033 -5.6654673
0001f0 d1 30 21 c0 d1 2f 00 c0 f1 e4 5d be 54 51 5c c0
       -2.5186045 -2.0029185 -0.21669365 -3.4424639

fc2.weight f4 [16, 128]
000000 f5 ec 04 3e 2d f3 84 bf f8 f6 7d bf 34 71 1e 3e
       0.12981017 -1.0386711 -0.9920497 0.15472871
000010 f8 44 45 bf 55 12 19 3e 51 36 f4 be 69 fc 98 be
       -0.7705836 0.149484 -0.4769769 -0.29880074
000020 34 21 97 bf 3b 38 fc be bb f9 82 bd 70 ba 41 3e
       -1.1807008 -0.4926165 -0.063952886 0.18918777
000030 b2 d6 b1 bf 6d 9d ee 3e 6a 99 e8 3d 52 89 0c 3f
       -1.3893645 0.4660448 0.113573864 0.54897034
000040 de f3 33 bf 77 cb 7c bf 44 77 ad 3e d3 cf d3 bf
       -0.70293987 -0.9874796 0.33880055 -1.6547798
000050 f4 fe 26 bb cd d8 7c 3e 17 13 ea bd 3a 85 0e 3f
       -0.0025481554 0.24692078 -0.11429422 0.5567204
000060 9b c5 03 3e 95 47 6e be f8 75 8e 3e 7d ba 84 bf
       0.12868349 -0.23269494 0.27824378 -1.0369412
000070 9d f8 10 bf f1 36 9d 3e 98 e0 6a be ac 08 f1 bf
       -0.56629354 0.3070598 -0.22937238 -1.8830771
000080 d9 6a 20 bf 35 19 96 3d b6 5a 5c be d9 ae d2 3e
       -0.62663037 0.073290266 -0.21518978 0.41149023
000090 95 e6 48 3f 0d e1 f9 3d 6f 81 c0 be 8b 9d f9 3e
       0.7847684 0.12201128 -0.3759875 0.48753008
0000a0 96 01 70 bf 87 83 d6 3e 6e 54 16 3e ee 7a d6 be
       -0.9375242 0.41897222 0.14680645 -0.41890663
0000b0 5e 1a 23 3f 16 3a 12 3d 4e 21 42 bf 2c e3 15 3f
       0.6371211 0.035699926 -0.7583207 0.5854976
0000c0 76 93 a1 be 72 ba 70 bf 14 89 20 bf c3 f4 bb 3e
       -0.31557816 -0.9403449 -0.62709165 0.36710176
0000d0 3c cc 18 3f a2 1d cb 3e ad 0e 32 c0 a2 42 3f 3d
       0.59686637 0.39671046 -2.7821457 0.046694405
0000e0 c9 47 09 c0 d6 4e 09 3f 90 58 41 3f 8a 58 72 bf
       -2.1450064 0.5363592 0.7552576 -0.9466635
0000f0 78 ac ca 3e 5e d7 94 be cd d9 c6 be 93 92 a4 bd
       0.39584708 -0.29070562 -0.38838044 -0.08035769
000100 68 e5 d0 bf 1c 44 6e bf 77 c4 b5 bf f8 9a 96 bf
       -1.6320009 -0.93072677 -1.4200581 -1.1766043
000110 52 fc ab 3d f2 bd 09 3f 27 4e f8 be 4b 00 b9 be
       0.08397736 0.5380546 -0.48497126 -0.36133036
000120 a3 85 46 bf a3 44 bd 3e bf 83 ef 3d dc 82 70 3e
       -0.77547663 0.36966428 0.116950504 0.23487419
000130 9a d8 86 be 14 d9 23 3e 2c ec 0e 3e 3d a7 ee bc
       -0.2633713 0.16000777 0.1395728 -0.02913248
000140 84 ac fb 3d 86 b0 e2 3e 4e 17 03 bf 33 94 85 ba
       0.12288764 0.44275302 -0.51207435 -0.0010191262
000150 de a2 40 bf 58 d7 31 be d1 a1 1b bd 82 35 76 be
       -0.75248516 -0.17367303 -0.037996117 -0.24043849
000160 8c d8 91 be cf 9a 67 3e 88 45 b5 be 9d 77 fe 3d
       -0.28485525 0.22617649 -0.3540461 0.12425158
000170 63 4e 9e bd 52 86 ae 3e 71 65 83 3e f0 7f 34 3e
       -0.07729795 0.34086853 0.2566333 0.1762693
000180 2b b6 bb 3e 29 1f a6 3e 8f 8b cc bf 10 67 ae be
       0.3666242 0.32445648 -1.598009 -0.34063005
000190 e2 bc e6 3e e7 7d 9c bf 09 f9 cd bf d9 94 0d 3e
       0.4506598 -1.2225922 -1.6091624 0.13826312
0001a0 14 6e ca 3e 85 81 32 3f f8 de 11 3e 72 1f 8b 3e
       0.39537108 0.6972888 0.14245212 0.27172428
0001b0 fe bc 83 be b3 33 3d 3e a1 5f 19 3f 08 e6 eb 3e
       -0.25730127 0.18476753 0.59911543 0.46073937
0001c0 6c b6 6b be 6f 6a 47 3f 65 fb 81 3e 5d ce 71 be
       -0.23018807 0.7789678 0.2538711 -0.23613878
0001d0 f9 88 06 bf 6f 95 ab 3d b5 06 ca bd c7 88 ff be
       -0.52552754 0.083781116 -0.098645605 -0.4990904
0001e0 34 bf 12 3f a3 07 82 bf 35 eb bd 3d 37 59 8d 3e
       0.57323 -1.015858 0.09273378 0.27607128
0001f0 03 99 3b 3e cc 5d f3 3e 39 2c 5a be 8c cf b3 bf
       0.18320088 0.475325 -0.21305932 -1.4047713
000200 e1 7c d3 be f0 b2 a1 be c3 c2 d5 be 06 38 97 bf
       -0.41306213 -0.3158183 -0.41750154 -1.1813972
000210 c2 54 39 3e ac 3a 51 bf 58 23 71 bf 34 87 5a bf
       0.18098739 -0.8173015 -0.94194555 -0.85362554
000220 06 53 9e bf c6 a1 7c bd 57 7f 27 bd fc 11 55 3f
       -1.2369087 -0.061677717 -0.040892925 0.83230567
000230 e1 1f 1c 3f 1a 26 06 3f be 41 2d c0 1d 78 a1 3f
       0.60986143 0.5240189 -2.7071376 1.2614781
000240 24 e3 7f 3e f8 88 42 bf 25 79 c2 be d0 9b 90 bf
       0.24988991 -0.7599025 -0.3798305 -1.129755
000250 59 89 c0 3d 35 ef a4 bf 6d cf 19 3f 3c 8c dc bd
       0.09401197 -1.28855 0.6008213 -0.10768935
000260 dd be 61 bf fe cf 52 bf 51 b5 9d bf 0b a2 0d bf
       -0.8818186 -0.8234862 -1.2320958 -0.5532538
000270 74 c1 2f be cb d2 a2 3f e2 d4 10 be b6 a2 11 bf
       -0.1716364 1.2720579 -0.14143708 -0.568889
000280 d8 1f 6f bf aa 8b bf 3f 15 45 7e bf 3b ed 8b be
       -0.93407965 1.4964497 -0.9932416 -0.2732943
000290 05 01 2f bf 40 d6 11 3e 4a 84 cd bd 9a 6d f1 bf
       -0.6836093 0.14241886 -0.10034998 -1.8861573
0002a0 96 21 b5 bf e3 bf 51 3e 6d cf 32 3e da be 03 c0
       -1.4150875 0.20483355 0.17461939 -2.0585237
0002b0 6b fd 68 3e 0b f3 c1 bf f1 8e 14 c0 ef 7f 65 3f
       0.22752921 -1.5152296 -2.3212245 0.89648336
0002c0 2b 41 0d c0 1b 5d 51 bf f5 da 1a c0 21 95 ce be
       -2.2071025 -0.8178269 -2.419614 -0.4034815
0002d0 6f 40 e2 3e b3 c0 d3 3e 3d 54 0f bf 14 e9 9f bc
       0.44189784 0.41357955 -0.5598791 -0.01952032
0002e0 6c e7 19 3f 98 d3 aa 3e 17 7b 6b 3e 2f b9 81 be
       0.60118747 0.33364558 0.22996174 -0.25336596
0002f0 47 64 00 bf ac 62 5d be 42 22 5a bf 6b a0 5d 3f
       -0.5015301 -0.21619672 -0.85208523 0.86572903
000300 d6 b0 b5 3e c2 91 45 bf e9 56 aa bf 4e 32 82 bd
       0.35486478 -0.77175534 -1.3307773 -0.06357251
000310 64 2c 53 3f 1d 6e 88 3f db e2 1d bf 37 44 fb be
       0.8248961 1.0658604 -0.6167428 -0.4907548
000320 45 e0 9c bf 54 64 27 be 1a 91 5a bf 86 4c af 3f
       -1.2255942 -0.16346866 -0.8537766 1.3695228
000330 99 78 a4 bf 55 44 e3 bf fc 09 3b bf e5 94 7c 3f
       -1.2849303 -1.7755228 -0.7306211 0.98664695
000340 97 13 1f bf 92 75 1c be 83 a6 58 bd 45 91 3c 3f
       -0.62139267 -0.15279225 -0.052893173 0.73659164
000350 d6 27 a5 3d 5f 88 ee bf 7f 3f 86 bc 20 d8 1e bf
       0.08064239 -1.8635367 -0.0163877 -0.6204853
000360 54 ce 82 bf f0 6c ad 3e b0 d2 31 be 1b 00 09 bf
       -1.0219216 0.33872175 -0.17365527 -0.53515786
000370 47 2c 10 c0 d5 88 d3 3e df 6d 35 bf db aa cd 3e
       -2.2527025 0.41315332 -0.70870775 0.40169415
000380 1f f1 69 3f 4d e3 13 3e 42 18 ae 3e 96 9a a9 bf
       0.91383547 0.14442177 0.34002882 -1.3250301
000390 02 27 27 3f c8 a6 63 bf 7c 95 88 3d 0f 52 cb bf
       0.65293896 -0.88926363 0.06669137 -1.5884417
0003a0 56 a6 55 bf 31 46 14 be c6 eb 2f be 4b 18 f3 3e
       -0.83456933 -0.14479901 -0.17179784 0.47479472
0003b0 d9 1e 17 c0 0e f4 40 3e 8c 90 14 be 49 dd 27 3f
       -2.3612578 0.188431 -0.14508265 0.6557203
0003c0 2c 8b 91 3e bb d6 3f 3f 04 93 8e 3f 5f 5b 2b bd
       0.28426492 0.7493703 1.1138616 -0.041835185
0003d0 fb 62 82 bf 4c 64 42 bf 3f ed b7 3e 6f 06 57 bf
       -1.0186456 -0.7593429 0.35923192 -0.8399419
0003e0 e6 a0 66 be 46 0e 0a 3f cf 7f 39 be 49 40 17 3d
       -0.22522315 0.5392803 -0.18115161 0.03692654
0003f0 a1 11 d8 bf 80 f2 45 bf 75 f0 f4 be 46 26 36 3e
       -1.688038 -0.7732315 -0.47839704 0.17788038

fc2.bias f4 [16]
000000 81 6f 45 3f 01 0b 2f c1 17 7a 79 3f be df 58 c1
       0.77123266 -10.9401865 0.9745192 -13.554625
000010 84 d6 56 3f d6 10 69 3f 47 78 4c 3f 09 4f c3 c0
       0.83921075 0.91041315 0.7987103 -6.103398
000020 54 da 84 3f 0b a4 e4 3e 2e 3e 33 3f 33 7f 2e 3f
       1.0379128 0.44656405 0.70016754 0.6816284
000030 26 31 2d 3f 02 fe 49 3f 87 51 75 3f b5 b0 a4 3f
       0.6765312 0.7890321 0.95827526 1.2866427

fc3.weight f4 [1, 16]
000000 72 6f 0b bc 3e b7 af bd a5 21 cc 3c fe 8f 9e bd
       -0.008510457 -0.085798725 0.024918387 -0.07742308
000010 35 58 9f bd 72 3c 03 bc 8d b7 02 bd 6c 2b c4 3d
       -0.07780496 -0.008010017 -0.03191333 0.095785946
000020 1e 11 0e ba c8 47 11 bd f3 37 92 3d a4 3e 85 bd
       -0.0005419421 -0.035468847 0.07139578 -0.065060884
000030 cc 86 fc 3c 47 b1 e5 bc 28 d1 55 bd f1 ec e1 bc
       0.030825995 -0.028038634 -0.05220142 -0.027578803
